esmScripts/6esmPCA/layer6_pca190.npy (npy, 288928 bytes, 1 tensors)

array (column-major) f8 [190, 190]
000000 00 00 00 80 b0 49 19 40 00 00 00 20 cc 6a 00 c0
       6.321962356567383 -2.052147150039673
000010 00 00 00 80 21 7e 1a c0 00 00 00 20 4c b1 21 c0
       -6.623174667358398 -8.846283912658691
000020 00 00 00 60 7f a7 f1 bf 00 00 00 e0 00 d9 0c c0
       -1.1033929586410522 -3.6059587001800537
000030 00 00 00 20 6a 5a 13 c0 00 00 00 c0 62 2b 03 40
       -4.8382954597473145 2.3961844444274902
000040 00 00 00 a0 5a 2d 15 c0 00 00 00 80 46 58 11 c0
       -5.294291019439697 -4.336206436157227
000050 00 00 00 c0 24 3b c2 bf 00 00 00 a0 52 c5 1a c0
       -0.142429918050766 -6.692698001861572
000060 00 00 00 20 55 df 04 40 00 00 00 e0 ed 18 14 c0
       2.609049081802368 -5.0243449211120605
000070 00 00 00 80 6b 0b 0a 40 00 00 00 40 e9 f9 11 c0
       3.2555761337280273 -4.494053840637207
000080 00 00 00 a0 01 61 0b 40 00 00 00 e0 ed 18 14 c0
       3.4223663806915283 -5.0243449211120605
000090 00 00 00 e0 ed 18 14 c0 00 00 00 00 89 0a 0e c0
       -5.0243449211120605 -3.7551441192626953
0000a0 00 00 00 00 f6 5d 16 c0 00 00 00 c0 7e 17 e0 bf
       -5.591758728027344 -0.5028680562973022
0000b0 00 00 00 20 ae 9f fe bf 00 00 00 a0 53 04 22 40
       -1.9139844179153442 9.008450508117676
0000c0 00 00 00 c0 06 5c e6 bf 00 00 00 00 df ae ee bf
       -0.6987336874008179 -0.9588465690612793
0000d0 00 00 00 c0 a1 dc 06 c0 00 00 00 e0 b0 b4 05 c0
       -2.8577303886413574 -2.7132279872894287
0000e0 00 00 00 60 5f d7 10 40 00 00 00 40 92 34 14 40
       4.210324764251709 5.051339149475098
0000f0 00 00 00 00 66 8c 12 c0 00 00 00 a0 f3 d3 f1 bf
       -4.637107849121094 -1.1142460107803345
000100 00 00 00 40 a7 8a 00 c0 00 00 00 00 f2 8f fb bf
       -2.067701816558838 -1.7226428985595703
000110 00 00 00 60 96 6b bf 3f 00 00 00 40 94 35 17 40
       0.1227354034781456 5.802323341369629
000120 00 00 00 c0 cc bd 00 c0 00 00 00 00 6d 5b ff 3f
       -2.0926756858825684 1.9598207473754883
000130 00 00 00 20 40 aa fd 3f 00 00 00 e0 c0 35 10 c0
       1.8540650606155396 -4.052493572235107
000140 00 00 00 20 1e 12 12 c0 00 00 00 60 54 c5 1e c0
       -4.517693042755127 -7.692704677581787
000150 00 00 00 60 a4 fe f9 bf 00 00 00 20 54 4e 21 40
       -1.6246684789657593 8.652985572814941
000160 00 00 00 c0 28 9c 01 40 00 00 00 40 a2 e0 36 40
       2.201249599456787 22.87747573852539
000170 00 00 00 80 d9 7c 2d 40 00 00 00 80 7b 28 0d c0
       14.743846893310547 -3.6447668075561523
000180 00 00 00 e0 34 35 19 c0 00 00 00 20 60 93 24 40
       -6.30195951461792 10.287842750549316
000190 00 00 00 60 19 c3 01 40 00 00 00 00 12 18 1f c0
       2.2202632427215576 -7.773506164550781
0001a0 00 00 00 40 18 53 fe 3f 00 00 00 00 ff 51 03 c0
       1.8952867984771729 -2.415037155151367
0001b0 00 00 00 a0 d4 a7 2c 40 00 00 00 a0 1b e2 23 40
       14.327794075012207 9.941617012023926
0001c0 00 00 00 e0 02 64 0f c0 00 00 00 a0 da 29 1a c0
       -3.9238336086273193 -6.540873050689697
0001d0 00 00 00 40 32 1c 1b c0 00 00 00 00 4c 87 24 c0
       -6.777535438537598 -10.264251708984375
0001e0 00 00 00 a0 c8 e1 09 c0 00 00 00 00 12 5c 06 c0
       -3.235245943069458 -2.7949562072753906
0001f0 00 00 00 80 b5 22 07 c0 00 00 00 c0 40 00 fd 3f
       -2.8919477462768555 1.8125617504119873
000200 00 00 00 c0 cd 12 da bf 00 00 00 e0 b4 1b 08 c0
       -0.40739768743515015 -3.01352858543396
000210 00 00 00 a0 16 aa 04 c0 00 00 00 a0 51 f3 12 40
       -2.5830509662628174 4.737616062164307
000220 00 00 00 a0 8e 2b 01 c0 00 00 00 40 de 71 e5 3f
       -2.146268129348755 0.6701499223709106
000230 00 00 00 00 56 7c fe bf 00 00 00 20 cd 9c e3 3f
       -1.905355453491211 0.6128907799720764
000240 00 00 00 40 1a 68 12 c0 00 00 00 c0 72 8a fa bf
       -4.601662635803223 -1.6588008403778076
000250 00 00 00 80 cd d3 15 c0 00 00 00 20 81 a7 f1 bf
       -5.456838607788086 -1.103394627571106
000260 00 00 00 60 f7 cd 13 c0 00 00 00 80 96 f8 d3 3f
       -4.951138973236084 0.3120476007461548
000270 00 00 00 a0 60 85 c0 bf 00 00 00 20 43 27 eb bf
       -0.12907035648822784 -0.8485427498817444
000280 00 00 00 20 f0 43 f4 bf 00 00 00 40 0c 7a 21 40
       -1.266586422920227 8.738374710083008
000290 00 00 00 c0 0d ec 1d c0 00 00 00 20 b6 1e 26 c0
       -7.480521202087402 -11.059983253479004
0002a0 00 00 00 40 fc 1a 2a 40 00 00 00 80 80 30 2a 40
       13.052705764770508 13.094730377197266
0002b0 00 00 00 40 4c 62 f7 bf 00 00 00 40 4c 62 f7 bf
       -1.461498498916626 -1.461498498916626
0002c0 00 00 00 a0 bd 79 30 40 00 00 00 80 cf 44 19 c0
       16.475549697875977 -6.317197799682617
0002d0 00 00 00 40 e2 5e 10 c0 00 00 00 00 fe 70 1c c0
       -4.092659950256348 -7.110343933105469
0002e0 00 00 00 e0 45 34 1a c0 00 00 00 80 34 f7 bf bf
       -6.5510478019714355 -0.12486580014228821
0002f0 00 00 00 20 91 5e f0 bf 00 00 00 e0 6f c2 35 40
       -1.0230876207351685 21.759519577026367
000300 00 00 00 60 09 25 32 40 00 00 00 60 6c d9 fc bf
       18.14467430114746 -1.8030818700790405
000310 00 00 00 60 69 5e d7 3f 00 00 00 c0 5f f1 10 40
       0.3651374280452728 4.235716819763184
000320 00 00 00 a0 ee 5c 19 c0 00 00 00 20 f8 b5 21 c0
       -6.34075403213501 -8.855408668518066
000330 00 00 00 c0 27 06 20 c0 00 00 00 80 64 cf 05 c0
       -8.012022018432617 -2.7262659072875977
000340 00 00 00 40 fd 5e 0e c0 00 00 00 a0 20 50 f8 3f
       -3.7963814735412598 1.5195623636245728
000350 00 00 00 00 f9 53 18 c0 00 00 00 e0 95 f5 0a c0
       -6.082004547119141 -3.3699147701263428
000360 00 00 00 00 89 0a 0e c0 00 00 00 c0 24 3b c2 bf
       -3.7551441192626953 -0.142429918050766
000370 00 00 00 a0 61 60 02 c0 00 00 00 a0 bb f7 14 c0
       -2.2970612049102783 -5.241926670074463
000380 00 00 00 a0 61 60 02 c0 00 00 00 20 81 a7 f1 bf
       -2.2970612049102783 -1.103394627571106
000390 00 00 00 20 ef c0 07 c0 00 00 00 60 c3 ed 20 40
       -2.9692060947418213 8.464381217956543
0003a0 00 00 00 20 7d 41 fb bf 00 00 00 a0 b4 63 33 40
       -1.7034884691238403 19.389474868774414
0003b0 00 00 00 e0 3a 15 14 c0 00 00 00 00 16 ea 0b c0
       -5.020732402801514 -3.489299774169922
0003c0 00 00 00 a0 57 66 16 c0 00 00 00 60 a0 ed 17 c0
       -5.5999436378479 -5.982057094573975
0003d0 00 00 00 40 0c 7a 21 40 00 00 00 60 4d 5f 28 40
       8.738374710083008 12.186137199401855
0003e0 00 00 00 20 55 e1 0d c0 00 00 00 80 66 a8 10 c0
       -3.735025644302368 -4.164453506469727
0003f0 00 00 00 e0 c0 35 10 c0 00 00 00 60 7e 90 16 c0
       -4.052493572235107 -5.641107082366943
000400 00 00 00 60 61 9c 15 c0 00 00 00 c0 c3 fd bb bf
       -5.40271520614624 -0.10934089124202728
000410 00 00 00 e0 e0 ca f6 3f 00 00 00 c0 8f d3 0b c0
       1.4245308637619019 -3.478301525115967
000420 00 00 00 80 1e 18 31 40 00 00 00 40 97 6e 1a c0
       17.094215393066406 -6.607998847961426
000430 00 00 00 60 54 c5 1e c0 00 00 00 a0 9f 37 12 40
       -7.692704677581787 4.554319858551025
000440 00 00 00 20 18 24 25 40 00 00 00 60 a4 fe f9 bf
       10.570496559143066 -1.6246684789657593
000450 00 00 00 80 85 18 37 40 00 00 00 40 55 49 0a 40
       23.095787048339844 3.2858071327209473
000460 00 00 00 c0 aa ed 2f 40 00 00 00 c0 42 ae 30 40
       15.964193344116211 16.680706024169922
000470 00 00 00 80 34 f7 bf bf 00 00 00 80 66 a8 10 c0
       -0.12486580014228821 -4.164453506469727
000480 00 00 00 20 20 30 15 c0 00 00 00 00 80 ff 03 c0
       -5.296997547149658 -2.499755859375
000490 00 00 00 00 dd 84 22 40 00 00 00 00 f6 09 07 40
       9.259498596191406 2.879863739013672
0004a0 00 00 00 20 d9 98 ff bf 00 00 00 80 65 9b 0e c0
       -1.9748164415359497 -3.8258771896362305
0004b0 00 00 00 60 54 72 f0 3f 00 00 00 e0 da e9 0b c0
       1.0279124975204468 -3.489187002182007
0004c0 00 00 00 e0 5d 5f 01 c0 00 00 00 00 6f 6c 18 c0
       -2.1715657711029053 -6.105892181396484
0004d0 00 00 00 a0 31 cb fe 3f 00 00 00 00 6e e1 0a c0
       1.9246078729629517 -3.3600730895996094
0004e0 00 00 00 c0 d9 75 00 c0 00 00 00 60 d9 5d eb bf
       -2.057544231414795 -0.8552061915397644
0004f0 00 00 00 e0 45 34 1a c0 00 00 00 00 b5 3b 18 c0
       -6.5510478019714355 -6.058307647705078
000500 00 00 00 20 d5 e4 1d 40 00 00 00 60 70 20 e4 bf
       7.473469257354736 -0.6289598345756531
000510 00 00 00 20 2a b3 08 c0 00 00 00 40 03 c2 07 c0
       -3.0874826908111572 -2.9697327613830566
000520 00 00 00 40 98 8e 01 c0 00 00 00 00 ff 51 03 c0
       -2.1946263313293457 -2.415037155151367
000530 00 00 00 60 6d cf 25 c0 00 00 00 60 d9 5d eb bf
       -10.905131340026855 -0.8552061915397644
000540 00 00 00 60 ad f9 29 40 00 00 00 c0 3c c9 fe 3f
       12.987650871276855 1.9241302013397217
000550 00 00 00 80 63 c1 2b 40 00 00 00 60 4d 5f 28 40
       13.87771224975586 12.186137199401855
000560 00 00 00 40 9f 93 1a c0 00 00 00 a0 bb f7 14 c0
       -6.644162178039551 -5.241926670074463
000570 00 00 00 60 8c f4 05 c0 00 00 00 a0 9f 37 12 40
       -2.744408369064331 4.554319858551025
000580 00 00 00 00 50 6a 17 c0 00 00 00 60 a0 ed 17 c0
       -5.85382080078125 -5.982057094573975
000590 00 00 00 40 0c 7a 21 40 00 00 00 40 87 d8 1e c0
       8.738374710083008 -7.711453437805176
0005a0 00 00 00 a0 26 00 08 c0 00 00 00 e0 55 b0 17 c0
       -3.0000736713409424 -5.9222025871276855
0005b0 00 00 00 00 9f f2 20 40 00 00 00 c0 31 38 13 c0
       8.473869323730469 -4.804877281188965
0005c0 00 00 00 c0 2d b4 15 c0 00 00 00 80 41 54 25 40
       -5.425955772399902 10.664562225341797
0005d0 00 00 00 60 6c d9 fc bf 00 00 00 e0 f6 44 10 40
       -1.8030818700790405 4.067348003387451
0005e0 00 00 00 c0 e4 0e fd 3f 00 00 00 60 83 84 29 40
       1.816136121749878 12.758814811706543
0005f0 00 00 00 00 fa 27 13 40 00 00 00 a0 5f 6e 12 40
       4.789039611816406 4.607786655426025
000600 00 00 00 c0 66 b2 0d c0 00 00 00 a0 ec 2f 25 40
       -3.7121100425720215 10.593602180480957
000610 00 00 00 40 20 7d 0c 40 00 00 00 80 53 cb 28 40
       3.561096668243408 12.39712142944336
000620 00 00 00 e0 76 f6 f5 bf 00 00 00 80 eb af 24 40
       -1.3726719617843628 10.34359359741211
000630 00 00 00 e0 28 d6 19 c0 00 00 00 00 36 d5 01 c0
       -6.459140300750732 -2.229106903076172
000640 00 00 00 40 8a 50 07 c0 00 00 00 c0 d5 83 f8 3f
       -2.9143261909484863 1.5321862697601318
000650 00 00 00 40 0a 8d 3c 40 00 00 00 40 54 76 36 40
       28.55093765258789 22.462223052978516
000660 00 00 00 40 f0 77 2d 40 00 00 00 80 86 91 1a c0
       14.734254837036133 -6.642114639282227
000670 00 00 00 20 17 a1 f4 bf 00 00 00 40 54 76 36 40
       -1.289328694343567 22.462223052978516
000680 00 00 00 40 54 76 36 40 00 00 00 c0 a1 44 24 40
       22.462223052978516 10.13404655456543
000690 00 00 00 c0 e1 65 05 c0 00 00 00 80 70 61 01 40
       -2.6747469902038574 2.1725778579711914
0006a0 00 00 00 40 36 c4 01 c0 00 00 00 c0 47 cd f4 3f
       -2.22080659866333 1.3001172542572021
0006b0 00 00 00 20 dc 39 f6 bf 00 00 00 a0 d9 99 11 c0
       -1.389125943183899 -4.400244235992432
0006c0 00 00 00 c0 c5 0a fe bf 00 00 00 20 ca 31 15 c0
       -1.8776299953460693 -5.2986226081848145
0006d0 00 00 00 80 84 63 bd bf 00 00 00 c0 44 74 01 c0
       -0.11479976773262024 -2.181771755218506
0006e0 00 00 00 c0 5e ff 16 c0 00 00 00 40 97 b8 04 c0
       -5.749384880065918 -2.590132236480713
0006f0 00 00 00 80 27 d9 f8 bf 00 00 00 40 7e 88 07 c0
       -1.553016185760498 -2.9416470527648926
000700 00 00 00 40 bc b4 14 c0 00 00 00 40 da 72 0b 40
       -5.176499366760254 3.4310803413391113
000710 00 00 00 c0 04 18 03 c0 00 00 00 c0 40 1f fa bf
       -2.386727809906006 -1.6326301097869873
000720 00 00 00 20 df 6e f8 bf 00 00 00 c0 bb f7 c5 bf
       -1.5270682573318481 -0.17162272334098816
000730 00 00 00 40 83 38 0f c0 00 00 00 40 1f 1c 1b c0
       -3.9025940895080566 -6.777462959289551
000740 00 00 00 40 3d 8b 18 40 00 00 00 e0 1c 31 15 40
       6.1359758377075195 5.297961711883545
000750 00 00 00 60 31 ff f9 3f 00 00 00 00 88 f3 26 40
       1.6248029470443726 11.47564697265625
000760 00 00 00 c0 bf 2f 18 40 00 00 00 40 ff b5 eb bf
       6.046629905700684 -0.8659664392471313
000770 00 00 00 00 0f 36 1f c0 00 00 00 80 c3 36 1a 40
       -7.802791595458984 6.55348014831543
000780 00 00 00 40 5f b1 0b c0 00 00 00 80 ff 33 f6 bf
       -3.4616074562072754 -1.3876948356628418
000790 00 00 00 c0 24 49 f5 bf 00 00 00 c0 86 ec 0a c0
       -1.330357313156128 -3.3654913902282715
0007a0 00 00 00 80 85 49 13 c0 00 00 00 00 ad af 13 40
       -4.821798324584961 4.921558380126953
0007b0 00 00 00 e0 48 7c f3 3f 00 00 00 40 ef 9d f3 3f
       1.217842936515808 1.2260582447052002
0007c0 00 00 00 c0 1c 68 d0 bf 00 00 00 80 e3 74 22 c0
       -0.25635451078414917 -9.22829818725586
0007d0 00 00 00 00 6e d3 de 3f 00 00 00 00 9a 80 00 c0
       0.48165464401245117 -2.062793731689453
0007e0 00 00 00 40 11 f3 a0 3f 00 00 00 c0 0b ab ef bf
       0.03310445696115494 -0.9896296262741089
0007f0 00 00 00 a0 8b 27 fd bf 00 00 00 e0 c9 60 f3 3f
       -1.8221546411514282 1.2111300230026245
