esmScripts/12esmPCA/layer9_pca190.npy (npy, 288928 bytes, 1 tensors)

array (column-major) f8 [190, 190]
0	0xbfe86c32a0000000	-0.763207733631134
1	0x40108cc540000000	4.1374711990356445
2	0x401cde7520000000	7.217243671417236
3	0xc0221116e0000000	-9.033377647399902
4	0xc01dad3da0000000	-7.419180393218994
5	0xbfebe87a60000000	-0.8721286654472351
6	0x3fec04cda0000000	0.8755863308906555
7	0x4002832360000000	2.3140323162078857
8	0x40100791a0000000	4.007391452789307
9	0xbfda5f4a60000000	-0.4120660722255707
10	0x40191d1fa0000000	6.278440952301025
11	0xc004732400000000	-2.5562210083007812
12	0xc02a1a1780000000	-13.050960540771484
13	0xc021239360000000	-8.569483757019043
14	0xc015bcf240000000	-5.434517860412598
15	0x3ffb6cbc60000000	1.714046835899353
16	0xc0128ba000000000	-4.6363525390625
17	0xc021239360000000	-8.569483757019043
18	0xc021239360000000	-8.569483757019043
19	0xc01035b3e0000000	-4.052443981170654
20	0xbff04f6c40000000	-1.019390344619751
21	0xbfe02a6500000000	-0.5051751136779785
22	0xbff01b3d40000000	-1.0066502094268799
23	0xc01d87f560000000	-7.382771968841553
24	0xbfeb463ac0000000	-0.8523229360580444
25	0xc00a2aaac0000000	-3.2708334922790527
26	0x40002b8ec0000000	2.021268367767334
27	0x401a1ba3c0000000	6.526991844177246
28	0xc01676c5a0000000	-5.615988254547119
29	0xbfd9138480000000	-0.39181625843048096
30	0x4021627060000000	8.69226360321045
31	0xbffbd26500000000	-1.738865852355957
32	0xbfd31fce40000000	-0.2988162636756897
33	0x401b4980e0000000	6.821780681610107
34	0x4017669820000000	5.850189685821533
35	0xc0050a9d60000000	-2.630182981491089
36	0x401ed12d40000000	7.7042741775512695
37	0x3fc2662000000000	0.14374160766601562
38	0xc010aa5760000000	-4.166348934173584
39	0x40213f1f20000000	8.623284339904785
40	0x402ab50ca0000000	13.353611946105957
41	0x4011186220000000	4.2738118171691895
42	0xc002350240000000	-2.275883197784424
43	0xc0032a2820000000	-2.3955843448638916
44	0xc0135e5ca0000000	-4.8421502113342285
45	0xc0307a54e0000000	-16.47785758972168
46	0xc0295d4020000000	-12.682129859924316
47	0x3ffb160ba0000000	1.6928821802139282
48	0x4012b8bfa0000000	4.680418491363525
49	0xc0217e8360000000	-8.747096061706543
50	0x3fd3f680a0000000	0.31192031502723694
51	0xbff5611380000000	-1.33620023727417
52	0xc0107078e0000000	-4.109836101531982
53	0xbfc63dc240000000	-0.17375972867012024
54	0xc0335ec480000000	-19.37018585205078
55	0xc021ed9400000000	-8.964019775390625
56	0xbff07e3b00000000	-1.030817985534668
57	0x3fefbdc100000000	0.9919133186340332
58	0x4022022280000000	9.004169464111328
59	0x402185dea0000000	8.76146411895752
60	0xc000c47700000000	-2.0959300994873047
61	0x401b594b60000000	6.8372015953063965
62	0x4003b2b240000000	2.462254047393799
63	0x3fdf1c4440000000	0.4861002564430237
64	0xc004a2c420000000	-2.5794756412506104
65	0x40066d8bc0000000	2.8034892082214355
66	0xbffea3ad00000000	-1.9149599075317383
67	0xc01ad26140000000	-6.705449104309082
68	0x400fe08540000000	3.9846291542053223
69	0xc01f9d4080000000	-7.903566360473633
70	0x3ff3a21200000000	1.2270679473876953
71	0xc019534c20000000	-6.331345081329346
72	0xbfb4e9bc20000000	-0.08169151097536087
73	0xc00d5375e0000000	-3.6657521724700928
74	0xc01dcc33a0000000	-7.449415683746338
75	0xc01dad3f40000000	-7.419186592102051
76	0x4010052c60000000	4.005052089691162
77	0xc01460ef20000000	-5.094662189483643
78	0xc0182fee60000000	-6.046807765960693
79	0xc00ec60ca0000000	-3.8467037677764893
80	0xc010fa1ea0000000	-4.24425745010376
81	0x400f5b6120000000	3.919618844985962
82	0x4002fbbce0000000	2.3729188442230225
83	0x4014f772e0000000	5.241649150848389
84	0xc030084600000000	-16.032318115234375
85	0xc03028dda0000000	-16.159631729125977
86	0x4031e08700000000	17.877059936523438
87	0x4031e08700000000	17.877059936523438
88	0xc030329b80000000	-16.19768524169922
89	0x4016fdf640000000	5.74800968170166
90	0x400b64dd80000000	3.424250602722168
91	0x4023750920000000	9.728585243225098
92	0x402eb5bda0000000	15.354962348937988
93	0xc0129e15c0000000	-4.654379844665527
94	0x4021f37da0000000	8.975567817687988
95	0xc033040080000000	-19.01563262939453
96	0xc031cea320000000	-17.80717658996582
97	0xbfbb5d7000000000	-0.10689449310302734
98	0xbff58070e0000000	-1.3438576459884644
99	0xc017fe31a0000000	-5.998236179351807
100	0xc00ec33520000000	-3.845316171646118
101	0x40075a9c20000000	2.919243097305298
102	0xbff6e7da80000000	-1.4316048622131348
103	0x400ccd59c0000000	3.600268840789795
104	0x401caacf00000000	7.166805267333984
105	0x40149ef0a0000000	5.155214786529541
106	0x4028fde580000000	12.495891571044922
107	0x4022496760000000	9.143366813659668
108	0xc01035b360000000	-4.0524420738220215
109	0x40191d2000000000	6.2784423828125
110	0xc012296ce0000000	-4.540454387664795
111	0xc00b736b20000000	-3.43135666847229
112	0xc012296ce0000000	-4.540454387664795
113	0xc01dad3f40000000	-7.419186592102051
114	0x3ff123ba80000000	1.0712227821350098
115	0x400f60ca00000000	3.922260284423828
116	0x4012f7b180000000	4.741888046264648
117	0xc030b69da0000000	-16.713342666625977
118	0x4008859c80000000	3.065239906311035
119	0x40281aa580000000	12.052043914794922
120	0xc0087340e0000000	-3.0562760829925537
121	0x402ef334a0000000	15.475010871887207
122	0x400f5b6260000000	3.919621229171753
123	0xc021c2f560000000	-8.880778312683105
124	0xbf9581adc0000000	-0.021002497524023056
125	0xbfd32157a0000000	-0.2989100515842438
126	0x40213f1f20000000	8.623284339904785
127	0x401b72bbe0000000	6.862044811248779
128	0x402ab0a240000000	13.344987869262695
129	0xc018caa740000000	-6.197903633117676
130	0xc017a3c1e0000000	-5.909919261932373
131	0x4028d5abc0000000	12.417325973510742
132	0xc03391b640000000	-19.56918716430664
133	0xc0042ff9c0000000	-2.523425579071045
134	0x4011186260000000	4.273812770843506
135	0xbffa337240000000	-1.6375601291656494
136	0x4026f6d680000000	11.482105255126953
137	0xc002350200000000	-2.2758827209472656
138	0xc031376b80000000	-17.21648406982422
139	0xbfc2742fa0000000	-0.14417071640491486
140	0xc031ff4940000000	-17.997211456298828
141	0xc02e7749e0000000	-15.232985496520996
142	0xc0129e1600000000	-4.654380798339844
143	0xbfd32157a0000000	-0.2989100515842438
144	0x400af9bfc0000000	3.371947765350342
145	0xbfd6804a60000000	-0.3515802323818207
146	0xc00508abc0000000	-2.6292338371276855
147	0x401151b440000000	4.329789161682129
148	0xbff5286d20000000	-1.3223696947097778
149	0xbffd023080000000	-1.8130345344543457
150	0xc017c97460000000	-5.946732997894287
151	0x40141ef880000000	5.030244827270508
152	0xc02347bdc0000000	-9.640119552612305
153	0x40277de0c0000000	11.745855331420898
154	0xbffcd3dcc0000000	-1.8017241954803467
155	0x4022065a20000000	9.012406349182129
156	0x4018952a80000000	6.145669937133789
157	0x3ffc2482c0000000	1.7589137554168701
158	0x402eb5bda0000000	15.354962348937988
159	0x402208eb00000000	9.017417907714844
160	0xc005d3c0c0000000	-2.7283949851989746
161	0x401973a520000000	6.362934589385986
162	0x4026af36e0000000	11.342215538024902
163	0x4028e8c020000000	12.454590797424316
164	0x401277eb00000000	4.617107391357422
165	0xbfc63dbf80000000	-0.17375940084457397
166	0x40224bd1a0000000	9.148083686828613
167	0x3ffc2482c0000000	1.7589137554168701
168	0xc026601e80000000	-11.187732696533203
169	0x40221a0360000000	9.050806999206543
170	0xc025a1b9a0000000	-10.815869331359863
171	0xc021c2f560000000	-8.880778312683105
172	0xc0025cf5e0000000	-2.2953908443450928
173	0xc00b736b20000000	-3.43135666847229
174	0x4018065440000000	6.006180763244629
175	0xbffa337240000000	-1.6375601291656494
176	0x402ba30280000000	13.818378448486328
177	0x402ef334a0000000	15.475010871887207
178	0x400f5b6260000000	3.919621229171753
179	0xc0112591a0000000	-4.286688327789307
180	0x4026866240000000	11.262468338012695
181	0xbff04ec960000000	-1.0192350149154663
182	0x3fe10d99a0000000	0.532910168170929
183	0x401c0cfb60000000	7.0126776695251465
184	0x402ab9e2a0000000	13.363057136535645
185	0x4028117780000000	12.034114837646484
186	0xbfbb5d7000000000	-0.10689449310302734
187	0xc000de9e60000000	-2.1087005138397217
188	0xbff9409ec0000000	-1.5782763957977295
189	0xc01ac98ec0000000	-6.696833610534668
190	0x40203a2700000000	8.113578796386719
191	0x4030cb2780000000	16.79357147216797
192	0xc001be80e0000000	-2.2180192470550537
193	0x402aed5340000000	13.463525772094727
194	0x4012a48620000000	4.660667896270752
195	0x402dee2960000000	14.96515941619873
196	0xc0105a5620000000	-4.088219165802002
197	0x403616e160000000	22.08937644958496
198	0xc01dbe5c60000000	-7.435899257659912
199	0xc0122509a0000000	-4.536169528961182
200	0xc0047affc0000000	-2.560058116912842
201	0xbfb94563a0000000	-0.09871504455804825
202	0x4032e67480000000	18.90021514892578
203	0x4031dc5040000000	17.860599517822266
204	0x402f56d560000000	15.669596672058105
205	0xc0086a6100000000	-3.051942825317383
206	0x401553a600000000	5.331687927246094
207	0x4031dc5040000000	17.860599517822266
208	0x4031dc5040000000	17.860599517822266
209	0x401548bf60000000	5.321042537689209
210	0x4000d04b80000000	2.1017065048217773
211	0x3ff8e27a00000000	1.5552921295166016
212	0xc015f022a0000000	-5.484507083892822
213	0xbfeab72ee0000000	-0.8348612189292908
214	0xbfeab10ae0000000	-0.8341116309165955
215	0xc011623ac0000000	-4.3459272384643555
216	0xc00f303d80000000	-3.898554801940918
217	0xbfdc1a4220000000	-0.4391026794910431
218	0xbfe12ec000000000	-0.536956787109375
219	0xc00c80de00000000	-3.5629234313964844
220	0xc018302f60000000	-6.047055721282959
221	0xc010d33400000000	-4.2062530517578125
222	0xc0013eda20000000	-2.1556894779205322
223	0xc0034f3b60000000	-2.4136874675750732
224	0xc014146900000000	-5.019931793212891
225	0x40182ba5a0000000	6.042623996734619
226	0xc013f3b5c0000000	-4.987998008728027
227	0xbfeaa21b80000000	-0.8322885036468506
228	0x40071c57a0000000	2.88883900642395
229	0xc0024449e0000000	-2.283344030380249
230	0xc00f1e3b80000000	-3.8897619247436523
231	0xc01acdf900000000	-6.701145172119141
232	0x40108c76e0000000	4.137172222137451
233	0x4015715080000000	5.360658645629883
234	0xc006d81120000000	-2.855501413345337
235	0x4000a3daa0000000	2.0800068378448486
236	0xbfffd998e0000000	-1.9906243085861206
237	0xc00ddd09e0000000	-3.732928991317749
238	0xc01e3e7cc0000000	-7.561022758483887
239	0x4000ac7c20000000	2.084221124649048
240	0x400b767ae0000000	3.432851552963257
241	0x3fd00bb280000000	0.25071394443511963
242	0x400bc4fc20000000	3.471184015274048
243	0xc0121573e0000000	-4.520949840545654
244	0xc01bb54b80000000	-6.927045822143555
245	0x3fea045da0000000	0.8130329251289368
246	0xc0044b9aa0000000	-2.5369160175323486
247	0xc0010767c0000000	-2.1286158561706543
248	0xc005f88720000000	-2.746351480484009
249	0xc0219678c0000000	-8.793889999389648
250	0x3f88e110c0000000	0.012148028239607811
251	0xc00a8d4d80000000	-3.318995475769043
252	0xbfe7d3bda0000000	-0.7445972561836243
253	0xc010ca4d00000000	-4.197559356689453
254	0xc00674c1a0000000	-2.8070099353790283
255	0x3fff58a760000000	1.9591439962387085
