esmScripts/12esmPCA/layer4_pca20.npy (npy, 30528 bytes, 1 tensors)

array (column-major) f8 [190, 20]
000000 00 00 00 40 5c b4 f5 bf 00 00 00 40 04 3f 12 40
       -1.3565332889556885 4.561539649963379
000010 00 00 00 20 b5 59 22 40 00 00 00 40 1c ea 00 c0
       9.175209999084473 -2.114311695098877
000020 00 00 00 60 93 47 22 c0 00 00 00 e0 22 cf 02 c0
       -9.139796257019043 -2.3511407375335693
000030 00 00 00 00 96 f3 1e 40 00 00 00 60 21 f6 27 c0
       7.737876892089844 -11.98072338104248
000040 00 00 00 40 11 2d 1d 40 00 00 00 e0 4a 62 0a 40
       7.294011116027832 3.297994375228882
000050 00 00 00 e0 6a 27 f6 3f 00 00 00 c0 c3 bf 17 40
       1.384623408317566 5.937270164489746
000060 00 00 00 40 7f ea 11 c0 00 00 00 a0 25 27 02 c0
       -4.479001045227051 -2.2691147327423096
000070 00 00 00 60 89 87 e4 3f 00 00 00 60 03 99 23 c0
       0.6415449976921082 -9.798853874206543
000080 00 00 00 20 ca e4 04 c0 00 00 00 a0 25 27 02 c0
       -2.6117136478424072 -2.2691147327423096
000090 00 00 00 a0 25 27 02 c0 00 00 00 00 25 d8 1a c0
       -2.2691147327423096 -6.711078643798828
0000a0 00 00 00 00 f9 71 11 40 00 00 00 c0 cd 8c ec bf
       4.361301422119141 -0.8921879529953003
0000b0 00 00 00 a0 7a f5 06 40 00 00 00 20 1f 13 24 c0
       2.8698627948760986 -10.037346839904785
0000c0 00 00 00 e0 f3 d9 c6 bf 00 00 00 00 5d d9 08 c0
       -0.1785263866186142 -3.1061344146728516
0000d0 00 00 00 00 18 a5 0b 40 00 00 00 e0 ec 6b 0f 40
       3.4556121826171875 3.9276978969573975
0000e0 00 00 00 60 ae 64 19 c0 00 00 00 80 36 d0 22 c0
       -6.348321437835693 -9.406665802001953
0000f0 00 00 00 60 28 95 22 40 00 00 00 00 39 dd f7 bf
       9.2913236618042 -1.4915094375610352
000100 00 00 00 c0 86 53 13 40 00 00 00 e0 c3 db 0c 40
       4.831568717956543 3.607307195663452
000110 00 00 00 80 4f ed 09 40 00 00 00 80 28 fe f6 bf
       3.2408742904663086 -1.4370503425598145
000120 00 00 00 60 f8 30 17 40 00 00 00 c0 ec bc 14 c0
       5.79782247543335 -5.184496879577637
000130 00 00 00 20 41 f7 d1 bf 00 00 00 60 f4 66 1e 40
       -0.280716210603714 7.600541591644287
000140 00 00 00 e0 fe c6 24 40 00 00 00 a0 1d 4a 19 40
       10.388663291931152 6.322378635406494
000150 00 00 00 80 44 f0 15 40 00 00 00 80 77 df 12 c0
       5.484636306762695 -4.718229293823242
000160 00 00 00 00 d3 06 07 c0 00 00 00 60 d0 47 31 c0
       -2.8783321380615234 -17.2805233001709
000170 00 00 00 80 64 61 28 c0 00 00 00 60 e2 e6 18 40
       -12.19021987915039 6.225472927093506
000180 00 00 00 40 ff 1f 1c 40 00 00 00 40 f4 38 1b c0
       7.031247138977051 -6.805619239807129
000190 00 00 00 00 84 88 f6 3f 00 00 00 40 4f 13 18 40
       1.4083290100097656 6.018857002258301
0001a0 00 00 00 e0 80 d8 cd bf 00 00 00 40 e6 57 f2 3f
       -0.23316965997219086 1.1464598178863525
0001b0 00 00 00 a0 60 5f 35 c0 00 00 00 e0 00 18 2a c0
       -21.372568130493164 -13.046881675720215
0001c0 00 00 00 60 ba 55 06 40 00 00 00 a0 14 94 14 40
       2.7918593883514404 5.1446099281311035
0001d0 00 00 00 60 f0 55 10 40 00 00 00 c0 f0 14 19 40
       4.083924770355225 6.270449638366699
0001e0 00 00 00 20 fe f9 15 40 00 00 00 60 48 38 1a 40
       5.494133472442627 6.5549635887146
0001f0 00 00 00 00 5b ff 16 40 00 00 00 80 df b3 fc 3f
       5.749370574951172 1.7939143180847168
000200 00 00 00 00 21 b8 ff bf 00 00 00 20 5a 3e 1b 40
       -1.9824533462524414 6.8108906745910645
000210 00 00 00 40 0e 0b f5 3f 00 00 00 00 56 6a 15 c0
       1.3151991367340088 -5.353843688964844
000220 00 00 00 a0 bc 20 17 40 00 00 00 40 e8 d4 10 c0
       5.7819695472717285 -4.207917213439941
000230 00 00 00 80 d2 26 17 40 00 00 00 a0 91 9e 1b c0
       5.787912368774414 -6.904852390289307
000240 00 00 00 c0 a4 55 07 40 00 00 00 80 79 84 fa bf
       2.916818141937256 -1.6573424339294434
000250 00 00 00 e0 0d 9e b9 bf 00 00 00 60 93 47 22 c0
       -0.10006796568632126 -9.139796257019043
000260 00 00 00 c0 e8 61 13 40 00 00 00 e0 c0 81 09 c0
       4.845614433288574 -3.1883561611175537
000270 00 00 00 80 a8 95 07 c0 00 00 00 a0 21 03 fd bf
       -2.948075294494629 -1.8132644891738892
000280 00 00 00 00 60 78 eb bf 00 00 00 a0 21 d8 cd 3f
       -0.8584442138671875 0.23315830528736115
000290 00 00 00 e0 98 be 1b 40 00 00 00 60 96 41 18 40
       6.936130046844482 6.064050197601318
0002a0 00 00 00 60 68 ed 36 c0 00 00 00 40 e7 45 39 c0
       -22.9273738861084 -25.273059844970703
0002b0 00 00 00 60 ce 60 1a 40 00 00 00 80 ce 60 1a 40
       6.594537258148193 6.594537734985352
0002c0 00 00 00 00 bc 77 30 c0 00 00 00 00 54 cc 1a 40
       -16.46771240234375 6.6995391845703125
0002d0 00 00 00 60 24 d7 19 40 00 00 00 60 a6 58 24 40
       6.460099697113037 10.173144340515137
0002e0 00 00 00 e0 1a 23 26 40 00 00 00 40 58 e2 05 40
       11.068564414978027 2.7355198860168457
0002f0 00 00 00 40 f9 87 15 40 00 00 00 00 6d 54 41 c0
       5.382786750793457 -34.659576416015625
000300 00 00 00 20 6a 63 3f c0 00 00 00 00 40 cb da 3f
       -31.388338088989258 0.4186553955078125
000310 00 00 00 e0 f0 69 0e 40 00 00 00 00 18 87 21 c0
       3.8017289638519287 -8.76385498046875
000320 00 00 00 c0 6f 8a 09 40 00 00 00 e0 14 dc 18 40
       3.192595958709717 6.21492338180542
000330 00 00 00 20 3c e6 0c 40 00 00 00 00 87 19 13 40
       3.612419366836548 4.774929046630859
000340 00 00 00 80 f9 19 22 40 00 00 00 60 85 2f e1 3f
       9.050731658935547 0.5370509028434753
000350 00 00 00 60 cd 9b 24 40 00 00 00 20 f4 04 1e 40
       10.304301261901855 7.504837512969971
000360 00 00 00 80 25 d8 1a c0 00 00 00 a0 6a 27 f6 3f
       -6.711080551147461 1.3846231698989868
000370 00 00 00 00 4a ff d9 3f 00 00 00 c0 cf fc 12 40
       0.4062066078186035 4.746886253356934
000380 00 00 00 00 4a ff d9 3f 00 00 00 60 93 47 22 c0
       0.4062066078186035 -9.139796257019043
000390 00 00 00 80 1b c3 19 40 00 00 00 20 09 a4 2e c0
       6.440534591674805 -15.320382118225098
0003a0 00 00 00 40 45 c5 1a 40 00 00 00 c0 26 12 36 c0
       6.6926469802856445 -22.070903778076172
0003b0 00 00 00 20 ff 37 1c 40 00 00 00 00 2f 82 23 40
       7.054684162139893 9.754264831542969
0003c0 00 00 00 00 66 9f 10 40 00 00 00 c0 ad 97 24 40
       4.155662536621094 10.296247482299805
0003d0 00 00 00 e0 19 d8 cd 3f 00 00 00 80 d1 c0 2c c0
       0.23315738141536713 -14.376598358154297
0003e0 00 00 00 20 9d 6d 16 40 00 00 00 20 15 eb 13 40
       5.607044696807861 4.979572772979736
0003f0 00 00 00 40 f4 66 1e 40 00 00 00 e0 f9 36 20 40
       7.600541114807129 8.107375144958496
000400 00 00 00 20 65 af 21 40 00 00 00 60 ff 8c 06 c0
       8.842568397521973 -2.8188464641571045
000410 00 00 00 20 f7 a0 1f c0 00 00 00 00 12 76 25 40
       -7.907192707061768 10.730606079101562
000420 00 00 00 40 31 14 3d c0 00 00 00 80 fc 26 18 40
       -29.078876495361328 6.03807258605957
000430 00 00 00 c0 1d 4a 19 40 00 00 00 60 62 30 17 c0
       6.322379112243652 -5.797250270843506
000440 00 00 00 80 4e 2f 02 40 00 00 00 80 44 f0 15 40
       2.273098945617676 5.484636306762695
000450 00 00 00 c0 e6 a3 43 c0 00 00 00 80 5a 18 f9 3f
       -39.280479431152344 1.5684456825256348
000460 00 00 00 60 45 d2 3b c0 00 00 00 80 41 2b 3e c0
       -27.82137107849121 -30.168968200683594
000470 00 00 00 40 58 e2 05 40 00 00 00 20 15 eb 13 40
       2.7355198860168457 4.979572772979736
000480 00 00 00 60 50 b3 11 40 00 00 00 20 d3 76 16 40
       4.425111293792725 5.616039752960205
000490 00 00 00 40 77 6b 11 c0 00 00 00 60 0f 82 e2 bf
       -4.354947090148926 -0.5783764719963074
0004a0 00 00 00 c0 c7 a5 18 40 00 00 00 80 1c 67 10 40
       6.161894798278809 4.10069465637207
0004b0 00 00 00 00 7b fb 19 c0 00 00 00 00 5d 97 0d 40
       -6.495586395263672 3.6989078521728516
0004c0 00 00 00 c0 12 1a 10 c0 00 00 00 80 dc 9d 23 40
       -4.0254621505737305 9.80832290649414
0004d0 00 00 00 60 2a ef 04 40 00 00 00 e0 0c 54 1f 40
       2.6167800426483154 7.832080364227295
0004e0 00 00 00 00 1e d1 14 40 00 00 00 20 b3 96 00 c0
       5.204216003417969 -2.0735838413238525
0004f0 00 00 00 e0 1a 23 26 40 00 00 00 20 34 6c 23 40
       11.068564414978027 9.711335182189941
000500 00 00 00 a0 ee 83 06 c0 00 00 00 00 0a 95 13 40
       -2.814419984817505 4.895545959472656
000510 00 00 00 20 e7 ea 1c 40 00 00 00 20 bf 83 20 40
       7.229397296905518 8.257317543029785
000520 00 00 00 40 d5 20 18 40 00 00 00 20 e6 57 f2 3f
       6.0320634841918945 1.146459698677063
000530 00 00 00 a0 48 49 20 40 00 00 00 20 b3 96 00 c0
       8.143132209777832 -2.0735838413238525
000540 00 00 00 e0 d0 52 21 c0 00 00 00 80 5b 83 00 40
       -8.661749839782715 2.0641393661499023
000550 00 00 00 40 67 40 1f c0 00 00 00 80 d1 c0 2c c0
       -7.812893867492676 -14.376598358154297
000560 00 00 00 20 54 e3 17 40 00 00 00 c0 cf fc 12 40
       5.972000598907471 4.746886253356934
000570 00 00 00 c0 2b 8f 1c 40 00 00 00 60 62 30 17 c0
       7.139815330505371 -5.797250270843506
000580 00 00 00 20 41 0f 26 40 00 00 00 c0 ad 97 24 40
       11.029793739318848 10.296247482299805
000590 00 00 00 e0 19 d8 cd 3f 00 00 00 00 88 54 12 40
       0.23315738141536713 4.582550048828125
0005a0 00 00 00 00 e7 6f 24 40 00 00 00 c0 cc d7 08 40
       10.218559265136719 3.1053709983825684
0005b0 00 00 00 20 71 c4 08 c0 00 00 00 80 f2 e5 1d 40
       -3.095918893814087 7.474557876586914
0005c0 00 00 00 20 ee c0 21 40 00 00 00 80 c7 fb 02 40
       8.876816749572754 2.372939109802246
0005d0 00 00 00 00 40 cb da 3f 00 00 00 60 fa aa 00 c0
       0.4186553955078125 -2.0834853649139404
0005e0 00 00 00 40 dd 84 00 40 00 00 00 40 25 18 0c c0
       2.0648751258850098 -3.5117897987365723
0005f0 00 00 00 00 f0 fd d3 3f 00 00 00 20 46 21 db 3f
       0.3123741149902344 0.4239058792591095
000600 00 00 00 60 e5 12 03 c0 00 00 00 20 13 e7 f2 3f
       -2.3842265605926514 1.1814147233963013
000610 00 00 00 e0 c9 15 11 c0 00 00 00 20 64 e8 32 40
       -4.271277904510498 18.907777786254883
000620 00 00 00 a0 69 04 09 40 00 00 00 c0 ea 60 33 40
       3.127154588699341 19.378582000732422
000630 00 00 00 a0 dc 45 0d c0 00 00 00 00 93 85 0d 40
       -3.6591122150421143 3.6902217864990234
000640 00 00 00 c0 9d 86 21 c0 00 00 00 a0 b9 fb 1b 40
       -8.762922286987305 6.995825290679932
000650 00 00 00 e0 9e 55 31 40 00 00 00 20 d5 32 2d 40
       17.334455490112305 14.599282264709473
000660 00 00 00 20 bd 19 21 40 00 00 00 60 a5 d9 f4 3f
       8.550271034240723 1.3031362295150757
000670 00 00 00 c0 9f de 11 40 00 00 00 20 d5 32 2d 40
       4.467406272888184 14.599282264709473
000680 00 00 00 20 d5 32 2d 40 00 00 00 e0 b1 52 16 40
       14.599282264709473 5.580756664276123
000690 00 00 00 e0 e5 5c f8 bf 00 00 00 40 1d a0 15 40
       -1.5226801633834839 5.4063615798950195
0006a0 00 00 00 e0 12 47 f3 bf 00 00 00 40 6b 5a 00 40
       -1.2048519849777222 2.044149875640869
0006b0 00 00 00 40 fa 55 00 40 00 00 00 a0 20 77 02 c0
       2.0419812202453613 -2.3081676959991455
0006c0 00 00 00 80 71 8f 16 40 00 00 00 00 4d af 08 c0
       5.640081405639648 -3.0855960845947266
0006d0 00 00 00 a0 3a 90 11 40 00 00 00 40 df 58 22 c0
       4.390848636627197 -9.173578262329102
0006e0 00 00 00 a0 45 46 1c c0 00 00 00 00 7a 7f 14 c0
       -7.068624973297119 -5.124488830566406
0006f0 00 00 00 c0 c5 0b 10 40 00 00 00 e0 84 63 21 c0
       4.011496543884277 -8.69437313079834
000700 00 00 00 00 08 97 19 c0 00 00 00 40 51 ce f7 bf
       -6.397491455078125 -1.487870454788208
000710 00 00 00 c0 fe ec 18 c0 00 00 00 e0 0f 1f 21 c0
       -6.231440544128418 -8.560667991638184
000720 00 00 00 20 af 57 0f 40 00 00 00 40 cd ba e1 bf
       3.9178144931793213 -0.5540529489517212
000730 00 00 00 60 1d 9c 18 c0 00 00 00 80 62 0e 16 c0
       -6.152455806732178 -5.514047622680664
000740 00 00 00 60 e9 8b 10 40 00 00 00 80 0c 9c fe bf
       4.136632442474365 -1.913097858428955
000750 00 00 00 40 b8 fe e2 3f 00 00 00 a0 bb 57 23 40
       0.5935937166213989 9.671353340148926
000760 00 00 00 80 00 3e 10 40 00 00 00 40 59 c1 08 40
       4.060548782348633 3.0944085121154785
000770 00 00 00 60 0d 90 17 c0 00 00 00 80 42 26 21 40
       -5.890676021575928 8.574726104736328
000780 00 00 00 40 7d 41 11 40 00 00 00 c0 8e b0 00 c0
       4.3139543533325195 -2.086209774017334
000790 00 00 00 00 0f 5e 10 40 00 00 00 00 9e d1 07 c0
       4.091854095458984 -2.9773521423339844
0007a0 00 00 00 80 bc c6 f9 bf 00 00 00 a0 df 88 0e 40
       -1.6110196113586426 3.8168327808380127
0007b0 00 00 00 e0 d8 7c 05 40 00 00 00 80 ab dc f3 3f
       2.685960531234741 1.2413744926452637
0007c0 00 00 00 a0 17 07 14 c0 00 00 00 00 e4 97 20 c0
       -5.0069260597229 -8.296661376953125
0007d0 00 00 00 a0 d4 20 1f 40 00 00 00 80 02 f3 17 c0
       7.7820611000061035 -5.987314224243164
0007e0 00 00 00 00 22 57 01 40 00 00 00 e0 3d e6 12 c0
       2.1675453186035156 -4.7248454093933105
0007f0 00 00 00 e0 b6 39 f6 bf 00 00 00 e0 a0 ef f6 3f
       -1.3890904188156128 1.4335030317306519
