esmScripts/oldData/6esmPCA/layer0_pca50.npy (npy, 76128 bytes, 1 tensors)

array (column-major) f8 [190, 50]
000000 00 00 00 e0 2c 33 07 40 00 00 00 c0 3e 75 07 c0
       2.8999879360198975 -2.932248592376709
000010 00 00 00 a0 70 e9 19 c0 00 00 00 c0 1a 83 22 c0
       -6.477968692779541 -9.256063461303711
000020 00 00 00 40 9f d3 13 40 00 00 00 60 44 ff 31 c0
       4.956662178039551 -17.99713706970215
000030 00 00 00 20 62 d3 0a c0 00 00 00 00 fd 04 1d c0
       -3.3532145023345947 -7.254871368408203
000040 00 00 00 a0 6e d2 0d c0 00 00 00 c0 d2 41 10 c0
       -3.727750062942505 -4.0642805099487305
000050 00 00 00 20 4c cb 14 40 00 00 00 80 2c 61 1d c0
       5.198532581329346 -7.34489631652832
000060 00 00 00 e0 25 c5 2a c0 00 00 00 00 a8 84 2b c0
       -13.385054588317871 -13.75909423828125
000070 00 00 00 20 ce 5a 19 c0 00 00 00 c0 7d 56 11 c0
       -6.338676929473877 -4.334464073181152
000080 00 00 00 20 b9 50 13 40 00 00 00 00 a8 84 2b c0
       4.828831195831299 -13.75909423828125
000090 00 00 00 00 a8 84 2b c0 00 00 00 a0 ab fa 13 c0
       -13.75909423828125 -4.994795322418213
0000a0 00 00 00 60 44 ed 1a c0 00 00 00 60 72 74 21 c0
       -6.731706142425537 -8.727435111999512
0000b0 00 00 00 00 7a b1 d5 bf 00 00 00 c0 a3 bc 12 40
       -0.3389573097229004 4.684218406677246
0000c0 00 00 00 00 28 ef fe 3f 00 00 00 c0 2d e2 d8 bf
       1.9333877563476562 -0.3888048529624939
0000d0 00 00 00 00 e6 01 f8 bf 00 00 00 a0 35 d0 ee bf
       -1.5004634857177734 -0.9629161953926086
0000e0 00 00 00 20 22 10 17 40 00 00 00 c0 58 bb 25 40
       5.7657551765441895 10.865911483764648
0000f0 00 00 00 a0 ea 0e c3 bf 00 00 00 c0 17 a6 f0 bf
       -0.14889271557331085 -1.0405499935150146
000100 00 00 00 e0 e3 2e 14 c0 00 00 00 20 f3 bf ee bf
       -5.045791149139404 -0.9609313607215881
000110 00 00 00 80 02 f1 16 40 00 00 00 20 ce df 0f 40
       5.735361099243164 3.9842798709869385
000120 00 00 00 e0 64 d7 fb bf 00 00 00 20 8e 00 1a 40
       -1.7400864362716675 6.500542163848877
000130 00 00 00 a0 ad 84 09 40 00 00 00 e0 f2 3d 15 c0
       3.189784288406372 -5.310496807098389
000140 00 00 00 00 c3 84 19 c0 00 00 00 20 a9 36 17 c0
       -6.379650115966797 -5.803379535675049
000150 00 00 00 20 99 a5 14 c0 00 00 00 a0 92 11 15 40
       -5.161716938018799 5.267160892486572
000160 00 00 00 a0 29 08 c7 bf 00 00 00 60 19 13 20 40
       -0.17993660271167755 8.03730297088623
000170 00 00 00 40 ea eb 1e 40 00 00 00 e0 6e c3 01 c0
       7.730385780334473 -2.220426321029663
000180 00 00 00 40 9c 97 09 c0 00 00 00 20 a0 b1 05 40
       -3.199028491973877 2.711731195449829
000190 00 00 00 00 c1 8c e4 3f 00 00 00 60 d2 12 1e c0
       0.6421818733215332 -7.518380641937256
0001a0 00 00 00 20 d4 57 09 40 00 00 00 80 c8 d9 f3 bf
       3.1678850650787354 -1.2406697273254395
0001b0 00 00 00 80 42 25 36 40 00 00 00 80 17 b1 11 40
       22.145545959472656 4.422941207885742
0001c0 00 00 00 20 df d2 12 c0 00 00 00 80 3c 68 0d c0
       -4.705929279327393 -3.675896644592285
0001d0 00 00 00 20 f6 4f 13 c0 00 00 00 60 bf ca 24 c0
       -4.828087329864502 -10.395991325378418
0001e0 00 00 00 60 d7 ac 1b c0 00 00 00 20 88 70 07 c0
       -6.918790340423584 -2.9299471378326416
0001f0 00 00 00 40 45 c5 0b c0 00 00 00 80 c5 c9 fe 3f
       -3.4713234901428223 1.9242606163024902
000200 00 00 00 a0 1b c2 e5 bf 00 00 00 80 4a a4 14 c0
       -0.6799448132514954 -5.160440444946289
000210 00 00 00 40 39 ec f8 bf 00 00 00 80 fd f5 0c 40
       -1.5576717853546143 3.620112419128418
000220 00 00 00 e0 4e e8 d1 bf 00 00 00 a0 bc 48 c4 3f
       -0.27980396151542664 0.15846975147724152
000230 00 00 00 20 6f 48 11 c0 00 00 00 80 38 44 12 40
       -4.320736408233643 4.566621780395508
000240 00 00 00 20 72 ba 07 c0 00 00 00 20 d9 db ff 3f
       -2.9660379886627197 1.9911738634109497
000250 00 00 00 a0 03 c1 23 c0 00 00 00 20 9f d3 13 40
       -9.876980781555176 4.956661701202393
000260 00 00 00 a0 40 a6 e0 3f 00 00 00 80 3b ac 02 c0
       0.5202944874763489 -2.3340978622436523
000270 00 00 00 80 05 8d 02 40 00 00 00 80 11 6e 18 c0
       2.3188581466674805 -6.107488632202148
000280 00 00 00 60 0b 14 e8 3f 00 00 00 c0 7b e1 24 40
       0.7524468302726746 10.440397262573242
000290 00 00 00 e0 a0 54 20 c0 00 00 00 e0 be 95 29 c0
       -8.165289878845215 -12.792471885681152
0002a0 00 00 00 00 70 17 2e 40 00 00 00 40 e2 af 3c 40
       15.0457763671875 28.68704605102539
0002b0 00 00 00 a0 a6 76 04 c0 00 00 00 a0 a6 76 04 c0
       -2.5579349994659424 -2.5579349994659424
0002c0 00 00 00 a0 c1 b6 22 40 00 00 00 80 14 65 11 c0
       9.356945991516113 -4.348711013793945
0002d0 00 00 00 60 6a c5 0f c0 00 00 00 a0 87 91 19 c0
       -3.9713943004608154 -6.39211893081665
0002e0 00 00 00 80 a8 14 19 c0 00 00 00 e0 6d 05 09 c0
       -6.270174026489258 -3.1276509761810303
0002f0 00 00 00 40 6c 95 19 c0 00 00 00 a0 a7 05 42 40
       -6.395920753479004 36.0441780090332
000300 00 00 00 c0 7d 95 3f 40 00 00 00 80 90 9c 0c c0
       31.58395004272461 -3.5764474868774414
000310 00 00 00 20 28 a0 f2 bf 00 00 00 20 91 29 19 40
       -1.1641007661819458 6.290592670440674
000320 00 00 00 c0 63 bd 26 c0 00 00 00 40 68 c8 1e c0
       -11.369901657104492 -7.695710182189941
000330 00 00 00 80 9f ac 15 c0 00 00 00 40 cd e9 13 c0
       -5.418577194213867 -4.9783220291137695
000340 00 00 00 e0 68 9a ff bf 00 00 00 40 6d 25 0c 40
       -1.975197672843933 3.5182747840881348
000350 00 00 00 80 6a 05 1a c0 00 00 00 20 ed ca e6 3f
       -6.505289077758789 0.7122712731361389
000360 00 00 00 a0 ab fa 13 c0 00 00 00 20 4c cb 14 40
       -4.994795322418213 5.198532581329346
000370 00 00 00 40 2e 15 06 40 00 00 00 80 8f 0e 25 c0
       2.7603421211242676 -10.528438568115234
000380 00 00 00 40 2e 15 06 40 00 00 00 20 9f d3 13 40
       2.7603421211242676 4.956661701202393
000390 00 00 00 c0 e5 93 01 40 00 00 00 40 03 ca 2e c0
       2.1972155570983887 -15.394556045532227
0003a0 00 00 00 80 c1 23 cc bf 00 00 00 60 1a bb 37 40
       -0.21984118223190308 23.730871200561523
0003b0 00 00 00 80 5b e3 1a c0 00 00 00 00 fe 74 11 c0
       -6.722028732299805 -4.364250183105469
0003c0 00 00 00 80 65 fc 17 c0 00 00 00 80 62 cb 11 c0
       -5.996480941772461 -4.448617935180664
0003d0 00 00 00 c0 7b e1 24 40 00 00 00 e0 ca 48 2d 40
       10.440397262573242 14.642172813415527
0003e0 00 00 00 40 ac 30 09 c0 00 00 00 60 81 e7 13 c0
       -3.148766040802002 -4.97607946395874
0003f0 00 00 00 e0 f2 3d 15 c0 00 00 00 20 4f 24 1c c0
       -5.310496807098389 -7.035458087921143
000400 00 00 00 e0 cb 5b 10 c0 00 00 00 e0 04 37 f4 3f
       -4.089644908905029 1.2634323835372925
000410 00 00 00 e0 4c 88 26 40 00 00 00 a0 03 68 02 c0
       11.26621150970459 -2.300788164138794
000420 00 00 00 80 ea 31 3a 40 00 00 00 40 60 55 1c c0
       26.194984436035156 -7.083374977111816
000430 00 00 00 20 a9 36 17 c0 00 00 00 20 e3 c6 25 40
       -5.803379535675049 10.88845157623291
000440 00 00 00 20 5c f9 08 40 00 00 00 20 99 a5 14 c0
       3.121757745742798 -5.161716938018799
000450 00 00 00 60 bd 40 43 40 00 00 00 a0 37 3f 14 40
       38.50577926635742 5.0617356300354
000460 00 00 00 a0 24 74 3b 40 00 00 00 e0 da 19 3e 40
       27.453683853149414 30.100996017456055
000470 00 00 00 e0 6d 05 09 c0 00 00 00 60 81 e7 13 c0
       -3.1276509761810303 -4.97607946395874
000480 00 00 00 a0 fa ab 18 c0 00 00 00 c0 dd 4d d7 bf
       -6.167948246002197 -0.36412757635116577
000490 00 00 00 c0 a5 96 1b 40 00 00 00 a0 c6 59 21 40
       6.897116661071777 8.67534351348877
0004a0 00 00 00 60 1d 7c f5 bf 00 00 00 80 07 6a 19 c0
       -1.3428014516830444 -6.353544235229492
0004b0 00 00 00 e0 25 04 13 40 00 00 00 40 35 4e e7 3f
       4.7540507316589355 0.7282968759536743
0004c0 00 00 00 a0 26 0c 20 c0 00 00 00 00 1f c6 0a c0
       -8.02373218536377 -3.346738815307617
0004d0 00 00 00 00 b9 b9 fa bf 00 00 00 80 85 78 f4 bf
       -1.6703424453735352 -1.2794241905212402
0004e0 00 00 00 e0 4a 28 0c c0 00 00 00 20 20 d8 20 40
       -3.519674062728882 8.422120094299316
0004f0 00 00 00 80 a8 14 19 c0 00 00 00 e0 b8 54 18 c0
       -6.270174026489258 -6.082736492156982
000500 00 00 00 80 15 0b 18 40 00 00 00 00 a1 a2 11 40
       6.010824203491211 4.408817291259766
000510 00 00 00 80 b0 ee 19 c0 00 00 00 60 50 49 16 c0
       -6.483095169067383 -5.571595668792725
000520 00 00 00 40 c5 8d 08 c0 00 00 00 80 c8 d9 f3 bf
       -3.0692238807678223 -1.2406697273254395
000530 00 00 00 80 8f 33 27 c0 00 00 00 20 20 d8 20 40
       -11.600704193115234 8.422120094299316
000540 00 00 00 c0 6a e4 e7 3f 00 00 00 e0 20 72 0a 40
       0.7466329336166382 3.3057267665863037
000550 00 00 00 a0 7f f2 22 40 00 00 00 e0 ca 48 2d 40
       9.47362995147705 14.642172813415527
000560 00 00 00 00 5b 48 1d c0 00 00 00 80 8f 0e 25 c0
       -7.320659637451172 -10.528438568115234
000570 00 00 00 00 65 57 f6 3f 00 00 00 20 e3 c6 25 40
       1.396336555480957 10.88845157623291
000580 00 00 00 a0 51 a8 16 c0 00 00 00 80 62 cb 11 c0
       -5.664373874664307 -4.448617935180664
000590 00 00 00 c0 7b e1 24 40 00 00 00 80 cc df 21 c0
       10.440397262573242 -8.93710708618164
0005a0 00 00 00 20 ce 24 fd bf 00 00 00 60 ae b1 24 c0
       -1.8214856386184692 -10.347033500671387
0005b0 00 00 00 60 84 44 25 40 00 00 00 00 86 34 1b c0
       10.633822441101074 -6.801292419433594
0005c0 00 00 00 20 d4 6f 10 c0 00 00 00 e0 9d 4a 09 40
       -4.109207630157471 3.1614339351654053
0005d0 00 00 00 80 90 9c 0c c0 00 00 00 e0 71 f6 28 c0
       -3.5764474868774414 -12.481337547302246
0005e0 00 00 00 60 7c 39 f8 3f 00 00 00 20 a4 63 21 40
       1.514034628868103 8.694611549377441
0005f0 00 00 00 20 fb 96 14 c0 00 00 00 20 55 a6 fa 3f
       -5.14744234085083 1.665608525276184
000600 00 00 00 20 37 6d 15 40 00 00 00 c0 4e d4 01 c0
       5.356655597686768 -2.228665828704834
000610 00 00 00 20 5c 8f 35 40 00 00 00 60 2b c2 27 c0
       21.559999465942383 -11.879237174987793
000620 00 00 00 20 2a 80 12 40 00 00 00 a0 23 70 32 c0
       4.6251606941223145 -18.43804359436035
000630 00 00 00 60 46 49 c4 bf 00 00 00 e0 7c 42 0e 40
       -0.15848617255687714 3.7824647426605225
000640 00 00 00 40 d3 6e 0d c0 00 00 00 60 8b 2c f1 bf
       -3.6791138648986816 -1.0733751058578491
000650 00 00 00 20 60 cd 24 c0 00 00 00 a0 83 f7 2d c0
       -10.401124000549316 -14.983426094055176
000660 00 00 00 80 8b c1 11 c0 00 00 00 e0 d6 b4 32 c0
       -4.439008712768555 -18.706403732299805
000670 00 00 00 a0 0a 44 15 40 00 00 00 a0 83 f7 2d c0
       5.316446781158447 -14.983426094055176
000680 00 00 00 a0 83 f7 2d c0 00 00 00 e0 6c de 01 c0
       -14.983426094055176 -2.2336061000823975
000690 00 00 00 40 ef 76 11 c0 00 00 00 40 a3 42 26 c0
       -4.366147041320801 -11.130151748657227
0006a0 00 00 00 40 98 da dd bf 00 00 00 c0 92 ce 1c c0
       -0.4664669632911682 -7.2017316818237305
0006b0 00 00 00 c0 f2 36 15 40 00 00 00 a0 08 d9 04 c0
       5.3036603927612305 -2.605973482131958
0006c0 00 00 00 c0 f8 06 10 40 00 00 00 00 75 8a 05 40
       4.006808280944824 2.692605972290039
0006d0 00 00 00 c0 49 6f 77 3f 00 00 00 c0 44 8c 04 40
       0.005721366964280605 2.568490505218506
0006e0 00 00 00 e0 51 77 25 40 00 00 00 80 32 db 0c c0
       10.733046531677246 -3.607029914855957
0006f0 00 00 00 00 a7 83 90 3f 00 00 00 00 a2 41 f2 3f
       0.016127213835716248 1.1410236358642578
000700 00 00 00 40 be 46 03 40 00 00 00 c0 18 e2 11 c0
       2.4095425605773926 -4.470797538757324
000710 00 00 00 80 f9 77 13 40 00 00 00 e0 ba 32 e1 bf
       4.867162704467773 -0.5374426245689392
000720 00 00 00 20 a6 38 0a 40 00 00 00 20 f5 94 f6 3f
       3.277660608291626 1.411366581916809
000730 00 00 00 00 ae 2f 1a 40 00 00 00 40 52 88 c8 3f
       6.546562194824219 0.19166019558906555
000740 00 00 00 e0 cc 07 c0 bf 00 00 00 20 87 b7 12 c0
       -0.12523804605007172 -4.679226398468018
000750 00 00 00 20 85 bf f8 bf 00 00 00 c0 7c ef 30 c0
       -1.5467578172683716 -16.935497283935547
000760 00 00 00 40 09 98 22 c0 00 00 00 c0 c3 74 13 40
       -9.296945571899414 4.864027976989746
000770 00 00 00 a0 e7 c2 14 40 00 00 00 20 25 42 1d c0
       5.19033670425415 -7.314594745635986
000780 00 00 00 a0 42 8c 16 c0 00 00 00 c0 97 99 f6 3f
       -5.636972904205322 1.4124982357025146
000790 00 00 00 a0 b4 72 09 40 00 00 00 60 f0 9c 05 c0
       3.1810085773468018 -2.7016303539276123
0007a0 00 00 00 40 6b 3e 14 c0 00 00 00 c0 92 f1 22 c0
       -5.060956001281738 -9.471822738647461
0007b0 00 00 00 60 ce a2 fd bf 00 00 00 e0 09 84 21 40
       -1.8522475957870483 8.757887840270996
0007c0 00 00 00 a0 fa c4 21 40 00 00 00 e0 31 c3 19 40
       8.884724617004395 6.440619945526123
0007d0 00 00 00 e0 f3 80 13 c0 00 00 00 e0 09 97 10 40
       -4.875930309295654 4.147498607635498
0007e0 00 00 00 e0 78 a4 0e 40 00 00 00 00 7d f3 d7 bf
       3.830308675765991 -0.3742363452911377
0007f0 00 00 00 c0 7b 95 02 c0 00 00 00 60 36 f4 ec bf
       -2.3229899406433105 -0.9048110842704773
