esmScripts/oldData/6esmPCA/layer5_pca100.npy (npy, 152128 bytes, 1 tensors)

array (column-major) f8 [190, 100]
8.631507873535156 12.688323020935059 -4.006938934326172 -0.413686603307724 2.011763095855713 10.388482093811035 -5.10313606262207 25.75844383239746
-6.237365245819092 -5.730474472045898 -1.5858283042907715 -4.968707084655762 10.719111442565918 6.760188579559326 9.936439514160156 -5.238872528076172
7.805726051330566 6.760188579559326 6.760188579559326 0.5585866570472717 -3.2796292304992676 2.962535858154297 -5.09572172164917 0.9090688824653625
-1.6490693092346191 -3.2377376556396484 -5.097135066986084 1.5645352602005005 0.7073465585708618 -3.3404247760772705 -4.133735179901123 -4.225511074066162
-5.2587971687316895 -2.1534423828125 -2.6822195053100586 7.832479953765869 -2.9622535705566406 0.04050730913877487 3.2137067317962646 -0.5525949597358704
-3.329519033432007 -7.074378490447998 -1.1087167263031006 7.2846198081970215 -2.9480292797088623 3.5730199813842773 0.7553859949111938 -4.097285747528076
-5.544649124145508 2.435502290725708 3.9230031967163086 -5.032778739929199 4.1048688888549805 -6.156188011169434 0.48243796825408936 5.37237548828125
-1.8893932104110718 -2.7834079265594482 -2.0714023113250732 -10.14635181427002 -3.699397563934326 -0.7485830187797546 -1.2563897371292114 -2.653106451034546
-3.7702958583831787 -1.0369248390197754 -6.315642356872559 -3.668498992919922 -3.637626886367798 -1.9863576889038086 -4.339786052703857 -1.1021229028701782
-5.343342304229736 -5.397265911102295 -3.3700053691864014 2.011763334274292 -6.923621654510498 -3.5266427993774414 -5.880537509918213 -2.215561628341675
-3.8328962326049805 6.46389102935791 -4.019254207611084 -7.637115478515625 -3.7794089317321777 -2.3326213359832764 11.214468002319336 11.214468002319336
-0.4218667149543762 -6.995394229888916 -2.2948668003082275 -5.907806873321533 -3.300616979598999 -0.7757422924041748 -0.593514621257782 4.426811218261719
1.9884297847747803 -0.8740413784980774 -1.9442720413208008 -2.8143417835235596 -3.0382332801818848 -4.538051128387451 -5.3182830810546875 1.8873034715652466
-3.5343098640441895 25.134361267089844 -1.5619838237762451 -4.0582733154296875 0.5585866570472717 -1.5858283042907715 -5.396462440490723 -1.3719651699066162
-5.396462440490723 2.011763334274292 -4.25834321975708 36.142967224121094 -2.434016704559326 1.910573124885559 -3.749845266342163 -3.0763773918151855
-3.2634618282318115 -1.531463623046875 6.46389102935791 0.7486836910247803 -5.964756965637207 -4.727424621582031 -0.5525949597358704 -2.099468946456909
-4.502479076385498 7.570932388305664 -4.9570441246032715 -1.7802658081054688 -1.0524365901947021 -4.966681480407715 -7.074378490447998 0.9170976877212524
37.29096221923828 -1.1087167263031006 3.096127510070801 -0.914601743221283 -2.8519952297210693 0.02918350137770176 -0.7757422924041748 -4.727424621582031
-6.470551013946533 -5.343204498291016 6.629467010498047 0.578597366809845 -3.1973047256469727 -3.56984806060791 -1.078963279724121 -6.843377113342285
2.065920829772949 -4.374167442321777 -1.1473731994628906 -4.093478202819824 7.881377220153809 -3.188055992126465 -3.300616979598999 -3.1543734073638916
6.289401531219482 -2.733063220977783 -0.6886253952980042 2.268409490585327 8.294370651245117 -6.156188011169434 -8.775120735168457 -3.188055992126465
3.7276620864868164 0.8088623285293579 4.070752143859863 0.7486836910247803 -4.836897373199463 -1.3719651699066162 -3.9552948474884033 0.9170976877212524
1.2639470100402832 -1.531463623046875 6.46389102935791 -5.241021156311035 -1.611613154411316 2.3578507900238037 13.942872047424316 -2.6954002380371094
-4.361332416534424 38.1475715637207 -0.8740413784980774 13.78321647644043 -2.5489118099212646 6.767982006072998 1.7942932844161987 -5.107982635498047
-4.735074043273926 -6.706645965576172 -0.811508059501648 -6.104705333709717 -2.838090181350708 -2.4505434036254883 -1.2877200841903687 -0.008506995625793934
-0.8808854818344116 -4.325312614440918 -7.754583835601807 -8.9351806640625 -6.222373962402344 0.7579797506332397 1.2096452713012695 -8.9351806640625
-8.9351806640625 -3.3143582344055176 -2.8692193031311035 -0.775761604309082 0.6038104891777039 9.0291109085083 1.0521459579467773 1.936584234237671
-0.4228898286819458 -1.0082610845565796 3.991762161254883 6.6219892501831055 -3.2758889198303223 2.098944902420044 -1.0862984657287598 -1.1565895080566406
0.7758302092552185 2.1034109592437744 -2.530580520629883 3.8788256645202637 0.8513762354850769 -4.246888160705566 -5.590702533721924 -3.0869967937469482
-3.700524091720581 3.694723129272461 2.0194008350372314 11.858031272888184 9.715702056884766 -1.4634004831314087 -1.480466365814209 5.1570515632629395
1.8699257373809814 -4.473262310028076 0.611911416053772 0.27959269285202026 15.216705322265625 8.525176048278809 -0.28264063596725464 -2.459615707397461
-3.3344340324401855 -3.65386962890625 -1.6338562965393066 -1.0687581300735474 -1.6617825031280518 0.6051844954490662 0.19034706056118011 -3.9052631855010986
00000000: 0000 0000 5543 2140 0000 00e0 6b60 2940
00000010: 0000 0000 1b07 10c0 0000 0060 d779 dabf
00000020: 0000 0040 1718 0040 0000 0020 e7c6 2440
00000030: 0000 0080 9c69 14c0 0000 0060 29c2 3940
00000040: 0000 00e0 0ff3 18c0 0000 0080 01ec 16c0
00000050: 0000 0080 8d5f f9bf 0000 00c0 f4df 13c0
00000060: 0000 0060 2f70 2540 0000 00e0 6e0a 1b40
00000070: 0000 0000 75df 2340 0000 0000 9bf4 14c0
00000080: 0000 0040 1039 1f40 0000 00e0 6e0a 1b40
00000090: 0000 00e0 6e0a 1b40 0000 0020 f1df e13f
000000a0: 0000 0040 ae3c 0ac0 0000 0000 46b3 0740
000000b0: 0000 00e0 0462 14c0 0000 00a0 1717 ed3f
000000c0: 0000 0080 9662 fabf 0000 0000 e3e6 09c0
000000d0: 0000 0060 7763 14c0 0000 0020 5608 f93f
000000e0: 0000 0040 95a2 e63f 0000 00a0 30b9 0ac0
000000f0: 0000 00e0 f188 10c0 0000 0060 ece6 10c0
00000100: 0000 0020 0209 15c0 0000 0000 403a 01c0
00000110: 0000 0080 2f75 05c0 0000 00a0 7554 1f40
00000120: 0000 0000 b2b2 07c0 0000 00c0 5fbd a43f
00000130: 0000 00e0 abb5 0940 0000 00a0 dbae e1bf
00000140: 0000 00e0 daa2 0ac0 0000 00e0 294c 1cc0
00000150: 0000 00c0 4dbd f1bf 0000 0060 7323 1d40
00000160: 0000 0060 9095 07c0 0000 0080 8b95 0c40
00000170: 0000 0040 1f2c e83f 0000 00e0 9e63 10c0
00000180: 0000 0080 b82d 16c0 0000 00a0 e87b 0340
00000190: 0000 0080 4f62 0f40 0000 00c0 9021 14c0
000001a0: 0000 00c0 626b 1040 0000 00c0 ef9f 18c0
000001b0: 0000 0080 43e0 de3f 0000 0000 507d 1540
000001c0: 0000 0060 f43a febf 0000 0060 6b44 06c0
000001d0: 0000 0060 3b92 00c0 0000 00a0 ee4a 24c0
000001e0: 0000 00c0 5d98 0dc0 0000 0060 64f4 e7bf
000001f0: 0000 0020 2c1a f4bf 0000 00e0 8f39 05c0
00000200: 0000 00e0 9029 0ec0 0000 0080 3e97 f0bf
00000210: 0000 00c0 3743 19c0 0000 0000 1659 0dc0
00000220: 0000 0020 dc19 0dc0 0000 0000 1fc8 ffbf
00000230: 0000 00e0 f05b 11c0 0000 00a0 4ba2 f1bf
00000240: 0000 0020 955f 15c0 0000 00e0 cc96 15c0
00000250: 0000 0060 c5f5 0ac0 0000 0060 1718 0040
00000260: 0000 00e0 c9b1 1bc0 0000 0080 9036 0cc0
00000270: 0000 00a0 ab85 17c0 0000 0060 78b9 01c0
00000280: 0000 0080 c5a9 0ec0 0000 0040 06db 1940
00000290: 0000 0060 b713 10c0 0000 0000 688c 1ec0
000002a0: 0000 00c0 3a3c 0ec0 0000 0060 35a9 02c0
000002b0: 0000 00c0 ce6d 2640 0000 00c0 ce6d 2640
000002c0: 0000 0040 ddff dabf 0000 00a0 48fb 1bc0
000002d0: 0000 0020 e35b 02c0 0000 0020 98a1 17c0
000002e0: 0000 00e0 a967 0ac0 0000 0080 e1d2 e8bf
000002f0: 0000 0060 12fe e2bf 0000 0000 0eb5 1140
00000300: 0000 00c0 9bd0 ff3f 0000 00a0 25f8 ebbf
00000310: 0000 0000 bd1b ffbf 0000 00a0 c583 06c0
00000320: 0000 0040 4d4e 08c0 0000 00e0 f626 12c0
00000330: 0000 0000 ec45 15c0 0000 0020 6532 fe3f
00000340: 0000 0040 4446 0cc0 0000 0080 6522 3940
00000350: 0000 00c0 e2fd f8bf 0000 0000 ac3b 10c0
00000360: 0000 0020 f1df e13f 0000 0080 8d5f f9bf
00000370: 0000 0040 fa95 15c0 0000 00c0 91f3 f5bf
00000380: 0000 0040 fa95 15c0 0000 0060 1718 0040
00000390: 0000 0020 8b08 11c0 0000 00c0 4c12 4240
000003a0: 0000 00c0 dd78 03c0 0000 0020 b591 fe3f
000003b0: 0000 00e0 aeff 0dc0 0000 00c0 6b9c 08c0
000003c0: 0000 00e0 911b 0ac0 0000 0000 e080 f8bf
000003d0: 0000 0040 06db 1940 0000 0080 37f5 e73f
000003e0: 0000 0040 e9db 17c0 0000 0000 e2e8 12c0
000003f0: 0000 00a0 dbae e1bf 0000 0060 b6cb 00c0
00000400: 0000 00e0 8902 12c0 0000 0080 a248 1e40
00000410: 0000 0060 03d4 13c0 0000 0000 f87b fcbf
00000420: 0000 00c0 c7d6 f0bf 0000 00c0 e1dd 13c0
00000430: 0000 00e0 294c 1cc0 0000 0040 dd58 ed3f
00000440: 0000 0040 3ea5 4240 0000 00c0 4dbd f1bf
00000450: 0000 0080 dec4 0840 0000 00e0 6a44 edbf
00000460: 0000 00e0 e2d0 06c0 0000 00a0 47e2 9d3f
00000470: 0000 0080 e1d2 e8bf 0000 0000 e2e8 12c0
00000480: 0000 0020 d8e1 19c0 0000 0000 715f 15c0
00000490: 0000 0000 9384 1a40 0000 00a0 de83 e23f
000004a0: 0000 0080 1494 09c0 0000 0080 0c8f 0cc0
000004b0: 0000 0000 6f43 f1bf 0000 0040 9e5f 1bc0
000004c0: 0000 0080 0187 0040 0000 00c0 257f 11c0
000004d0: 0000 0000 a45b f2bf 0000 00c0 b85f 10c0
000004e0: 0000 00c0 8786 1f40 0000 0080 2381 09c0
000004f0: 0000 00e0 a967 0ac0 0000 0020 283c 09c0
00000500: 0000 00e0 5828 1940 0000 0040 50dd 05c0
00000510: 0000 0020 3809 e6bf 0000 00e0 b325 0240
00000520: 0000 00c0 b796 2040 0000 00c0 ef9f 18c0
00000530: 0000 00a0 dc8c 21c0 0000 0080 2381 09c0
00000540: 0000 0080 40d2 0d40 0000 0040 33e2 e93f
00000550: 0000 0040 7348 1040 0000 0080 37f5 e73f
00000560: 0000 00a0 fb58 13c0 0000 00c0 91f3 f5bf
00000570: 0000 00a0 71a4 0fc0 0000 0040 dd58 ed3f
00000580: 0000 0080 2039 f43f 0000 0000 e080 f8bf
00000590: 0000 0040 06db 1940 0000 0040 cef6 14c0
000005a0: 0000 00e0 2ac9 f9bf 0000 00e0 e0dc 0240
000005b0: 0000 0020 c0e2 2b40 0000 0000 2e90 05c0
000005c0: 0000 0020 0172 11c0 0000 00a0 e312 4340
000005d0: 0000 00a0 25f8 ebbf 0000 00c0 0191 2b40
000005e0: 0000 00e0 2b64 04c0 0000 00e0 6912 1b40
000005f0: 0000 00e0 6cb5 fc3f 0000 0000 936e 14c0
00000600: 0000 0040 b7f0 12c0 0000 0000 9bd3 1ac0
00000610: 0000 00c0 dff7 e9bf 0000 00e0 376b 18c0
00000620: 0000 00a0 68b4 06c0 0000 0080 b69a 03c0
00000630: 0000 0060 809a f4bf 0000 00a0 1d6c 81bf
00000640: 0000 00c0 3630 ecbf 0000 00c0 1e4d 11c0
00000650: 0000 00a0 b104 1fc0 0000 0000 d0de 21c0
00000660: 0000 0000 b6e3 18c0 0000 00c0 5e41 e83f
00000670: 0000 0000 b55a f33f 0000 0000 d0de 21c0
00000680: 0000 0000 d0de 21c0 0000 0040 ce83 0ac0
00000690: 0000 0040 29f4 06c0 0000 0000 0ad3 e8bf
000006a0: 0000 0060 6a52 e33f 0000 00a0 e70e 2240
000006b0: 0000 0000 97d5 f03f 0000 00c0 3ffc fe3f
000006c0: 0000 0080 a010 dbbf 0000 0060 d621 f0bf
000006d0: 0000 0000 21ef 0f40 0000 00c0 ea7c 1a40
000006e0: 0000 0040 0535 0ac0 0000 00a0 a3ca 0040
000006f0: 0000 0080 7a61 f1bf 0000 0000 6481 f2bf
00000700: 0000 00e0 99d3 e83f 0000 0020 c9d3 0040
00000710: 0000 0000 a13e 04c0 0000 00c0 d507 0f40
00000720: 0000 0060 793e eb3f 0000 0040 d0fc 10c0
00000730: 0000 0020 e15c 16c0 0000 0060 2bb2 08c0
00000740: 0000 0060 ac9a 0dc0 0000 0000 cb8e 0d40
00000750: 0000 00a0 bb27 0040 0000 00e0 4fb7 2740
00000760: 0000 0080 706e 2340 0000 00a0 166a f7bf
00000770: 0000 0080 fdaf f7bf 0000 0020 d2a0 1440
00000780: 0000 0040 37eb fd3f 0000 00e0 9ee4 11c0
00000790: 0000 0040 c794 e33f 0000 00c0 d8e4 d13f
000007a0: 0000 0000 f46e 2e40 0000 00e0 e30c 2140
000007b0: 0000 00c0 c816 d2bf 0000 0000 4bad 03c0
000007c0: 0000 00c0 ebac 0ac0 0000 0000 203b 0dc0
000007d0: 0000 0080 4624 fabf 0000 0020 a219 f1bf
000007e0: 0000 0040 a996 fabf 0000 00e0 ab5d e33f
000007f0: 0000 00e0 4a5d c83f 0000 00a0 fa3d 0fc0
