6esmPCA/layer6_pca50.npy (npy, 38128 bytes, 1 tensors)

array (column-major) f4 [190, 50]
000000 84 4d ca 40 61 56 03 c0 0c f1 d3 c0 61 8a 0d c1
       6.3219624 -2.0521472 -6.6231747 -8.846284
000010 fb 3b 8d bf 07 c8 66 c0 51 d3 9a c0 16 5b 19 40
       -1.103393 -3.6059587 -4.8382955 2.3961844
000020 d5 6a a9 c0 34 c2 8a c0 26 d9 11 be 95 2a d6 c0
       -5.294291 -4.3362064 -0.14242992 -6.692698
000030 a9 fa 26 40 6f c7 a0 c0 5c 5b 50 40 4a cf 8f c0
       2.609049 -5.024345 3.2555761 -4.494054
000040 0d 08 5b 40 6f c7 a0 c0 6f c7 a0 c0 48 54 70 c0
       3.4223664 -5.024345 -5.024345 -3.7551441
000050 b0 ef b2 c0 f6 bb 00 bf 71 fd f4 bf 9d 22 10 41
       -5.5917587 -0.50286806 -1.9139844 9.0084505
000060 36 e0 32 bf f8 76 75 bf 0e e5 36 c0 87 a5 2d c0
       -0.6987337 -0.95884657 -2.8577304 -2.713228
000070 fb ba 86 40 92 a4 a1 40 30 63 94 c0 9d 9f 8e bf
       4.210325 5.051339 -4.637108 -1.114246
000080 3a 55 04 c0 90 7f dc bf b3 5c fb 3d a2 ac b9 40
       -2.0677018 -1.7226429 0.1227354 5.8023233
000090 66 ee 05 c0 68 db fa 3f 01 52 ed 3f 07 ae 81 c0
       -2.0926757 1.9598207 1.8540651 -4.0524936
0000a0 f1 90 90 c0 a3 2a f6 c0 23 f5 cf bf a1 72 0a 41
       -4.517693 -7.6927047 -1.6246685 8.652986
0000b0 46 e1 0c 40 12 05 b7 41 cc e6 6b 41 dc 43 69 c0
       2.2012496 22.877476 14.743847 -3.6447668
0000c0 a7 a9 c9 c0 01 9b 24 41 cb 18 0e 40 90 c0 f8 c0
       -6.3019595 10.287843 2.2202632 -7.773506
0000d0 c2 98 f2 3f f8 8f 1a c0 a5 3e 65 41 dd 10 1f 41
       1.8952868 -2.4150372 14.327794 9.941617
0000e0 17 20 7b c0 d5 4e d1 c0 92 e1 d8 c0 60 3a 24 c1
       -3.9238336 -6.540873 -6.7775354 -10.264252
0000f0 45 0e 4f c0 90 e0 32 c0 ac 15 39 c0 06 02 e8 3f
       -3.235246 -2.7949562 -2.8919477 1.8125618
000100 6e 96 d0 be a7 dd 40 c0 b5 50 25 c0 8d 9a 97 40
       -0.4073977 -3.0135286 -2.583051 4.737616
000110 75 5c 09 c0 f2 8e 2b 3f b0 e2 f3 bf 69 e6 1c 3f
       -2.1462681 0.6701499 -1.9053555 0.6128908
000120 d2 40 93 c0 96 53 d4 bf 6c 9e ae c0 09 3c 8d bf
       -4.6016626 -1.6588008 -5.4568386 -1.1033946
000130 bb 6f 9e c0 b4 c4 9f 3e 05 2b 04 be 19 3a 59 bf
       -4.951139 0.3120476 -0.12907036 -0.84854275
000140 81 1f a2 bf 62 d0 0b 41 6e 60 ef c0 b1 f5 30 c1
       -1.2665864 8.738375 -7.480521 -11.059983
000150 e2 d7 50 41 04 84 51 41 62 12 bb bf 62 12 bb bf
       13.052706 13.09473 -1.4614985 -1.4614985
000160 ed cd 83 41 7c 26 ca c0 12 f7 82 c0 f0 87 e3 c0
       16.47555 -6.317198 -4.09266 -7.110344
000170 2f a2 d1 c0 a4 b9 ff bd 89 f4 82 bf 7f 13 ae 41
       -6.551048 -0.1248658 -1.0230876 21.75952
000180 4b 28 91 41 63 cb e6 bf 4b f3 ba 3e fe 8a 87 40
       18.144674 -1.8030819 0.36513743 4.235717
000190 75 e7 ca c0 c1 af 0d c1 3e 31 00 c1 24 7b 2e c0
       -6.340754 -8.855409 -8.012022 -2.726266
0001a0 ea f7 72 c0 05 81 c2 3f c8 9f c2 c0 af ac 57 c0
       -3.7963815 1.5195624 -6.0820045 -3.3699148
0001b0 48 54 70 c0 26 d9 11 be 0d 03 13 c0 dd bd a7 c0
       -3.7551441 -0.14242992 -2.2970612 -5.2419267
0001c0 0d 03 13 c0 09 3c 8d bf 79 07 3e c0 1b 6e 07 41
       -2.2970612 -1.1033946 -2.969206 8.464381
0001d0 e9 0b da bf a5 1d 9b 41 d7 a9 a0 c0 b0 50 5f c0
       -1.7034885 19.389475 -5.0207324 -3.4892998
0001e0 bd 32 b3 c0 03 6d bf c0 62 d0 0b 41 6b fa 42 41
       -5.5999436 -5.982057 8.738375 12.186137
0001f0 a9 0a 6f c0 34 43 85 c0 07 ae 81 c0 f3 83 b4 c0
       -3.7350256 -4.1644535 -4.0524936 -5.641107
000200 0b e3 ac c0 1e ee df bd 07 57 b6 3f 7e 9c 5e c0
       -5.402715 -0.10934089 1.4245309 -3.4783015
000210 f4 c0 88 41 ba 74 d3 c0 a3 2a f6 c0 fd bc 91 40
       17.094215 -6.607999 -7.6927047 4.55432
000220 c1 20 29 41 23 f5 cf bf 2c c4 b8 41 aa 4a 52 40
       10.570497 -1.6246685 23.095787 3.2858071
000230 56 6d 7f 41 16 72 85 41 a4 b9 ff bd 34 43 85 c0
       15.964193 16.680706 -0.1248658 -4.1644535
000240 01 81 a9 c0 00 fc 1f c0 e8 26 14 41 b0 4f 38 40
       -5.2969975 -2.4997559 9.259499 2.8798637
000250 c9 c6 fc bf 2c db 74 c0 a3 92 83 3f d7 4e 5f c0
       -1.9748164 -3.8258772 1.0279125 -3.489187
000260 ef fa 0a c0 78 63 c3 c0 8d 59 f6 3f 70 0b 57 c0
       -2.1715658 -6.105892 1.9246079 -3.360073
000270 ce ae 03 c0 cb ee 5a bf 2f a2 d1 c0 a8 dd c1 c0
       -2.0575442 -0.8552062 -6.551048 -6.0583076
000280 a9 26 ef 40 83 03 21 bf 51 99 45 c0 1a 10 3e c0
       7.4734693 -0.62895983 -3.0874827 -2.9697328
000290 c2 74 0c c0 f8 8f 1a c0 6b 7b 2e c1 cb ee 5a bf
       -2.1946263 -2.4150372 -10.905131 -0.8552062
0002a0 6b cd 4f 41 e6 49 f6 3f 1c 0b 5e 41 6b fa 42 41
       12.987651 1.9241302 13.877712 12.186137
0002b0 fa 9c d4 c0 dd bd a7 c0 63 a4 2f c0 fd bc 91 40
       -6.644162 -5.2419267 -2.7444084 4.55432
0002c0 80 52 bb c0 03 6d bf c0 62 d0 0b 41 3a c4 f6 c0
       -5.853821 -5.982057 8.738375 -7.7114534
0002d0 35 01 40 c0 af 82 bd c0 f8 94 07 41 8e c1 99 c0
       -3.0000737 -5.9222026 8.473869 -4.8048773
0002e0 6e a1 ad c0 0c a2 2a 41 63 cb e6 bf b7 27 82 40
       -5.425956 10.664562 -1.8030819 4.067348
0002f0 26 77 e8 3f 1b 24 4c 41 d0 3f 99 40 fd 72 93 40
       1.8161361 12.758815 4.7890396 4.6077867
000300 36 93 6d c0 65 7f 29 41 02 e9 63 40 9c 5a 46 41
       -3.71211 10.593602 3.5610967 12.397121
000310 b7 b3 af bf 5c 7f 25 41 47 b1 ce c0 b0 a9 0e c0
       -1.372672 10.343594 -6.4591403 -2.229107
000320 52 84 3a c0 ae 1e c4 3f 52 68 e4 41 a2 b2 b3 41
       -2.9143262 1.5321863 28.550938 22.462223
000330 82 bf 6b 41 34 8c d4 c0 b9 08 a5 bf a2 b2 b3 41
       14.734255 -6.6421146 -1.2893287 22.462223
000340 a2 b2 b3 41 0e 25 22 41 0e 2f 2b c0 84 0b 0b 40
       22.462223 10.134047 -2.674747 2.1725779
000350 b2 21 0e c0 3e 6a a6 3f e1 ce b1 bf cd ce 8c c0
       -2.2208066 1.3001173 -1.389126 -4.400244
000360 2e 56 f0 bf 51 8e a9 c0 24 1c eb bd 26 a2 0b c0
       -1.87763 -5.2986226 -0.11479977 -2.1817718
000370 f6 fa b7 c0 ba c4 25 c0 3c c9 c6 bf f2 43 3c c0
       -5.749385 -2.5901322 -1.5530162 -2.941647
000380 e2 a5 a5 c0 d2 96 5b 40 26 c0 18 c0 06 fa d0 bf
       -5.1764994 3.4310803 -2.3867278 -1.6326301
000390 f9 76 c3 bf de bd 2f be 1a c4 79 c0 fa e0 d8 c0
       -1.5270683 -0.17162272 -3.902594 -6.777463
0003a0 ea 59 c4 40 e7 88 a9 40 8b f9 cf 3f 40 9c 37 41
       6.135976 5.2979617 1.624803 11.475647
0003b0 fe 7d c1 40 fa af 5d bf 78 b0 f9 c0 1c b6 d1 40
       6.04663 -0.86596644 -7.8027916 6.55348
0003c0 fa 8a 5d c0 fc 9f b1 bf 26 49 aa bf 36 64 57 c0
       -3.4616075 -1.3876948 -1.3303573 -3.3654914
0003d0 2c 4c 9a c0 68 7d 9d 40 47 e2 9b 3f 7a ef 9c 3f
       -4.8217983 4.9215584 1.2178429 1.2260582
0003e0 e6 40 83 be 1c a7 13 c1 70 9b f6 3e d0 04 04 c0
       -0.2563545 -9.228298 0.48165464 -2.0627937
0003f0 8a 98 07 3d 5e 58 7d bf 5d 3c e9 bf 4f 06 9b 3f
       0.033104457 -0.9896296 -1.8221546 1.21113
