6esmPCA/layer3_pca10.npy (npy, 15328 bytes, 1 tensors)

array (column-major) f8 [190, 10]
0	0x40029f5ae0000000	2.327810049057007
1	0xc014c11320000000	-5.188549518585205
2	0xc01d3dfa40000000	-7.310524940490723
3	0x3ffea32fa0000000	1.9148403406143188
4	0x4022d83dc0000000	9.422346115112305
5	0x3feca22b00000000	0.8947958946228027
6	0xc01da36980000000	-7.409582138061523
7	0x400d26ff20000000	3.6440412998199463
8	0xc0124ebb80000000	-4.576887130737305
9	0xc00d86f2e0000000	-3.6908929347991943
10	0x3fd26429c0000000	0.2873634696006775
11	0xc008dd61c0000000	-3.1080965995788574
12	0xc00344a260000000	-2.408512830734253
13	0xbffdc0c1c0000000	-1.8595597743988037
14	0xbff88888c0000000	-1.5333335399627686
15	0x401b7649c0000000	6.86551570892334
16	0x40091badc0000000	3.138514995574951
17	0xbffdc0c1c0000000	-1.8595597743988037
18	0xbffdc0c1c0000000	-1.8595597743988037
19	0x3ff61c3c40000000	1.3818933963775635
20	0xc00c2fcd80000000	-3.523341178894043
21	0x3fddd54840000000	0.4661427140235901
22	0xc00b057920000000	-3.3776724338531494
23	0x401c9d7580000000	7.153768539428711
24	0xbff2c2a900000000	-1.1725244522094727
25	0x400fb10720000000	3.961439371109009
26	0xc01c7e2420000000	-7.123184680938721
27	0xbfff1b0fa0000000	-1.9441066980361938
28	0x40117a63a0000000	4.369520664215088
29	0x401579bf00000000	5.368892669677734
30	0xc018a54340000000	-6.161389350891113
31	0x3fe34dd1a0000000	0.6032493710517883
32	0xc00aea0a80000000	-3.3642778396606445
33	0x3fc29b7520000000	0.14536918699741364
34	0xbfe41b68c0000000	-0.6283458471298218
35	0x40051c21c0000000	2.6387362480163574
36	0xc00f9a24c0000000	-3.950265407562256
37	0x4007b4ca60000000	2.9632766246795654
38	0x3fe1d09740000000	0.5567127466201782
39	0xc0199a0420000000	-6.400406360626221
40	0xc022636b80000000	-9.19417953491211
41	0xc00dd94080000000	-3.7310800552368164
42	0xc0180623e0000000	-6.005996227264404
43	0x400e85b5a0000000	3.8152878284454346
44	0x3ffa758420000000	1.6536904573440552
45	0x4028279940000000	12.077341079711914
46	0x401c401c20000000	7.062607288360596
47	0xc018582b40000000	-6.086102485656738
48	0xc0020ec380000000	-2.257208824157715
49	0x3ff294b6e0000000	1.1613072156906128
50	0xbffbeb2420000000	-1.7449074983596802
51	0xc016291a20000000	-5.5401387214660645
52	0x3fe32efb60000000	0.5994850993156433
53	0xc0029aab20000000	-2.32552170753479
54	0x402b103b20000000	13.53170108795166
55	0x4021ce2940000000	8.902658462524414
56	0xbff7c941a0000000	-1.4866348505020142
57	0xbffa860b20000000	-1.65772545337677
58	0xbfd02dda80000000	-0.2527986764907837
59	0xbfe72fecc0000000	-0.7246001958847046
60	0xc0172b1500000000	-5.792072296142578
61	0xbfe6c27040000000	-0.7112351655960083
62	0xc010375420000000	-4.054031848907471
63	0xbff589cb80000000	-1.3461413383483887
64	0xbfc8d5f260000000	-0.19402913749217987
65	0xc012b5e8e0000000	-4.677646160125732
66	0xc000836900000000	-2.0641651153564453
67	0x400ac8c680000000	3.3480348587036133
68	0xc00a460800000000	-3.2841949462890625
69	0x3ffdc9b260000000	1.861742377281189
70	0xc0095e4740000000	-3.171034336090088
71	0x40153847e0000000	5.304961681365967
72	0xc000c0ba20000000	-2.0941050052642822
73	0xbfc65c7720000000	-0.17469681799411774
74	0x3fca5ae660000000	0.20589904487133026
75	0x4022d83da0000000	9.422345161437988
76	0xc006837960000000	-2.8141963481903076
77	0x3fe6c73480000000	0.7118170261383057
78	0x3ffafa1d80000000	1.686063289642334
79	0xbf833ff5a0000000	-0.009399336762726307
80	0x3fb59beec0000000	0.08441059291362762
81	0x3fdc9e7c60000000	0.44717320799827576
82	0xc013ca0320000000	-4.947277545928955
83	0x3fe5a54740000000	0.676425576210022
84	0x4036441220000000	22.265901565551758
85	0x403d636840000000	29.388309478759766
86	0xc020a80b20000000	-8.32820987701416
87	0xc020a80b20000000	-8.32820987701416
88	0x4023a20dc0000000	9.816511154174805
89	0xc00a697980000000	-3.3015012741088867
90	0xc016574500000000	-5.585224151611328
91	0xc01f2d0740000000	-7.793972969055176
92	0xc024e481e0000000	-10.446303367614746
93	0xc001660360000000	-2.1748111248016357
94	0xc011661420000000	-4.349686145782471
95	0x4041598f40000000	34.699684143066406
96	0x403d66abc0000000	29.401058197021484
97	0x3fa4119460000000	0.039196621626615524
98	0xc01180cb00000000	-4.375774383544922
99	0x401387e6e0000000	4.882716655731201
100	0xc01167f9c0000000	-4.35153865814209
101	0xc006a61e80000000	-2.831112861633301
102	0xbffdb59980000000	-1.8568358421325684
103	0xc0113c1280000000	-4.308664321899414
104	0xc013cf6e20000000	-4.952568531036377
105	0xbff5118c40000000	-1.316784143447876
106	0xc01efac820000000	-7.744904041290283
107	0xc00dba2020000000	-3.715881586074829
108	0x3ff61c3c40000000	1.3818933963775635
109	0x3fd26429c0000000	0.2873634696006775
110	0xbfed048080000000	-0.9067995548248291
111	0xc0150e8620000000	-5.264183521270752
112	0xbfed048080000000	-0.9067995548248291
113	0x4022d83da0000000	9.422345161437988
114	0xc0086c2000000000	-3.05279541015625
115	0x401d19e5e0000000	7.2752909660339355
116	0xc012011f40000000	-4.501095771789551
117	0x40312e8b60000000	17.181814193725586
118	0xc01a8633c0000000	-6.631056785583496
119	0xc020146d00000000	-8.039894104003906
120	0xc00b683260000000	-3.425877332687378
121	0xc0172e0bc0000000	-5.794966697692871
122	0x3fdc9e7c60000000	0.44717320799827576
123	0x4026ca3840000000	11.394960403442383
124	0xc01272e600000000	-4.612205505371094
125	0xc00fe810c0000000	-3.9883131980895996
126	0xc0199a0420000000	-6.400406360626221
127	0xc01c1e3360000000	-7.0294928550720215
128	0xc01eae7760000000	-7.670377254486084
129	0x40048b88e0000000	2.568132162094116
130	0x402b7de200000000	13.745864868164062
131	0xc0250a4920000000	-10.520089149475098
132	0x403a947d60000000	26.58003807067871
133	0xc00982bb40000000	-3.188833713531494
134	0xc00dd94080000000	-3.7310800552368164
135	0x400823a860000000	3.01741099357605
136	0xc013728580000000	-4.861837387084961
137	0xc0180623e0000000	-6.005996227264404
138	0x4041c55c80000000	35.54188537597656
139	0x3fc27dd9c0000000	0.14446565508842468
140	0x4037e759e0000000	23.903715133666992
141	0x403fb6cda0000000	31.714075088500977
142	0xc001660360000000	-2.1748111248016357
143	0xc00fe810c0000000	-3.9883131980895996
144	0xbffb5ae060000000	-1.7096866369247437
145	0xc0146b4dc0000000	-5.104788780212402
146	0x3ffe9f8b40000000	1.9139511585235596
147	0xbff4beb460000000	-1.2965587377548218
148	0xc0135300c0000000	-4.831057548522949
149	0xc0122330c0000000	-4.534365653991699
150	0x4013b1c780000000	4.923612594604492
151	0xbff9047920000000	-1.5635920763015747
152	0x3ff473ee20000000	1.2783032655715942
153	0xc01302ca20000000	-4.7527241706848145
154	0xc00c429120000000	-3.532503366470337
155	0xc012bd5b80000000	-4.684919357299805
156	0xc00c5e7ae0000000	-3.546132802963257
157	0x40060a06c0000000	2.7548956871032715
158	0xc024e481e0000000	-10.446303367614746
159	0xc01c9f7ee0000000	-7.155757427215576
160	0x3ff642d780000000	1.3913187980651855
161	0xbff23d7e80000000	-1.1400132179260254
162	0xc018dce4c0000000	-6.215716361999512
163	0xc013b77460000000	-4.929154872894287
164	0xc00e45ef20000000	-3.7841475009918213
165	0xc0029aab20000000	-2.32552170753479
166	0xc010ec9400000000	-4.2310333251953125
167	0x40060a06c0000000	2.7548956871032715
168	0x401319b960000000	4.775121212005615
169	0x3f797e8fc0000000	0.006224214099347591
170	0x400b6113a0000000	3.422400712966919
171	0x4026ca3840000000	11.394960403442383
172	0xc0093d12a0000000	-3.154820680618286
173	0xc0150e8620000000	-5.264183521270752
174	0xc011271400000000	-4.2881622314453125
175	0x400823a860000000	3.01741099357605
176	0xc0217e7940000000	-8.747018814086914
177	0xc0172e0bc0000000	-5.794966697692871
178	0x3fdc9e7c60000000	0.44717320799827576
179	0xc0132fea60000000	-4.796792507171631
180	0xc02356ed20000000	-9.669777870178223
181	0xc005258bc0000000	-2.6433329582214355
182	0x4003fb8780000000	2.497817039489746
183	0xc019daad20000000	-6.463551044464111
184	0xc01efb46e0000000	-7.745387554168701
185	0xc014a525c0000000	-5.161276817321777
186	0x3fa4119460000000	0.039196621626615524
187	0xc004707b60000000	-2.5549228191375732
188	0xbff79c6ae0000000	-1.475687861442566
189	0x3fdac88860000000	0.418489545583725
190	0xc00b037220000000	-3.3766825199127197
191	0xbff829f5c0000000	-1.5102441310882568
192	0x3ffc054340000000	1.7512848377227783
193	0x400fd884c0000000	3.980721950531006
194	0x4013a7bfa0000000	4.913816928863525
195	0xc02f42dd40000000	-15.630594253540039
196	0xbfd9154e80000000	-0.3919254541397095
197	0xc0378c0a20000000	-23.547029495239258
198	0x4011012a80000000	4.251138687133789
199	0x3fe86a49a0000000	0.7629745602607727
200	0x4012c0f620000000	4.688438892364502
201	0x3fabf7b760000000	0.054624300450086594
202	0xc034508800000000	-20.3145751953125
203	0xc0296836e0000000	-12.703543663024902
204	0xc018f37340000000	-6.237744331359863
205	0x3ff9bfa4c0000000	1.609287977218628
206	0xc00043da80000000	-2.0331315994262695
207	0xc0296836e0000000	-12.703543663024902
208	0xc0296836e0000000	-12.703543663024902
209	0xc008a9b820000000	-3.0828707218170166
210	0x400711ece0000000	2.8837525844573975
211	0xc00c0b7500000000	-3.505594253540039
212	0x3ffce74ce0000000	1.8064697980880737
213	0xc00647c700000000	-2.7850475311279297
214	0xbfe450d720000000	-0.6348682045936584
215	0x400d526900000000	3.6652393341064453
216	0xc0114f5440000000	-4.327469825744629
217	0x4003b5cac0000000	2.4637656211853027
218	0xc0103693a0000000	-4.053297519683838
219	0x40198d7240000000	6.388131141662598
220	0x4016215ce0000000	5.532580852508545
221	0x4016852de0000000	5.6300578117370605
222	0x3ff82a3580000000	1.5103049278259277
223	0x401a965cc0000000	6.646838188171387
224	0x40140d0080000000	5.012697219848633
225	0xbfe7cfcfe0000000	-0.7441176772117615
226	0x40105e4ce0000000	4.092090129852295
227	0x401713d660000000	5.769372463226318
228	0xbff8ab2d40000000	-1.5417912006378174
229	0x3feeabc460000000	0.9584676623344421
230	0x4008ec4e80000000	3.115384101867676
231	0x40165f92c0000000	5.5933332443237305
232	0xc004641940000000	-2.5488762855529785
233	0xc009f82c20000000	-3.246177911758423
234	0x3fcb9109c0000000	0.21536371111869812
235	0xc02a2703e0000000	-13.076201438903809
236	0xc018a04080000000	-6.156496047973633
237	0xbfcb5b3000000000	-0.21372032165527344
238	0x4015efb4e0000000	5.48408842086792
239	0xc01ae87b80000000	-6.727033615112305
240	0xc0010e8960000000	-2.1320979595184326
241	0x400a50fc40000000	3.289543628692627
242	0xbffc47f900000000	-1.7675714492797852
243	0x400ccaf140000000	3.599092960357666
244	0xbffe79d500000000	-1.9047441482543945
245	0xc012b58620000000	-4.677269458770752
246	0x3fc8e17f40000000	0.19438162446022034
247	0x3ffa014560000000	1.6253103017807007
248	0x4003536d20000000	2.4157354831695557
249	0x4024326040000000	10.098390579223633
250	0xc00845b8e0000000	-3.034044027328491
251	0x4010e9d460000000	4.228349208831787
252	0x4003ccfc20000000	2.475090265274048
253	0x400cc3db20000000	3.595632791519165
254	0x3fe0bd5680000000	0.5231125354766846
255	0x3fed6bbe80000000	0.9194023609161377
