6esmPCA/layer1_pca10.npy (npy, 7728 bytes, 1 tensors)

array (column-major) f4 [190, 10]
0	0x3f9ebe5b	1.2401842
1	0x409ec884	4.961977
2	0x40d9c4b6	6.8052626
3	0xc03d204c	-2.9550962
4	0xc13bedf8	-11.745598
5	0x4085d318	4.1820183
6	0x40f8d5fa	7.77612
7	0xc0993b94	-4.7885227
8	0x40ad91a2	5.4240274
9	0x40bb4df4	5.853266
10	0xc00f044d	-2.2346375
11	0x40bd15ef	5.9089274
12	0x409fb117	4.9903674
13	0x3f8b51f8	1.088439
14	0x405da175	3.4629796
15	0xc11cba8e	-9.795546
16	0xbf768fd7	-0.9631323
17	0x3f8b51f8	1.088439
18	0x3f8b51f8	1.088439
19	0xc01199fa	-2.275023
20	0x40853252	4.1623926
21	0x403b2a06	2.92444
22	0x4030c72b	2.7621562
23	0xc0f76746	-7.7313566
24	0x3fa7a210	1.3096333
25	0xbfc6d9eb	-1.5535253
26	0x40ec5b33	7.3861327
27	0x40482f12	3.127873
28	0xc02d8c88	-2.7117023
29	0xc119ce9d	-9.612943
30	0x40aa334d	5.3187623
31	0xbfcd5739	-1.6042243
32	0x40d0ccf2	6.5250177
33	0xbf5a2870	-0.8521795
34	0x3e5e7ab5	0.21726497
35	0x3e77160b	0.24129502
36	0x4086bdbb	4.2106605
37	0xc0893496	-4.287669
38	0x3f196061	0.5991269
39	0x40d611ae	6.689658
40	0x40dcc6af	6.8992534
41	0x4078f94a	3.8902154
42	0x40980603	4.750734
43	0xc003afcb	-2.0576046
44	0xbf724032	-0.94629204
45	0xc13bea21	-11.74466
46	0xc0f733fd	-7.725096
47	0x40befeb3	5.968591
48	0x403d2c57	2.9558313
49	0xc067c67f	-3.6214902
50	0x40032b7c	2.049529
51	0x40c822e6	6.25426
52	0x3f22f0eb	0.6364886
53	0x4001811e	2.0235057
54	0xc17bb1d6	-15.730917
55	0xc10d183f	-8.818419
56	0x4045d0b7	3.090864
57	0x4092bc5b	4.5854926
58	0x400444fa	2.06671
59	0xc040b564	-3.0110712
60	0x40c2f8e2	6.092881
61	0x408bd76e	4.3700476
62	0x40b437b4	5.6317997
63	0x3f089632	0.5335418
64	0xbe973c75	-0.29538313
65	0x40b5f9d1	5.686745
66	0x406a0a09	3.6568625
67	0xc0827ac5	-4.0774865
68	0x402dbe7b	2.714751
69	0x3df86ab3	0.12129726
70	0x4090fb61	4.530686
71	0xbfead623	-1.8346599
72	0x4016979d	2.3530037
73	0x3f8bf5dd	1.0934407
74	0xc091690d	-4.5440736
75	0xc13bedf9	-11.745599
76	0x40180680	2.3753967
77	0x3f5e8344	0.86919045
78	0xbea44fe3	-0.320922
79	0x40461c05	3.0954602
80	0x3fcae7ad	1.5851952
81	0xc026a72b	-2.6039531
82	0x40d61975	6.6906075
83	0xc0c7db28	-6.2455025
84	0xc1ce5d1c	-25.795464
85	0xc1f438d7	-30.527754
86	0x40cf7181	6.4826055
87	0x40cf7181	6.4826055
88	0xc11b605a	-9.711023
89	0x4081282d	4.0361543
90	0x40d534aa	6.6626787
91	0x40d1f336	6.560939
92	0x40f2dcd6	7.5894575
93	0x4051b3b0	3.2765923
94	0x409e2885	4.942446
95	0xc2009343	-32.14381
96	0xc1eceba7	-29.615065
97	0x3fd39b66	1.6531799
98	0x40316a8f	2.7721288
99	0xc0ae2555	-5.442057
100	0x403d9bd2	2.9626355
101	0x3ff7f56a	1.937177
102	0x3f1cf77f	0.6131515
103	0x40b8273c	5.7547894
104	0x4086bc20	4.2104645
105	0x405f625e	3.4903789
106	0x40e269a1	7.075394
107	0x3ff8bfcd	1.9433533
108	0xc01199fa	-2.275023
109	0xc00f044e	-2.2346377
110	0x3fab2778	1.337142
111	0x40a65aa7	5.198566
112	0x3fab2778	1.337142
113	0xc13bedf9	-11.745599
114	0x4064960d	3.5716584
115	0xbf7991cd	-0.974881
116	0x40af5a6e	5.479789
117	0xc1906da4	-18.053535
118	0x40e66492	7.1997766
119	0x40df1829	6.971699
120	0x409c1ca6	4.878497
121	0x4090140d	4.5024476
122	0xc026a72b	-2.6039531
123	0xc13e5e20	-11.89798
124	0x40a253f5	5.0727487
125	0x4063a7ed	3.5571244
126	0x40d611ae	6.689658
127	0x40e99be5	7.30028
128	0x40f0a6ad	7.520346
129	0x3d11aa7e	0.035562985
130	0xc14f581d	-12.959012
131	0x40f52dee	7.6618567
132	0xc1e9cc3c	-29.224724
133	0x40be34f2	5.943963
134	0x4078f94a	3.8902154
135	0xbf2c57be	-0.67321384
136	0x404c362a	3.190806
137	0x40980603	4.750734
138	0xc20a89b8	-34.63449
139	0xbf1ab86a	-0.60437644
140	0xc1d3d4dc	-26.478935
141	0xc1f33f21	-30.405825
142	0x4051b3b0	3.2765923
143	0x4063a7ed	3.5571244
144	0x40512f98	3.26853
145	0x40b5977d	5.674742
146	0xbf892b73	-1.0716385
147	0xc063bc06	-3.558351
148	0x409961d9	4.7931943
149	0x40aed40d	5.463385
150	0xbfdd8685	-1.7306677
151	0x40113072	2.2685819
152	0x3ee22e7f	0.441761
153	0x404a39de	3.159782
154	0x4022f9d7	2.546499
155	0x40a9890b	5.297979
156	0x400a5f5d	2.1620705
157	0xc09c4855	-4.8838296
158	0x40f2dcd6	7.5894575
159	0x40d2a7cf	6.5829844
160	0xbf20ed56	-0.62862146
161	0x3f0fa155	0.5610555
162	0x40ae596f	5.448417
163	0x409a9b22	4.831437
164	0x4001828a	2.0235925
165	0x4001811e	2.0235057
166	0xbf1c5b8c	-0.6107719
167	0xc09c4855	-4.8838296
168	0xc07e5889	-3.9741538
169	0x3fec4951	1.8459874
170	0xc0912959	-4.5362973
171	0xc13e5e20	-11.89798
172	0x40bd6f2b	5.9198203
173	0x40a65aa7	5.198566
174	0x40a11917	5.0343127
175	0xbf2c57be	-0.67321384
176	0x40f46eb1	7.638512
177	0x4090140d	4.5024476
178	0xc026a72b	-2.6039531
179	0x40dc0341	6.875397
180	0x40ee083c	7.438505
181	0x403b5cb6	2.9275336
182	0xc0803a07	-4.0070834
183	0x40d8167a	6.7527437
184	0x40eff6e2	7.498887
185	0x405a60e1	3.412163
186	0x3fd39b66	1.6531799
187	0x409a0fde	4.814437
188	0x3f746878	0.95471907
189	0xc0194c00	-2.3952637
190	0x3ed9121f	0.42396638
191	0xbf79772c	-0.97447467
192	0xbffaec2c	-1.9603324
193	0xc075e53c	-3.8421164
194	0xc1003e14	-8.015156
195	0x40dbb1bb	6.8654456
196	0x3e6bac10	0.23014855
197	0x41c26782	24.30054
198	0xbfd3f2ce	-1.6558473
199	0xc0095c70	-2.146267
200	0xc06bea0f	-3.6861608
201	0x3e1f9a25	0.15586145
202	0x4109058d	8.563855
203	0x4114117d	9.25427
204	0x40785023	3.8798912
205	0x40cf06e2	6.46959
206	0xbefd068b	-0.49419054
207	0x4114117d	9.25427
208	0x4114117d	9.25427
209	0x4077ba46	3.8707442
210	0x3d5f62ff	0.05453777
211	0x40b0352b	5.50649
212	0x3f60e99e	0.8785647
213	0x412cc010	10.79689
214	0x3f02274d	0.5084122
215	0x3fc14b6a	1.510114
216	0x401825a8	2.3772984
217	0xc000de3c	-2.013564
218	0x406a8b8c	3.6647673
219	0xc085c0d4	-4.1797886
220	0xc0ca813c	-6.3282757
221	0x3d0dd7c9	0.034629617
222	0xbeef708e	-0.4676556
223	0xc09d5219	-4.9162717
224	0xc0a0d74b	-5.026281
225	0xbf5feca8	-0.87470484
226	0xc07a5788	-3.9115925
227	0xc0431c9d	-3.0486214
228	0x3e866bc1	0.26254085
229	0xbf29db98	-0.663507
230	0xc090c84f	-4.5244517
231	0xc009e05b	-2.1543186
232	0x3f83009f	1.0234565
233	0x3ffdd067	1.9829224
234	0x40babec3	5.8357863
235	0x417d6032	15.835985
236	0x41147ea1	9.280915
237	0xbf0a7d0e	-0.5409707
238	0xc02b1705	-2.67328
239	0x41571300	13.442139
240	0x40881b4c	4.253332
241	0xc05d81a0	-3.4610367
242	0x3e83d1e1	0.25746062
243	0xbd636824	-0.055519238
244	0x40c4c97a	6.1495943
245	0x413f32c8	11.949898
246	0x3fcef91a	1.616977
247	0xc026b902	-2.605042
248	0xc08cf315	-4.404673
249	0xc128f883	-10.560672
250	0x40b27423	5.576677
251	0xc0a1d061	-5.056687
252	0xbf412333	-0.75444335
253	0xbf90e28f	-1.131914
254	0x3fc2724b	1.519113
255	0xbe05641c	-0.1302647
