6esmPCA/layer4_pca50.npy (npy, 76128 bytes, 1 tensors)

array (column-major) f8 [190, 50]
0	0xc02288a700000000	-9.266899108886719
1	0xc0274594a0000000	-11.635899543762207
2	0x4010b60bc0000000	4.177779197692871
3	0x3ff3e0c9c0000000	1.242379903793335
4	0xc0054c25a0000000	-2.6621811389923096
5	0xc024a97bc0000000	-10.331022262573242
6	0x400ef30400000000	3.8686599731445312
7	0xc03c0d7780000000	-28.05260467529297
8	0x4018e683e0000000	6.225112438201904
9	0x4010635d60000000	4.097035884857178
10	0x4003e5e020000000	2.487243890762329
11	0x40102c2f60000000	4.043149471282959
12	0xc02a356fa0000000	-13.10436725616455
13	0xc0278b3d60000000	-11.771952629089355
14	0xc0203dd480000000	-8.12076187133789
15	0x400bc9c760000000	3.473524808883667
16	0xc0159b37c0000000	-5.401579856872559
17	0xc0278b3d60000000	-11.771952629089355
18	0xc0278b3d60000000	-11.771952629089355
19	0xc003ac53c0000000	-2.459144115447998
20	0x4009b35a40000000	3.2125744819641113
21	0xbfffbe0120000000	-1.983887791633606
22	0x40096af540000000	3.1772255897521973
23	0xc003ca0460000000	-2.4736411571502686
24	0x3fd9b4cc80000000	0.40166008472442627
25	0x4005c61de0000000	2.7217366695404053
26	0x3ff9cf91a0000000	1.6131759881973267
27	0x3ff21408a0000000	1.129891037940979
28	0xbff011e060000000	-1.0043643712997437
29	0x4007c94240000000	2.973270893096924
30	0x4014075420000000	5.007156848907471
31	0x40143e8360000000	5.0610480308532715
32	0x401485a1a0000000	5.130499362945557
33	0x40114ba5c0000000	4.323874473571777
34	0x400dbd9e00000000	3.7175865173339844
35	0xc01fb927a0000000	-7.93081521987915
36	0x401376d120000000	4.866032123565674
37	0x4011ecf400000000	4.4813995361328125
38	0xbff6918320000000	-1.4105254411697388
39	0x400aec7c40000000	3.365471363067627
40	0x4015859640000000	5.38045597076416
41	0x401b8cf760000000	6.887662410736084
42	0xbfc9dad0c0000000	-0.20199021697044373
43	0xc021843180000000	-8.758190155029297
44	0x40117e8a20000000	4.3735737800598145
45	0xc0192f4660000000	-6.296166896820068
46	0xbff23397c0000000	-1.1375958919525146
47	0x400ae5b400000000	3.3621597290039062
48	0x40129fad40000000	4.6559343338012695
49	0xc00a24f0e0000000	-3.2680375576019287
50	0xc0020a6640000000	-2.255077838897705
51	0x401326cbc0000000	4.787886619567871
52	0xc001fd39c0000000	-2.248645305633545
53	0x40177ba7e0000000	5.870757579803467
54	0xc006f2db60000000	-2.8685824871063232
55	0xc018d22b00000000	-6.205242156982422
56	0x400b20ed40000000	3.3910775184631348
57	0x40131cf200000000	4.778266906738281
58	0x4004183d20000000	2.5118353366851807
59	0x4024755460000000	10.229159355163574
60	0x4009459ca0000000	3.1589901447296143
61	0x40098031e0000000	3.1875951290130615
62	0x400baef340000000	3.4604249000549316
63	0x400ac9bb00000000	3.348501205444336
64	0x3ffa7e1940000000	1.6557857990264893
65	0x3ff95faec0000000	1.585860013961792
66	0x4010b84d60000000	4.179982662200928
67	0x4006850ee0000000	2.814969778060913
68	0x4014622b60000000	5.0958685874938965
69	0x400c837da0000000	3.564204454421997
70	0x40128b6f60000000	4.636167049407959
71	0xbff072f240000000	-1.0280630588531494
72	0x401204f000000000	4.50482177734375
73	0x4013447a20000000	4.8168721199035645
74	0x40056e42c0000000	2.6788382530212402
75	0xc0054c2680000000	-2.6621828079223633
76	0x401c09c5e0000000	7.0095438957214355
77	0x3fe0717220000000	0.5138483643531799
78	0x40130d92e0000000	4.763255596160889
79	0xbfb25e47e0000000	-0.07175111025571823
80	0x400229e1e0000000	2.2704503536224365
81	0xbfec280460000000	-0.8798848986625671
82	0x401195b560000000	4.396199703216553
83	0x3ffc436aa0000000	1.7664591073989868
84	0x4002bbb160000000	2.341646909713745
85	0xbfec1a4680000000	-0.8782074451446533
86	0xc01ebdc020000000	-7.685303211212158
87	0xc01ebdc020000000	-7.685303211212158
88	0xbfe5f69b80000000	-0.6863534450531006
89	0x400b775540000000	3.4332680702209473
90	0x3ff7e3b920000000	1.4930964708328247
91	0x4018c6b5e0000000	6.1940531730651855
92	0x4013521500000000	4.830158233642578
93	0x3ff7d84880000000	1.4903035163879395
94	0x400d163740000000	3.635847568511963
95	0xc0212ab200000000	-8.583389282226562
96	0xc01376c060000000	-4.865968227386475
97	0x3ff110c540000000	1.0665943622589111
98	0xbfe73bd5a0000000	-0.7260540127754211
99	0xbfcc173440000000	-0.21945813298225403
100	0x3fba61b0c0000000	0.10305313766002655
101	0x400a5565c0000000	3.2916979789733887
102	0x40132bc060000000	4.792726039886475
103	0x3ffc9faca0000000	1.7889829874038696
104	0x4011b1ffc0000000	4.423827171325684
105	0xc03c504320000000	-28.31352424621582
106	0x40130857a0000000	4.7581467628479
107	0x4012f2a780000000	4.736967086791992
108	0xc003ac53c0000000	-2.459144115447998
109	0x4003e5e020000000	2.487243890762329
110	0x40149f7720000000	5.155727863311768
111	0x3ffe6a5bc0000000	1.9009664058685303
112	0x40149f7720000000	5.155727863311768
113	0xc0054c2680000000	-2.6621828079223633
114	0x40100b83c0000000	4.011244773864746
115	0xc041c68140000000	-35.550819396972656
116	0x4006d88700000000	2.8557262420654297
117	0xc012f6dd60000000	-4.741078853607178
118	0x4011b59040000000	4.427308082580566
119	0x4013cd5ea0000000	4.95055627822876
120	0x4006f14360000000	2.8678042888641357
121	0x4011e5a5a0000000	4.474264621734619
122	0xbfec280460000000	-0.8798848986625671
123	0xc004c444a0000000	-2.5958340167999268
124	0x4013863820000000	4.881073474884033
125	0x401711ed40000000	5.7675065994262695
126	0x400aec7c40000000	3.365471363067627
127	0x4011f60020000000	4.490234851837158
128	0x4013ac2260000000	4.918099880218506
129	0xc0197ab620000000	-6.369835376739502
130	0x40033d43a0000000	2.404914140701294
131	0x40129cb120000000	4.653019428253174
132	0xbfc396a3c0000000	-0.15303465723991394
133	0x401053a700000000	4.081691741943359
134	0x401b8cf760000000	6.887662410736084
135	0x3ff4f97640000000	1.310903787612915
136	0xc043911460000000	-39.1334342956543
137	0xbfc9dad0c0000000	-0.20199021697044373
138	0xc016734e80000000	-5.612604141235352
139	0xbfd3ea1160000000	-0.3111613690853119
140	0x3fe2a503a0000000	0.5826433300971985
141	0xc0023b3e40000000	-2.2789273262023926
142	0x3ff7d84880000000	1.4903035163879395
143	0x401711ed40000000	5.7675065994262695
144	0x400a837fe0000000	3.314208745956421
145	0x400dca0140000000	3.723635196685791
146	0xc01a619180000000	-6.595281600952148
147	0x3feba113e0000000	0.8634127974510193
148	0x400f8d0480000000	3.9438562393188477
149	0x4005ae1e80000000	2.710019111633301
150	0xbff1fa72a0000000	-1.123644471168518
151	0x401a24ebc0000000	6.536055564880371
152	0xc01749b6a0000000	-5.821985721588135
153	0x40155855e0000000	5.3362650871276855
154	0xc0076887a0000000	-2.926039934158325
155	0x4017440220000000	5.8164143562316895
156	0xc02457a700000000	-10.171195983886719
157	0x40137dada0000000	4.872732639312744
158	0x4013521500000000	4.830158233642578
159	0x401489b8a0000000	5.134493350982666
160	0xc019a907c0000000	-6.415068626403809
161	0x401908bea0000000	6.25853967666626
162	0x400ec15200000000	3.8443946838378906
163	0x400b4775a0000000	3.4098923206329346
164	0xbff081ca60000000	-1.0316871404647827
165	0x40177ba7e0000000	5.870757579803467
166	0x4017861920000000	5.880955219268799
167	0x40137dada0000000	4.872732639312744
168	0xc0140dc2c0000000	-5.0134382247924805
169	0x4003ec4c00000000	2.4903793334960938
170	0xc005e46180000000	-2.736514091491699
171	0xc004c444a0000000	-2.5958340167999268
172	0x400e6440c0000000	3.7989516258239746
173	0x3ffe6a5bc0000000	1.9009664058685303
174	0x4011ec9bc0000000	4.481062889099121
175	0x3ff4f97640000000	1.310903787612915
176	0xbfd1534d80000000	-0.27070939540863037
177	0x4011e5a5a0000000	4.474264621734619
178	0xbfec280460000000	-0.8798848986625671
179	0x401749ddc0000000	5.822134971618652
180	0x40128aab60000000	4.6354193687438965
181	0xbffc5759c0000000	-1.7713258266448975
182	0xc02d46f300000000	-14.638572692871094
183	0x4010a50d00000000	4.161182403564453
184	0x4013810840000000	4.876008033752441
185	0xc043fa9e60000000	-39.95795822143555
186	0x3ff110c540000000	1.0665943622589111
187	0xc02aabc8e0000000	-13.335516929626465
188	0x4003134b60000000	2.3844211101531982
189	0xc015a467a0000000	-5.41055154800415
190	0xbff724f5c0000000	-1.4465234279632568
191	0xc016e64a00000000	-5.724891662597656
192	0xc018b123e0000000	-6.172988414764404
193	0x400a6cd400000000	3.3031387329101562
194	0x40205ffc60000000	8.187472343444824
195	0xc002679060000000	-2.3005683422088623
196	0xc014aa9300000000	-5.166576385498047
197	0xbff7a3bc60000000	-1.477474570274353
198	0xc005123d80000000	-2.633906364440918
199	0xc0010daae0000000	-2.131673574447632
200	0xbff8ffce00000000	-1.5624523162841797
201	0xbfe45549e0000000	-0.6354112029075623
202	0xc007efe960000000	-2.9921443462371826
203	0xc0013bae40000000	-2.1541409492492676
204	0xc0026ec740000000	-2.304090976715088
205	0x401af64580000000	6.740499496459961
206	0x3fefde1d40000000	0.9958635568618774
207	0xc0013bae40000000	-2.1541409492492676
208	0xc0013bae40000000	-2.1541409492492676
209	0x4009e6c700000000	3.2376842498779297
210	0xbff48e4200000000	-1.2847309112548828
211	0xbff6e4b880000000	-1.430840015411377
212	0xc0004723c0000000	-2.034736156463623
213	0x401eb6e020000000	7.678589344024658
214	0xbfb753d1a0000000	-0.09112272411584854
215	0x4016544aa0000000	5.582315921783447
216	0xc014056080000000	-5.005250930786133
217	0xc00d0bb3a0000000	-3.630713701248169
218	0x4013a596e0000000	4.911708354949951
219	0x4013f51540000000	4.9893388748168945
220	0xc013a7c100000000	-4.913822174072266
221	0x4009baa8e0000000	3.216142416000366
222	0xbffbb9a600000000	-1.7328243255615234
223	0xbff1707680000000	-1.0899567604064941
224	0xbffa82d040000000	-1.6569368839263916
225	0xbff8b9ed00000000	-1.5453920364379883
226	0xc0128f4ac0000000	-4.6399335861206055
227	0x40016fe040000000	2.179626941680908
228	0x3fd81e4020000000	0.3768463432788849
229	0xc013077d20000000	-4.757313251495361
230	0xc020d766e0000000	-8.420706748962402
231	0xbfeab71540000000	-0.8348489999771118
232	0xc00c739b80000000	-3.5564489364624023
233	0xbfd8c959a0000000	-0.387289434671402
234	0x40049d58a0000000	2.576829195022583
235	0x40207e7b20000000	8.24703311920166
236	0x4015fde080000000	5.497926712036133
237	0xc011f9be00000000	-4.493888854980469
238	0xbfe0408200000000	-0.5078744888305664
239	0x3ffb5e23a0000000	1.710483193397522
240	0xbfedcfc760000000	-0.9316136240959167
241	0xc003000960000000	-2.3750178813934326
242	0x3fc7da83c0000000	0.18635603785514832
243	0xbfb2f4b380000000	-0.07404634356498718
244	0x40258f5b80000000	10.77999496459961
245	0x401f7825c0000000	7.867331504821777
246	0x3fda7273c0000000	0.413235604763031
247	0xbfe767c260000000	-0.7314159274101257
248	0xbfe7d25800000000	-0.7444267272949219
249	0x40143580a0000000	5.052248477935791
250	0xc008669160000000	-3.050081968307495
251	0xc00acb5740000000	-3.349287509918213
252	0xc0009c1400000000	-2.0762100219726562
253	0xbff867ef00000000	-1.525374412536621
254	0x3ff9828160000000	1.594361662864685
255	0xc00e99b1c0000000	-3.8250460624694824
