6esmPCA/layer1_pca190.npy (npy, 288928 bytes, 1 tensors)

array (column-major) f8 [190, 190]
1.2401841878890991 4.961977005004883 6.805262565612793 -2.9550962448120117 -11.745597839355469 4.182018280029297 7.776120185852051 -4.788522720336914
5.424027442932129 5.853265762329102 -2.234637498855591 5.9089274406433105 4.990367412567139 1.0884389877319336 3.462979555130005 -9.79554557800293
-0.9631323218345642 1.0884389877319336 1.0884389877319336 -2.2750229835510254 4.162392616271973 2.9244399070739746 2.7621562480926514 -7.731356620788574
1.3096332550048828 -1.5535253286361694 7.386132717132568 3.127872943878174 -2.711702346801758 -9.612942695617676 5.318762302398682 -1.6042243242263794
6.525017738342285 -0.8521795272827148 0.21726496517658234 0.24129502475261688 4.210660457611084 -4.2876691818237305 0.5991268754005432 6.689658164978027
6.8992533683776855 3.8902153968811035 4.750733852386475 -2.0576045513153076 -0.9462920427322388 -11.744660377502441 -7.725096225738525 5.968591213226318
2.955831289291382 -3.621490240097046 2.0495290756225586 6.254260063171387 0.6364886164665222 2.023505687713623 -15.730916976928711 -8.818419456481934
3.0908639430999756 4.5854926109313965 2.0667099952697754 -3.01107120513916 6.092881202697754 4.370047569274902 5.631799697875977 0.5335417985916138
-0.29538312554359436 5.6867451667785645 3.656862497329712 -4.077486515045166 2.7147510051727295 0.12129726260900497 4.530685901641846 -1.8346599340438843
2.353003740310669 1.0934406518936157 -4.544073581695557 -11.745598793029785 2.375396728515625 0.8691904544830322 -0.32092198729515076 3.0954601764678955
1.5851951837539673 -2.6039531230926514 6.69060754776001 -6.245502471923828 -25.79546356201172 -30.527753829956055 6.482605457305908 6.482605457305908
-9.711023330688477 4.036154270172119 6.6626787185668945 6.560938835144043 7.5894575119018555 3.276592254638672 4.942446231842041 -32.1438102722168
-29.61506462097168 1.6531798839569092 2.7721288204193115 -5.442057132720947 2.9626355171203613 1.9371769428253174 0.613151490688324 5.754789352416992
4.2104644775390625 3.4903788566589355 7.075394153594971 1.943353295326233 -2.2750229835510254 -2.23463773727417 1.337141990661621 5.19856595993042
1.337141990661621 -11.745598793029785 3.5716583728790283 -0.9748809933662415 5.479788780212402 -18.05353546142578 7.199776649475098 6.971699237823486
4.878497123718262 4.502447605133057 -2.6039531230926514 -11.897979736328125 5.07274866104126 3.557124376296997 6.689658164978027 7.3002800941467285
7.520346164703369 0.03556298464536667 -12.959012031555176 7.661856651306152 -29.22472381591797 5.943963050842285 3.8902153968811035 -0.6732138395309448
3.1908059120178223 4.750733852386475 -34.634490966796875 -0.6043764352798462 -26.47893524169922 -30.405824661254883 3.276592254638672 3.557124376296997
3.2685298919677734 5.674742221832275 -1.0716384649276733 -3.5583510398864746 4.79319429397583 5.463385105133057 -1.7306677103042603 2.2685818672180176
0.44176098704338074 3.1597819328308105 2.546499013900757 5.29797887802124 2.1620705127716064 -4.883829593658447 7.5894575119018555 6.582984447479248
-0.6286214590072632 0.5610554814338684 5.4484171867370605 4.831437110900879 2.023592472076416 2.023505687713623 -0.610771894454956 -4.883829593658447
-3.974153757095337 1.8459874391555786 -4.53629732131958 -11.897979736328125 5.919820308685303 5.19856595993042 5.034312725067139 -0.6732138395309448
7.638512134552002 4.502447605133057 -2.6039531230926514 6.875397205352783 7.438505172729492 2.9275336265563965 -4.007083415985107 6.752743721008301
7.498887062072754 3.412163019180298 1.6531798839569092 4.814436912536621 0.954719066619873 -2.395263671875 0.4239663779735565 -0.9744746685028076
-1.9603323936462402 -3.842116355895996 -8.015155792236328 6.865445613861084 0.2301485538482666 24.300540924072266 -1.6558473110198975 -2.1462669372558594
-3.6861608028411865 0.15586145222187042 8.563855171203613 9.25426959991455 3.8798911571502686 6.469590187072754 -0.4941905438899994 9.25426959991455
9.25426959991455 3.870744228363037 0.05453776940703392 5.506490230560303 0.878564715385437 10.796890258789062 0.5084121823310852 1.5101139545440674
2.377298355102539 -2.013564109802246 3.664767265319824 -4.179788589477539 -6.328275680541992 0.034629616886377335 -0.46765559911727905 -4.916271686553955
-5.026280879974365 -0.8747048377990723 -3.911592483520508 -3.048621416091919 0.2625408470630646 -0.6635069847106934 -4.524451732635498 -2.1543185710906982
1.0234564542770386 1.9829224348068237 5.83578634262085 15.83598518371582 9.280915260314941 -0.5409706830978394 -2.6732800006866455 13.442138671875
4.253332138061523 -3.4610366821289062 0.2574606239795685 -0.055519238114356995 6.149594306945801 11.949897766113281 1.6169769763946533 -2.605041980743408
-4.404673099517822 -10.56067180633545 5.576676845550537 -5.056686878204346 -0.754443347454071 -1.1319140195846558 1.5191129446029663 -0.13026469945907593
00000000: 0000 0060 cbd7 f33f 0000 0080 10d9 1340
00000010: 0000 00c0 9638 1b40 0000 0080 09a4 07c0
00000020: 0000 0000 bf7d 27c0 0000 0000 63ba 1040
00000030: 0000 0040 bf1a 1f40 0000 0080 7227 13c0
00000040: 0000 0040 34b2 1540 0000 0080 be69 1740
00000050: 0000 00a0 89e0 01c0 0000 00e0 bda2 1740
00000060: 0000 00e0 22f6 1340 0000 0000 3f6a f13f
00000070: 0000 00a0 2eb4 0b40 0000 00c0 5197 23c0
00000080: 0000 00e0 fad1 eebf 0000 0000 3f6a f13f
00000090: 0000 0000 3f6a f13f 0000 0040 3f33 02c0
000000a0: 0000 0040 4aa6 1040 0000 00c0 4065 0740
000000b0: 0000 0060 e518 0640 0000 00c0 e8ec 1ec0
000000c0: 0000 0000 42f4 f43f 0000 0060 3ddb f8bf
000000d0: 0000 0060 668b 1d40 0000 0040 e205 0940
000000e0: 0000 0000 91b1 05c0 0000 00a0 d339 23c0
000000f0: 0000 00a0 6946 1540 0000 0020 e7aa f9bf
00000100: 0000 0040 9e19 1a40 0000 0000 0e45 ebbf
00000110: 0000 00a0 56cf cb3f 0000 0060 c1e2 ce3f
00000120: 0000 0060 b7d7 1040 0000 00c0 9226 11c0
00000130: 0000 0020 0c2c e33f 0000 00c0 35c2 1a40
00000140: 0000 00e0 d598 1b40 0000 0040 291f 0f40
00000150: 0000 0060 c000 1340 0000 0060 f975 00c0
00000160: 0000 0040 0648 eebf 0000 0020 447d 27c0
00000170: 0000 00a0 7fe6 1ec0 0000 0060 d6df 1740
00000180: 0000 00e0 8aa5 0740 0000 00e0 cff8 0cc0
00000190: 0000 0080 6f65 0040 0000 00c0 5c04 1940
000001a0: 0000 0060 1d5e e43f 0000 00c0 2330 0040
000001b0: 0000 00c0 3a76 2fc0 0000 00e0 07a3 21c0
000001c0: 0000 00e0 16ba 0840 0000 0060 8b57 1240
000001d0: 0000 0040 9f88 0040 0000 0080 ac16 08c0
000001e0: 0000 0040 1c5f 1840 0000 00c0 ed7a 1140
000001f0: 0000 0080 f686 1640 0000 0040 c612 e13f
00000200: 0000 00a0 8ee7 d2bf 0000 0020 3abf 1640
00000210: 0000 0020 4141 0d40 0000 00a0 584f 10c0
00000220: 0000 0060 cfb7 0540 0000 0060 560d bf3f
00000230: 0000 0020 6c1f 1240 0000 0060 c45a fdbf
00000240: 0000 00a0 f3d2 0240 0000 00a0 bb7e f13f
00000250: 0000 00a0 212d 12c0 0000 0020 bf7d 27c0
00000260: 0000 0000 d000 0340 0000 0080 68d0 eb3f
00000270: 0000 0060 fc89 d4bf 0000 00a0 80c3 0840
00000280: 0000 00a0 f55c f93f 0000 0060 e5d4 04c0
00000290: 0000 00a0 2ec3 1a40 0000 0000 65fb 18c0
000002a0: 0000 0080 a3cb 39c0 0000 00e0 1a87 3ec0
000002b0: 0000 0020 30ee 1940 0000 0020 30ee 1940
000002c0: 0000 0040 0b6c 23c0 0000 00a0 0525 1040
000002d0: 0000 0040 95a6 1a40 0000 00c0 663e 1a40
000002e0: 0000 00c0 9a5b 1e40 0000 0000 7636 0a40
000002f0: 0000 00a0 10c5 1340 0000 0060 6812 40c0
00000300: 0000 00e0 749d 3dc0 0000 00c0 6c73 fa3f
00000310: 0000 00e0 512d 0640 0000 00a0 aac4 15c0
00000320: 0000 0040 7ab3 0740 0000 0040 adfe fe3f
00000330: 0000 00e0 ef9e e33f 0000 0080 e704 1740
00000340: 0000 0000 84d7 1040 0000 00c0 4bec 0b40
00000350: 0000 0020 344d 1c40 0000 00a0 f917 ff3f
00000360: 0000 0040 3f33 02c0 0000 00c0 89e0 01c0
00000370: 0000 0000 ef64 f53f 0000 00e0 54cb 1440
00000380: 0000 0000 ef64 f53f 0000 0020 bf7d 27c0
00000390: 0000 00a0 c192 0c40 0000 00a0 3932 efbf
000003a0: 0000 00c0 4deb 1540 0000 0080 b40d 32c0
000003b0: 0000 0040 92cc 1c40 0000 0020 05e3 1b40
000003c0: 0000 00c0 9483 1340 0000 00a0 8102 1240
000003d0: 0000 0060 e5d4 04c0 0000 0000 c4cb 27c0
000003e0: 0000 00a0 7e4a 1440 0000 00a0 fd74 0c40
000003f0: 0000 00c0 35c2 1a40 0000 00a0 7c33 1d40
00000400: 0000 00a0 d514 1e40 0000 00c0 4f35 a23f
00000410: 0000 00a0 03eb 29c0 0000 00c0 bda5 1e40
00000420: 0000 0080 8739 3dc0 0000 0040 9ec6 1740
00000430: 0000 0040 291f 0f40 0000 00c0 f78a e5bf
00000440: 0000 0040 c586 0940 0000 0060 c000 1340
00000450: 0000 0000 3751 41c0 0000 0040 0d57 e3bf
00000460: 0000 0080 9b7a 3ac0 0000 0020 e467 3ec0
00000470: 0000 0000 7636 0a40 0000 00a0 fd74 0c40
00000480: 0000 0000 f325 0a40 0000 00a0 efb2 1640
00000490: 0000 0060 6e25 f1bf 0000 00c0 8077 0cc0
000004a0: 0000 0020 3b2c 1340 0000 00a0 81da 1540
000004b0: 0000 00a0 d0b0 fbbf 0000 0040 0e26 0240
000004c0: 0000 00e0 cf45 dc3f 0000 00c0 3b47 0940
000004d0: 0000 00e0 3a5f 0440 0000 0060 2131 1540
000004e0: 0000 00a0 eb4b 0140 0000 00a0 0a89 13c0
000004f0: 0000 00c0 9a5b 1e40 0000 00e0 f954 1a40
00000500: 0000 00c0 aa1d e4bf 0000 00a0 2af4 e13f
00000510: 0000 00e0 2dcb 1540 0000 0040 6453 1340
00000520: 0000 0040 5130 0040 0000 00c0 2330 0040
00000530: 0000 0080 718b e3bf 0000 00a0 0a89 13c0
00000540: 0000 0020 11cb 0fc0 0000 0020 2a89 fd3f
00000550: 0000 0020 2b25 12c0 0000 0000 c4cb 27c0
00000560: 0000 0060 e5ad 1740 0000 00e0 54cb 1440
00000570: 0000 00e0 2223 1440 0000 00c0 f78a e5bf
00000580: 0000 0020 d68d 1e40 0000 00a0 8102 1240
00000590: 0000 0060 e5d4 04c0 0000 0020 6880 1b40
000005a0: 0000 0080 07c1 1d40 0000 00c0 966b 0740
000005b0: 0000 00e0 4007 10c0 0000 0040 cf02 1b40
000005c0: 0000 0040 dcfe 1d40 0000 0020 1c4c 0b40
000005d0: 0000 00c0 6c73 fa3f 0000 00c0 fb41 1340
000005e0: 0000 0000 0f8d ee3f 0000 0000 8029 03c0
000005f0: 0000 00e0 4322 db3f 0000 0080 e52e efbf
00000600: 0000 0080 855d ffbf 0000 0080 a7bc 0ec0
00000610: 0000 0080 c207 20c0 0000 0060 3776 1b40
00000620: 0000 0000 8275 cd3f 0000 0040 f04c 3840
00000630: 0000 00c0 597e fabf 0000 0000 8e2b 01c0
00000640: 0000 00e0 417d 0dc0 0000 00a0 44f3 c33f
00000650: 0000 00a0 b120 2140 0000 00a0 2f82 2240
00000660: 0000 0060 040a 0f40 0000 0040 dce0 1940
00000670: 0000 0060 d1a0 dfbf 0000 00a0 2f82 2240
00000680: 0000 00a0 2f82 2240 0000 00c0 48f7 0e40
00000690: 0000 00e0 5fec ab3f 0000 0060 a506 1640
000006a0: 0000 00c0 331d ec3f 0000 0000 0298 2540
000006b0: 0000 00a0 e944 e03f 0000 0040 6d29 f83f
000006c0: 0000 0000 b504 0340 0000 0080 c71b 00c0
000006d0: 0000 0080 7151 0d40 0000 0080 1ab8 10c0
000006e0: 0000 0080 2750 19c0 0000 0020 f9ba a13f
000006f0: 0000 00c0 11ee ddbf 0000 0020 43aa 13c0
00000700: 0000 0060 e91a 14c0 0000 0000 95fd ebbf
00000710: 0000 0000 f14a 0fc0 0000 00a0 9363 08c0
00000720: 0000 0020 78cd d03f 0000 0000 733b e5bf
00000730: 0000 00e0 0919 12c0 0000 0060 0b3c 01c0
00000740: 0000 00e0 1360 f03f 0000 00e0 0cba ff3f
00000750: 0000 0060 d857 1740 0000 0040 06ac 2f40
00000760: 0000 0020 d48f 2240 0000 00c0 a14f e1bf
00000770: 0000 00a0 e062 05c0 0000 0000 60e2 2a40
00000780: 0000 0080 6903 1140 0000 0000 34b0 0bc0
00000790: 0000 0020 3c7a d03f 0000 0080 046d acbf
000007a0: 0000 0040 2f99 1840 0000 0000 59e6 2740
000007b0: 0000 0040 23df f93f 0000 0040 20d7 04c0
000007c0: 0000 00a0 629e 11c0 0000 0060 101f 25c0
000007d0: 0000 0060 844e 1640 0000 0020 0c3a 14c0
000007e0: 0000 0060 6624 e8bf 0000 00e0 511c f2bf
000007f0: 0000 0060 494e f83f 0000 0080 83ac c0bf
