6esmPCA/layer0_pca50.npy (npy, 38128 bytes, 1 tensors)

array (column-major) f4 [190, 50]
00000000: 6799 3940 f6a9 3bc0 854b cfc0 d618 14c1
00000010: fa9c 9e40 23fa 8fc1 119b 56c0 e827 e8c0
00000020: 7593 6ec0 960e 82c0 615a a640 6409 ebc0
00000030: 2f29 56c1 4025 5cc1 71d6 cac0 eeb3 8ac0
00000040: c985 9a40 4025 5cc1 4025 5cc1 5dd5 9fc0
00000050: 236a d7c0 93a3 0bc1 d08b adbe 1ee5 9540
00000060: 4079 f73f 6e11 c7be 300f c0bf ad81 76bf
00000070: 1181 b840 c6da 2d41 5577 18be be30 85bf
00000080: 1f77 a1c0 99ff 75bf 1488 b740 71fe 7e40
00000090: 27bb debf 7104 d040 6d25 4c40 97ef a9c0
000000a0: 1826 ccc0 49b5 b9c0 c92c a5c0 958c a840
000000b0: 4d41 38be cb98 0041 525f f740 771b 0ec0
000000c0: e2bc 4cc0 018d 2d40 0866 243f 9396 f0c0
000000d0: a1be 4a40 44ce 9ebf 142a b141 bc88 8d40
000000e0: f996 96c0 e441 6bc0 b17f 9ac0 fb55 26c1
000000f0: bb66 ddc0 4184 3bc0 2a2a 5ec0 2c4e f63f
00000100: dd10 2ebf 5422 a5c0 ca61 c7bf ecaf 6740
00000110: 7742 8fbe e545 223e 7943 8ac0 c421 9240
00000120: 91d3 3dc0 c9de fe3f 1d08 1ec1 f99c 9e40
00000130: 0532 053f dc61 15c0 2c68 1440 8c70 c3c0
00000140: 5ba0 403f de0b 2741 07a5 02c1 f7ad 4cc1
00000150: 80bb 7041 127f e541 35b5 23c0 35b5 23c0
00000160: 0db6 1541 a428 8bc0 532b 7ec0 3d8c ccc0
00000170: 44a5 c8c0 6f2b 48c0 62ab ccc0 3d2d 1042
00000180: eeab fc41 84e4 64c0 4101 95bf 894c c940
00000190: 1eeb 35c1 4243 f6c0 fc64 adc0 6a4e 9fc0
000001a0: 47d3 fcbf 6a2b 6140 542b d0c0 6957 363f
000001b0: 5dd5 9fc0 615a a640 72a9 3040 7c74 28c1
000001c0: 72a9 3040 f99c 9e40 2e9f 0c40 1a50 76c1
000001d0: 0c1e 61be d3d8 bd41 dc1a d7c0 f0a7 8bc0
000001e0: 2ce3 bfc0 145b 8ec0 de0b 2741 5746 6a41
000001f0: 6285 49c0 0b3c 9fc0 97ef a9c0 7922 e1c0
00000200: 5fde 82c0 27b8 a13f 6742 3441 1d40 13c0
00000210: 548f d141 02ab e2c0 49b5 b9c0 1937 2e41
00000220: e1ca 4740 c92c a5c0 eb05 1a42 bdf9 a140
00000230: 25a1 db41 d7ce f041 6f2b 48c0 0b3c 9fc0
00000240: d55f c5c0 ee6e babe 2eb5 dc40 35ce 0a41
00000250: ebe0 abbf 3c50 cbc0 2f21 9840 aa71 3a3f
00000260: 3561 00c1 f830 56c0 c8cd d5bf 2cc4 a3bf
00000270: 5742 61c0 01c1 0641 44a5 c8c0 c7a5 c2c0
00000280: ac58 c040 0815 8d40 8475 cfc0 834a b2c0
00000290: 2a6e 44c0 44ce 9ebf 7c9c 39c1 01c1 0641
000002a0: 5623 3f3f 0791 5340 fd93 1741 5746 6a41
000002b0: d842 eac0 7c74 28c1 28bb b23f 1937 2e41
000002c0: 8d42 b5c0 145b 8ec0 de0b 2741 64fe 0ec1
000002d0: 7126 e9bf 738d 25c1 2324 2a41 30a4 d9c0
000002e0: a17e 83c0 ef54 4a40 84e4 64c0 8fb3 47c1
000002f0: e3cb c13f 211d 0b41 d9b7 a4c0 a932 d53f
00000300: b969 ab40 76a2 0ec0 e17a ac41 5b11 3ec1
00000310: 5101 9440 1d81 93c1 334a 22be e713 7240
00000320: 9a76 6bc0 5b64 89bf 016b 26c1 1dbc 6fc1
00000330: 5c0c 8ec0 b7a6 95c1 5520 aa40 1dbc 6fc1
00000340: 1dbc 6fc1 67f3 0ec0 7ab7 8bc0 1a15 32c1
00000350: c2d4 eebe 9674 e6c0 96b7 a940 45c8 26c0
00000360: c637 8040 a853 2c40 4e7a bb3b 2662 2440
00000370: 8fba 2b41 94d9 66c0 381d 843c 100d 923f
00000380: f235 1a40 c610 8fc0 ccbf 9b40 d795 09bf
00000390: 31c5 5140 a9a7 b43f 707d d140 9242 443e
000003a0: 673e 00be 39bc 95c0 29fc c5bf e67b 87c1
000003b0: 4ac0 14c1 1ea6 9b40 3d17 a640 2911 eac0
000003c0: 1562 b4c0 becc b43f a595 4b40 83e7 2cc0
000003d0: 5af3 a1c0 968c 17c1 7316 edbf 4f20 0c41
000003e0: d527 0e41 8f19 ce40 9f07 9cc0 4fb8 8440
000003f0: c723 7540 e89b bfbe deab 14c0 b3a1 67bf
2.899988 -2.9322486 -6.4779687 -9.256063 4.956662 -17.997137 -3.3532145 -7.2548714
-3.72775 -4.0642805 5.1985326 -7.3448963 -13.385055 -13.759094 -6.338677 -4.334464
4.828831 -13.759094 -13.759094 -4.9947953 -6.731706 -8.727435 -0.3389573 4.6842184
1.9333878 -0.38880485 -1.5004635 -0.9629162 5.765755 10.8659115 -0.14889272 -1.04055
-5.045791 -0.96093136 5.735361 3.9842799 -1.7400864 6.500542 3.1897843 -5.310497
-6.37965 -5.8033795 -5.161717 5.267161 -0.1799366 8.037303 7.730386 -2.2204263
-3.1990285 2.7117312 0.6421819 -7.5183806 3.167885 -1.2406697 22.145546 4.422941
-4.7059293 -3.6758966 -4.8280873 -10.395991 -6.9187903 -2.9299471 -3.4713235 1.9242606
-0.6799448 -5.1604404 -1.5576718 3.6201124 -0.27980396 0.15846975 -4.3207364 4.566622
-2.966038 1.9911739 -9.876981 4.9566617 0.5202945 -2.3340979 2.3188581 -6.1074886
0.75244683 10.440397 -8.16529 -12.792472 15.045776 28.687046 -2.557935 -2.557935
9.356946 -4.348711 -3.9713943 -6.392119 -6.270174 -3.127651 -6.3959208 36.044178
31.58395 -3.5764475 -1.1641008 6.2905927 -11.369902 -7.69571 -5.418577 -4.978322
-1.9751977 3.5182748 -6.505289 0.7122713 -4.9947953 5.1985326 2.7603421 -10.528439
2.7603421 4.9566617 2.1972156 -15.394556 -0.21984118 23.730871 -6.7220287 -4.36425
-5.996481 -4.448618 10.440397 14.642173 -3.148766 -4.9760795 -5.310497 -7.035458
-4.089645 1.2634324 11.2662115 -2.3007882 26.194984 -7.083375 -5.8033795 10.888452
3.1217577 -5.161717 38.50578 5.0617356 27.453684 30.100996 -3.127651 -4.9760795
-6.1679482 -0.36412758 6.8971167 8.6753435 -1.3428015 -6.353544 4.7540507 0.7282969
-8.023732 -3.3467388 -1.6703424 -1.2794242 -3.519674 8.42212 -6.270174 -6.0827365
6.010824 4.4088173 -6.483095 -5.5715957 -3.0692239 -1.2406697 -11.600704 8.42212
0.74663293 3.3057268 9.47363 14.642173 -7.3206596 -10.528439 1.3963366 10.888452
-5.664374 -4.448618 10.440397 -8.937107 -1.8214856 -10.3470335 10.633822 -6.8012924
-4.1092076 3.161434 -3.5764475 -12.481338 1.5140346 8.694612 -5.1474423 1.6656085
5.3566556 -2.2286658 21.56 -11.879237 4.6251607 -18.438044 -0.15848617 3.7824647
-3.6791139 -1.0733751 -10.401124 -14.983426 -4.4390087 -18.706404 5.316447 -14.983426
-14.983426 -2.233606 -4.366147 -11.130152 -0.46646696 -7.2017317 5.3036604 -2.6059735
4.0068083 2.692606 0.005721367 2.5684905 10.733047 -3.60703 0.016127214 1.1410236
2.4095426 -4.4707975 4.8671627 -0.5374426 3.2776606 1.4113666 6.546562 0.1916602
-0.12523805 -4.6792264 -1.5467578 -16.935497 -9.296946 4.864028 5.1903367 -7.3145947
-5.636973 1.4124982 3.1810086 -2.7016304 -5.060956 -9.471823 -1.8522476 8.757888
8.884725 6.44062 -4.8759303 4.1474986 3.8303087 -0.37423635 -2.32299 -0.9048111
