6esmPCA/layer3_pca50.npy (npy, 38128 bytes, 1 tensors)

array (column-major) f4 [190, 50]
000000 d7 fa 14 40 99 08 a6 c0 d2 ef e9 c0 7d 19 f5 3f
       2.32781 -5.1885495 -7.310525 1.9148403
000010 ee c1 16 41 58 11 65 3f 4c 1b ed c0 f9 37 69 40
       9.422346 0.8947959 -7.409582 3.6440413
000020 dc 75 92 c0 97 37 6c c0 4e 21 93 3e 0e eb 46 c0
       -4.576887 -3.690893 0.28736347 -3.1080966
000030 13 25 1a c0 0e 06 ee bf 46 44 c4 bf 4e b2 db 40
       -2.4085128 -1.8595598 -1.5333335 6.8655157
000040 6e dd 48 40 0e 06 ee bf 0e 06 ee bf e2 e1 b0 3f
       3.138515 -1.8595598 -1.8595598 1.3818934
000050 6c 7e 61 c0 42 aa ee 3e c9 2b 58 c0 ac eb e4 40
       -3.5233412 0.4661427 -3.3776724 7.1537685
000060 48 15 96 bf 39 88 7d 40 21 f1 e3 c0 7d d8 f8 bf
       -1.1725245 3.9614394 -7.1231847 -1.9441067
000070 1d d3 8b 40 f8 cd ab 40 1a 2a c5 c0 8d 6e 1a 3f
       4.3695207 5.3688927 -6.1613894 0.6032494
000080 54 50 57 c0 a9 db 14 3e 46 db 20 bf 0e e1 28 40
       -3.3642778 0.14536919 -0.62834585 2.6387362
000090 26 d1 7c c0 53 a6 3d 40 ba 84 0e 3f 21 d0 cc c0
       -3.9502654 2.9632766 0.55671275 -6.4004064
0000a0 5c 1b 13 c1 04 ca 6e c0 1f 31 c0 c0 ad 2d 74 40
       -9.19418 -3.73108 -6.005996 3.8152878
0000b0 21 ac d3 3f ca 3c 41 41 e1 00 e2 40 5a c1 c2 c0
       1.6536905 12.077341 7.0626073 -6.0861025
0000c0 1c 76 10 c0 b7 a5 94 3f 21 59 df bf d1 48 b1 c0
       -2.2572088 1.1613072 -1.7449075 -5.5401387
0000d0 db 77 19 3f 59 d5 14 c0 d9 81 58 41 4a 71 0e 41
       0.5994851 -2.3255217 13.531701 8.902658
0000e0 0d 4a be bf 59 30 d4 bf d4 6e 81 be 66 7f 39 bf
       -1.4866349 -1.6577255 -0.25279868 -0.7246002
0000f0 a8 58 b9 c0 82 13 36 bf a1 ba 81 c0 5c 4e ac bf
       -5.7920723 -0.71123517 -4.054032 -1.3461413
000100 93 af 46 be 47 af 95 c0 48 1b 04 c0 34 46 56 40
       -0.19402914 -4.677646 -2.064165 3.3480349
000110 40 30 52 c0 93 4d ee 3f 3a f2 4a c0 3f c2 a9 40
       -3.284195 1.8617424 -3.1710343 5.3049617
000120 d1 05 06 c0 b9 e3 32 be 33 d7 52 3e ed c1 16 41
       -2.094105 -0.17469682 0.20589904 9.422345
000130 cb 1b 34 c0 a4 39 36 3f ec d0 d7 3f ad ff 19 bc
       -2.8141963 0.711817 1.6860633 -0.009399337
000140 76 df ac 3d e3 f3 e4 3e 19 50 9e c0 3a 2a 2d 3f
       0.08441059 0.4471732 -4.9472775 0.6764256
000150 91 20 b2 41 42 1b eb 41 59 40 05 c1 59 40 05 c1
       22.265902 29.38831 -8.32821 -8.32821
000160 6e 10 1d 41 cc 4b 53 c0 28 ba b2 c0 3a 68 f9 c0
       9.816511 -3.3015013 -5.585224 -7.793973
000170 0f 24 27 c1 1b 30 0b c0 a1 30 8b c0 7a cc 0a 42
       -10.446303 -2.1748111 -4.349686 34.699684
000180 5e 35 eb 41 a3 8c 20 3d 58 06 8c c0 37 3f 9c 40
       29.401058 0.03919662 -4.3757744 4.8827167
000190 ce 3f 8b c0 f4 30 35 c0 cc ac ed bf 94 e0 89 c0
       -4.3515387 -2.8311129 -1.8568358 -4.3086643
0001a0 71 7b 9e c0 62 8c a8 bf 41 d6 f7 c0 01 d1 6d c0
       -4.9525685 -1.3167841 -7.744904 -3.7158816
0001b0 e2 e1 b0 3f 4e 21 93 3e 04 24 68 bf 31 74 a8 c0
       1.3818934 0.28736347 -0.90679955 -5.2641835
0001c0 04 24 68 bf ed c1 16 41 00 61 43 c0 2f cf e8 40
       -0.90679955 9.422345 -3.0527954 7.275291
0001d0 fa 08 90 c0 5b 74 89 41 9e 31 d4 c0 68 a3 00 c1
       -4.501096 17.181814 -6.631057 -8.039894
0001e0 93 41 5b c0 5e 70 b9 c0 e3 f3 e4 3e c2 51 36 41
       -3.4258773 -5.7949667 0.4471732 11.39496
0001f0 30 97 93 c0 86 40 7f c0 21 d0 cc c0 9b f1 e0 c0
       -4.6122055 -3.9883132 -6.4004064 -7.029493
000200 bb 73 f5 c0 47 5c 24 40 10 ef 5b 41 49 52 28 c1
       -7.6703773 2.5681322 13.745865 -10.520089
000210 eb a3 d4 41 da 15 4c c0 04 ca 6e c0 43 1d 41 40
       26.580038 -3.1888337 -3.73108 3.017411
000220 2c 94 9b c0 1f 31 c0 c0 e4 2a 0e 42 ce ee 13 3e
       -4.8618374 -6.005996 35.541885 0.14446566
000230 cf 3a bf 41 6d b6 fd 41 1b 30 0b c0 86 40 7f c0
       23.903715 31.714075 -2.1748111 -3.9883132
000240 03 d7 da bf 6e 5a a3 c0 5a fc f4 3f a3 f5 a5 bf
       -1.7096866 -5.104789 1.9139512 -1.2965587
000250 06 98 9a c0 86 19 91 c0 3c 8e 9d 40 c9 23 c8 bf
       -4.8310575 -4.5343657 4.9236126 -1.5635921
000260 71 9f a3 3f 51 16 98 c0 89 14 62 c0 dc ea 95 c0
       1.2783033 -4.752724 -3.5325034 -4.6849194
000270 d7 f3 62 c0 36 50 30 40 0f 24 27 c1 f7 fb e4 c0
       -3.5461328 2.7548957 -10.446303 -7.1557574
000280 bc 16 b2 3f f4 eb 91 bf 26 e7 c6 c0 a3 bb 9d c0
       1.3913188 -1.1400132 -6.2157164 -4.929155
000290 79 2f 72 c0 59 d5 14 c0 a0 64 87 c0 36 50 30 40
       -3.7841475 -2.3255217 -4.2310333 2.7548957
0002a0 cb cd 98 40 7e f4 cb 3b 9d 08 5b 40 c2 51 36 41
       4.775121 0.006224214 3.4224007 11.39496
0002b0 95 e8 49 c0 31 74 a8 c0 a0 38 89 c0 43 1d 41 40
       -3.1548207 -5.2641835 -4.288162 3.017411
0002c0 ca f3 0b c1 5e 70 b9 c0 e3 f3 e4 3e 53 7f 99 c0
       -8.747019 -5.7949667 0.4471732 -4.7967925
0002d0 69 b7 1a c1 5e 2c 29 c0 3c dc 1f 40 69 d5 ce c0
       -9.669778 -2.643333 2.497817 -6.463551
0002e0 37 da f7 c0 2e 29 a5 c0 a3 8c 20 3d db 83 23 c0
       -7.7453876 -5.161277 0.03919662 -2.5549228
0002f0 57 e3 bc bf 43 44 d6 3e 91 1b 58 c0 ae 4f c1 bf
       -1.4756879 0.41848955 -3.3766825 -1.5102441
000300 1a 2a e0 3f 26 c4 7e 40 fd 3d 9d 40 ea 16 7a c1
       1.7512848 3.980722 4.913817 -15.630594
000310 74 aa c8 be 51 60 bc c1 54 09 88 40 4d 52 43 3f
       -0.39192545 -23.54703 4.2511387 0.76297456
000320 b1 07 96 40 bb bd 5f 3d 40 84 a2 c1 b7 41 4b c1
       4.688439 0.0546243 -20.314575 -12.703544
000330 9a 9b c7 c0 26 fd cd 3f d4 1e 02 c0 b7 41 4b c1
       -6.2377443 1.609288 -2.0331316 -12.703544
000340 b7 41 4b c1 c1 4d 45 c0 67 8f 38 40 a8 5b 60 c0
       -12.703544 -3.0828707 2.8837526 -3.5055943
000350 67 3a e7 3f 38 3e 32 c0 b9 86 22 bf 48 93 6a 40
       1.8064698 -2.7850475 -0.6348682 3.6652393
000360 a2 7a 8a c0 56 ae 1d 40 9d b4 81 c0 92 6b cc 40
       -4.32747 2.4637656 -4.0532975 6.388131
000370 e7 0a b1 40 6f 29 b4 40 ac 51 c1 3f e6 b2 d4 40
       5.532581 5.630058 1.5103049 6.646838
000380 04 68 a0 40 7f 7e 3e bf 67 f2 82 40 b3 9e b8 40
       5.012697 -0.7441177 4.09209 5.7693725
000390 6a 59 c5 bf 23 5e 75 3f 74 62 47 40 96 fc b2 40
       -1.5417912 0.95846766 3.115384 5.5933332
0003a0 ca 20 23 c0 61 c1 4f c0 4e 88 5c 3e 1f 38 51 c1
       -2.5488763 -3.246178 0.21536371 -13.076201
0003b0 04 02 c5 c0 80 d9 5a be a7 7d af 40 dc 43 d7 c0
       -6.156496 -0.21372032 5.4840884 -6.7270336
0003c0 4b 74 08 c0 e2 87 52 40 c8 3f e2 bf 8a 57 66 40
       -2.132098 3.2895436 -1.7675714 3.599093
0003d0 a8 ce f3 bf 31 ac 95 c0 fa 0b 47 3e 2b 0a d0 3f
       -1.9047441 -4.6772695 0.19438162 1.6253103
0003e0 69 9b 1a 40 02 93 21 41 c7 2d 42 c0 a3 4e 87 40
       2.4157355 10.098391 -3.034044 4.228349
0003f0 e1 67 1e 40 d9 1e 66 40 b4 ea 05 3f f4 5d 6b 3f
       2.4750903 3.5956328 0.52311254 0.91940236
