6esmPCA/layer4_pca100.npy (npy, 76128 bytes, 1 tensors)

array (column-major) f4 [190, 100]
00000000: 3845 14c1 a52c 3ac1 5eb0 8540 4e06 9f3f
00000010: 2d61 2ac0 de4b 25c1 2098 7740 bc6b e0c1
00000020: 1f34 c740 eb1a 8340 012f 1f40 7b61 8140
00000030: 7dab 51c1 eb59 3cc1 a4ee 01c1 3b4e 5e40
00000040: bed9 acc0 eb59 3cc1 eb59 3cc1 9e62 1dc0
00000050: d29a 4d40 09f0 fdbf aa57 4b40 2350 1ec0
00000060: 64a6 cd3e ef30 2e40 8d7c ce3f 45a0 903f
00000070: 038f 80bf 124a 3e40 a13a a040 1bf4 a140
00000080: 0d2d a440 2e5d 8a40 f0ec 6d40 3dc9 fdc0
00000090: 89b6 9b40 a067 8f40 198c b4bf e263 5740
000000a0: b22c ac40 bb67 dc40 86d6 4ebe 8c21 0cc1
000000b0: 51f4 8b40 337a c9c0 be9c 91bf a02d 5740
000000c0: 6afd 9440 8727 51c0 3253 10c0 5e36 9940
000000d0: cee9 0fc0 3fdd bb40 db96 37c0 5891 c6c0
000000e0: 6a07 5940 90e7 9840 e9c1 2040 a3aa 2341
000000f0: e52c 4a40 8f01 4c40 9a77 5d40 d84d 5640
00000100: caf0 d33f 76fd ca3f 6bc2 8540 7728 3440
00000110: 5b11 a340 ed1b 6440 7b5b 9440 9297 83bf
00000120: 8027 9040 d123 9a40 1672 2b40 3461 2ac0
00000130: 2f4e e040 918b 033f 976c 9840 3ff2 92bd
00000140: 0f4f 1140 2340 61bf abad 8c40 551b e23f
00000150: 8bdd 1540 34d2 60bf 01ee f5c0 01ee f5c0
00000160: dcb4 2fbf aaba 5b40 c91d bf3f af35 c640
00000170: a890 9a40 44c2 be3f bab1 6840 9055 09c1
00000180: 03b6 9bc0 2a86 883f adde 39bf a2b9 60be
00000190: 860d d33d 2eab 5240 035e 9940 65fd e43f
000001a0: fe8f 8d40 1982 e2c1 bd42 9840 3c95 9740
000001b0: 9e62 1dc0 012f 1f40 b9fb a440 de52 f33f
000001c0: b9fb a440 3461 2ac0 1e5c 8040 0a34 0ec2
000001d0: 38c4 3640 ebb6 97c0 82ac 8d40 f56a 9e40
000001e0: 1b8a 3740 2d2d 8f40 2340 61bf 2522 26c0
000001f0: c131 9c40 6a8f b840 e263 5740 01b0 8f40
00000200: 1361 9d40 b1d5 cbc0 1dea 1940 89e5 9440
00000210: 1eb5 1cbe 389d 8240 bb67 dc40 b2cb a73f
00000220: a388 1cc2 86d6 4ebe 749a b3c0 8b50 9fbe
00000230: 1d28 153f f2d9 11c0 44c2 be3f 6a8f b840
00000240: ff1b 5440 0a50 6e40 8c0c d3c0 9f08 5d3f
00000250: 2468 7c40 f470 2d40 95d3 8fbf 5e27 d140
00000260: b54d bac0 afc2 aa40 3d44 3bc0 1120 ba40
00000270: 38bd 22c1 6ded 9b40 a890 9a40 c54d a440
00000280: 3e48 cdc0 f545 c840 900a 7640 ad3b 5a40
00000290: 530e 84bf 3fdd bb40 c930 bc40 6ded 9b40
000002a0: 166e a0c0 6062 1f40 0c23 2fc0 2522 26c0
000002b0: 0622 7340 de52 f33f de64 8f40 b2cb a73f
000002c0: 6c9a 8abe 2d2d 8f40 2340 61bf ee4e ba40
000002d0: 5b55 9440 ceba e2bf 9837 6ac1 6828 8540
000002e0: 4208 9c40 f3d4 1fc2 2a86 883f 475e 55c1
000002f0: 5b9a 1840 3d23 adc0 ae27 b9bf 5032 b7c0
00000300: 1f89 c5c0 a066 5340 e3ff 0241 833c 13c0
00000310: 9854 a5c0 e31d bdbf ec91 28c0 576d 08c0
00000320: 70fe c7bf 4faa 22bf 4b7f 3fc0 72dd 09c0
00000330: 3a76 13c0 2cb2 d740 eaf0 7e3f 72dd 09c0
00000340: 72dd 09c0 3836 4f40 1072 a4bf c425 b7bf
00000350: 1e39 02c0 01b7 f540 8d9e babd 55a2 b240
00000360: 042b a0c0 9d5d 68c0 b72c 9d40 aaa8 9f40
00000370: 083e 9dc0 47d5 4d40 30cd ddbf b483 8bbf
00000380: 8216 d4bf 68cf c5bf 567a 94c0 027f 0b40
00000390: 01f2 c03e e93b 98c0 37bb 06c1 aab8 55bf
000003a0: dc9c 63c0 cd4a c6be c5ea 2440 d9f3 0341
000003b0: 04ef af40 f0cd 8fc0 1004 02bf 1df1 da3f
000003c0: 3b7e 6ebf 4b00 18c0 1ed4 3e3e 9ca5 97bd
000003d0: dc7a 2c41 2ec1 fb40 9e93 d33e 133e 3bbf
000003e0: c092 3ebf 05ac a140 8b34 43c0 ba5a 56c0
000003f0: a0e0 04c0 783f c3bf 0b14 cc3f 8ecd 74c0
-9.266899 -11.6359 4.177779 1.2423799 -2.6621811 -10.331022 3.86866 -28.052605
6.2251124 4.097036 2.487244 4.0431495 -13.104367 -11.771953 -8.120762 3.4735248
-5.40158 -11.771953 -11.771953 -2.459144 3.2125745 -1.9838878 3.1772256 -2.4736412
0.40166008 2.7217367 1.613176 1.129891 -1.0043644 2.973271 5.007157 5.061048
5.1304994 4.3238745 3.7175865 -7.930815 4.866032 4.4813995 -1.4105254 3.3654714
5.380456 6.8876624 -0.20199022 -8.75819 4.373574 -6.296167 -1.1375959 3.3621597
4.6559343 -3.2680376 -2.2550778 4.7878866 -2.2486453 5.8707576 -2.8685825 -6.205242
3.3910775 4.778267 2.5118353 10.229159 3.1589901 3.1875951 3.460425 3.3485012
1.6557858 1.58586 4.1799827 2.8149698 5.0958686 3.5642045 4.636167 -1.028063
4.504822 4.816872 2.6788383 -2.6621828 7.009544 0.51384836 4.7632556 -0.07175111
2.2704504 -0.8798849 4.3961997 1.7664591 2.341647 -0.87820745 -7.685303 -7.685303
-0.68635345 3.433268 1.4930965 6.194053 4.830158 1.4903035 3.6358476 -8.583389
-4.865968 1.0665944 -0.726054 -0.21945813 0.10305314 3.291698 4.792726 1.788983
4.423827 -28.313524 4.758147 4.736967 -2.459144 2.487244 5.155728 1.9009664
5.155728 -2.6621828 4.011245 -35.55082 2.8557262 -4.741079 4.427308 4.9505563
2.8678043 4.4742646 -0.8798849 -2.595834 4.8810735 5.7675066 3.3654714 4.490235
4.9181 -6.3698354 2.4049141 4.6530194 -0.15303466 4.0816917 6.8876624 1.3109038
-39.133434 -0.20199022 -5.612604 -0.31116137 0.58264333 -2.2789273 1.4903035 5.7675066
3.3142087 3.7236352 -6.5952816 0.8634128 3.9438562 2.710019 -1.1236445 6.5360556
-5.8219857 5.336265 -2.92604 5.8164144 -10.171196 4.8727326 4.830158 5.1344934
-6.4150686 6.2585397 3.8443947 3.4098923 -1.0316871 5.8707576 5.880955 4.8727326
-5.013438 2.4903793 -2.736514 -2.595834 3.7989516 1.9009664 4.481063 1.3109038
-0.2707094 4.4742646 -0.8798849 5.822135 4.6354194 -1.7713258 -14.638573 4.1611824
4.876008 -39.95796 1.0665944 -13.335517 2.384421 -5.4105515 -1.4465234 -5.7248917
-6.1729884 3.3031387 8.187472 -2.3005683 -5.1665764 -1.4774746 -2.6339064 -2.1316736
-1.5624523 -0.6354112 -2.9921443 -2.154141 -2.304091 6.7404995 0.99586356 -2.154141
-2.154141 3.2376842 -1.2847309 -1.43084 -2.0347362 7.6785893 -0.091122724 5.582316
-5.005251 -3.6307137 4.9117084 4.989339 -4.913822 3.2161424 -1.7328243 -1.0899568
-1.6569369 -1.545392 -4.6399336 2.179627 0.37684634 -4.7573133 -8.420707 -0.834849
-3.556449 -0.38728943 2.5768292 8.247033 5.4979267 -4.493889 -0.5078745 1.7104832
-0.9316136 -2.375018 0.18635604 -0.07404634 10.779995 7.8673315 0.4132356 -0.7314159
-0.7444267 5.0522485 -3.050082 -3.3492875 -2.07621 -1.5253744 1.5943617 -3.825046
