12esmPCA/layer5_pca50.npy (npy, 76128 bytes, 1 tensors)

array (column-major) f8 [190, 50]
00000000: 0000 00e0 98f5 09c0 0000 0060 5308 0a40
00000010: 0000 0080 00f6 2140 0000 0020 d70a 04c0
00000020: 0000 00e0 ff3f 26c0 0000 0080 d0d0 10c0
00000030: 0000 0060 ed8a 1840 0000 0080 54de 20c0
00000040: 0000 0000 0f61 1d40 0000 00e0 3f47 0440
00000050: 0000 0000 9827 0840 0000 0060 a335 0940
00000060: 0000 00e0 d258 17c0 0000 00a0 93c7 12c0
00000070: 0000 00e0 efb2 fdbf 0000 0000 ba20 22c0
00000080: 0000 00c0 65da 12c0 0000 0080 93c7 12c0
00000090: 0000 0080 93c7 12c0 0000 00a0 e086 1ec0
000000a0: 0000 0040 ab27 1040 0000 0060 f2e6 ffbf
000000b0: 0000 0040 1e6d 0140 0000 00e0 70ce 21c0
000000c0: 0000 0060 8ef8 01c0 0000 0060 19ee 06c0
000000d0: 0000 00a0 7894 fa3f 0000 0040 9d5e 1240
000000e0: 0000 0080 8c29 19c0 0000 00a0 6964 1bc0
000000f0: 0000 0000 10c1 2340 0000 0040 aa63 d5bf
00000100: 0000 00c0 ace3 0540 0000 00a0 0165 1840
00000110: 0000 0020 f8b7 0e40 0000 0000 d5c7 09c0
00000120: 0000 0060 ac15 2040 0000 0000 bbd6 f0bf
00000130: 0000 00c0 7996 00c0 0000 0060 f3ba 1d40
00000140: 0000 00a0 da02 2840 0000 00c0 9dfc 1b40
00000150: 0000 0080 7976 0440 0000 00c0 8777 17c0
00000160: 0000 00a0 93fa 04c0 0000 0060 d72c 2dc0
00000170: 0000 0000 64f0 22c0 0000 00e0 6505 1340
00000180: 0000 0080 e680 1840 0000 00a0 dc7d 19c0
00000190: 0000 00a0 89c6 0040 0000 00c0 92f1 1340
000001a0: 0000 0060 deca 00c0 0000 0040 102c f03f
000001b0: 0000 0060 bc19 31c0 0000 00a0 9e2b 26c0
000001c0: 0000 0000 9fb7 0040 0000 0060 bf21 0f40
000001d0: 0000 00a0 e43a 0340 0000 00e0 b7bb 0f40
000001e0: 0000 00c0 111e 0a40 0000 0080 eb90 1a40
000001f0: 0000 00e0 7169 1340 0000 0000 5d6b 0840
00000200: 0000 0080 c7c7 00c0 0000 0040 8f5f 1840
00000210: 0000 00a0 cc5e ee3f 0000 00c0 6940 10c0
00000220: 0000 0000 0987 1b40 0000 00c0 f6b6 11c0
00000230: 0000 0000 3ce3 1140 0000 0060 271c 1dc0
00000240: 0000 0000 2166 0440 0000 0040 76f5 02c0
00000250: 0000 0020 f586 11c0 0000 00e0 ff3f 26c0
00000260: 0000 00a0 f741 1440 0000 0000 ee46 04c0
00000270: 0000 00a0 10c9 0bc0 0000 00a0 bc43 06c0
00000280: 0000 0040 7af7 f9bf 0000 0060 9f06 0a40
00000290: 0000 0080 f635 1740 0000 0040 1b19 0140
000002a0: 0000 0040 513f 34c0 0000 00c0 5969 36c0
000002b0: 0000 00e0 e93c 1d40 0000 00a0 e93c 1d40
000002c0: 0000 00c0 4eab 2cc0 0000 0000 df21 0c40
000002d0: 0000 0080 af38 1740 0000 0000 c153 2440
000002e0: 0000 0020 c3b3 2740 0000 0060 045b f33f
000002f0: 0000 00a0 ddfd 1740 0000 0080 290a 3dc0
00000300: 0000 0060 09d6 39c0 0000 0080 4a86 f23f
00000310: 0000 00e0 0e0b 0540 0000 0040 d3c9 1dc0
00000320: 0000 0060 2357 c13f 0000 0040 d7d8 0d40
00000330: 0000 0080 0e8d f83f 0000 00a0 79dc 0a40
00000340: 0000 00c0 5436 2140 0000 0000 e8d6 10c0
00000350: 0000 00e0 b6aa 2740 0000 00a0 3258 2140
00000360: 0000 0080 e086 1ec0 0000 00e0 9827 0840
00000370: 0000 0000 8dda f03f 0000 0040 2fe5 0440
00000380: 0000 0060 8dda f03f 0000 00e0 ff3f 26c0
00000390: 0000 0040 e4a5 1740 0000 0080 5bd4 27c0
000003a0: 0000 0040 2e8c 1840 0000 00c0 a254 32c0
000003b0: 0000 0040 abdf 1e40 0000 0040 7627 2840
000003c0: 0000 00c0 f4b3 0e40 0000 00c0 50ec 2640
000003d0: 0000 0060 9f06 0a40 0000 00c0 7d56 28c0
000003e0: 0000 0020 cce5 1340 0000 00a0 a8e2 1040
000003f0: 0000 0040 f3ba 1d40 0000 0080 96f8 2040
00000400: 0000 0080 28e5 2240 0000 0020 e793 1bc0
00000410: 0000 0040 c55e 18c0 0000 0020 b9ff 2740
00000420: 0000 0080 1e4b 38c0 0000 0040 fccb 0a40
00000430: 0000 00c0 9dfc 1b40 0000 00e0 d0b5 10c0
00000440: 0000 0020 f1a4 f13f 0000 0040 7976 0440
00000450: 0000 0040 f080 40c0 0000 00e0 b189 f03f
00000460: 0000 00a0 af4f 37c0 0000 0080 79d3 39c0
00000470: 0000 0060 045b f33f 0000 00a0 a8e2 1040
00000480: 0000 0060 f7d9 0340 0000 0000 eaf5 0e40
00000490: 0000 0040 f8e6 12c0 0000 0020 ce27 f03f
000004a0: 0000 00e0 3171 1140 0000 0040 4b5a 0640
000004b0: 0000 0020 e0c4 1ac0 0000 0060 9e33 1140
000004c0: 0000 0060 fdad 19c0 0000 0080 3038 2640
000004d0: 0000 00c0 a500 f13f 0000 0000 0e62 2340
000004e0: 0000 00a0 80b5 0b40 0000 00c0 f1fc f23f
000004f0: 0000 0020 c3b3 2740 0000 0060 173d 2040
00000500: 0000 00a0 2277 0bc0 0000 0000 5b9d 1a40
00000510: 0000 0060 ada6 2040 0000 0040 2f82 2140
00000520: 0000 0040 0d7f 1f40 0000 0040 102c f03f
00000530: 0000 00e0 4604 2240 0000 0000 f2fc f23f
00000540: 0000 0060 3335 22c0 0000 00e0 21aa 1140
00000550: 0000 0040 7606 22c0 0000 00c0 7d56 28c0
00000560: 0000 0000 1144 0a40 0000 00e0 2ee5 0440
00000570: 0000 00a0 13e5 1f40 0000 00e0 d0b5 10c0
00000580: 0000 0040 d9a4 2340 0000 00c0 50ec 2640
00000590: 0000 0060 9f06 0a40 0000 00a0 83ff fc3f
000005a0: 0000 00e0 d4ed 2640 0000 0040 e02b 0340
000005b0: 0000 0080 1a2d 16c0 0000 00c0 e207 1d40
000005c0: 0000 0000 63ef 2240 0000 0080 0980 f33f
000005d0: 0000 0080 4a86 f23f 0000 0040 dc5e 03c0
000005e0: 0000 0060 c2cb 0340 0000 00a0 9169 14c0
000005f0: 0000 0000 02c5 1440 0000 00a0 6bde 0bc0
00000600: 0000 00a0 cbfe f13f 0000 0020 e4fd e1bf
00000610: 0000 00c0 74ce 1e40 0000 0040 96cb 2fc0
00000620: 0000 00a0 0c4f 1bc0 0000 0000 1793 26c0
00000630: 0000 0020 5800 ff3f 0000 0040 a4ad 1cc0
00000640: 0000 0060 0ba9 2340 0000 00c0 1445 24c0
00000650: 0000 00e0 5ba0 30c0 0000 0000 7961 2ac0
00000660: 0000 00c0 349c 1fc0 0000 00e0 b9a4 fc3f
00000670: 0000 00a0 a18e f6bf 0000 0000 7961 2ac0
00000680: 0000 0000 7961 2ac0 0000 0000 3548 f7bf
00000690: 0000 00a0 ca02 ee3f 0000 0020 bfb7 11c0
000006a0: 0000 00a0 c445 d9bf 0000 0080 e6f4 e03f
000006b0: 0000 00e0 c993 15c0 0000 00a0 37ef 0440
000006c0: 0000 0080 29f0 29c0 0000 00a0 d369 0840
000006d0: 0000 00e0 9903 14c0 0000 00c0 3abd 2540
000006e0: 0000 0060 dbd0 1940 0000 00e0 dd9f 1840
000006f0: 0000 00e0 47fc 18c0 0000 0040 3fa3 2240
00000700: 0000 00c0 de65 1b40 0000 00a0 6928 1940
00000710: 0000 00a0 2b19 1a40 0000 00e0 8488 2540
00000720: 0000 0060 7f37 01c0 0000 00e0 3148 edbf
00000730: 0000 0020 09a3 1140 0000 0060 c03b 1840
00000740: 0000 00a0 ef7a 1ac0 0000 0060 77e4 1440
00000750: 0000 0080 9dbb e1bf 0000 0060 a0b3 1ac0
00000760: 0000 00c0 5d14 03c0 0000 00a0 1b82 19c0
00000770: 0000 0040 9f57 1540 0000 00a0 57f4 21c0
00000780: 0000 0020 3260 16c0 0000 0000 53db ac3f
00000790: 0000 00e0 db36 02c0 0000 0080 0899 0140
000007a0: 0000 0080 9c3e d63f 0000 0020 c01e de3f
000007b0: 0000 00e0 a398 0cc0 0000 0000 7f57 03c0
000007c0: 0000 00e0 d9f4 0d40 0000 0000 8b38 1f40
000007d0: 0000 0020 9f6b 25c0 0000 00c0 7d23 1740
000007e0: 0000 0060 9f7a 13c0 0000 00a0 b278 1440
000007f0: 0000 0040 b80a 0140 0000 0040 0449 00c0
-3.244920492172241 3.2540652751922607 8.980472564697266 -2.505293130874634 -11.124999046325684 -4.203920364379883 6.135671138763428 -8.43423843383789
7.344783782958984 2.534789800643921 3.0193328857421875 3.1511905193328857 -5.836741924285889 -4.694899082183838 -1.856185793876648 -9.063919067382812
-4.713278770446777 -4.69489860534668 -4.69489860534668 -7.631716251373291 4.038739204406738 -1.993883490562439 2.1782803535461426 -8.903204917907715
-2.2463653087615967 -2.8662593364715576 1.6612478494644165 4.5923967361450195 -6.29057502746582 -6.848059177398682 9.8770751953125 -0.33420807123184204
2.7361693382263184 6.098639011383057 3.8398287296295166 -3.222574234008789 8.042330741882324 -1.052424430847168 -2.073474407196045 7.4325690269470215
12.005574226379395 6.996695518493652 2.5578489303588867 -5.866728782653809 -2.622351884841919 -14.587580680847168 -9.469512939453125 4.7552714347839355
6.125879287719727 -6.3729119300842285 2.096942186355591 4.9859113693237305 -2.0990569591522217 1.0107576847076416 -17.10053062438965 -11.08519458770752
2.089658737182617 3.8914783000946045 2.4037563800811768 3.9666593074798584 3.2646822929382324 6.641523361206055 4.852973461151123 3.0524234771728516
-2.097548484802246 6.093319892883301 0.9490721821784973 -4.06290340423584 6.881870269775391 -4.428675651550293 4.4719085693359375 -7.277493953704834
2.549867630004883 -2.36985445022583 -4.381794452667236 -11.124999046325684 5.0644211769104 -2.5346336364746094 -3.4731762409210205 -2.7830746173858643
-1.6229193210601807 3.2532336711883545 5.802698135375977 2.137259006500244 -20.247333526611328 -22.41152572631836 7.309485912322998 7.309484958648682
-14.334585189819336 3.516538619995117 5.805356979370117 10.163581848144531 11.85109806060791 1.2097209692001343 5.997915744781494 -29.039695739746094
-25.83608055114746 1.1577858924865723 2.630399465560913 -7.447094917297363 0.13547174632549286 3.730879306793213 1.534437656402588 3.357653856277466
8.606115341186523 -4.209869384765625 11.833426475524902 8.672261238098145 -7.631715774536133 3.019334554672241 1.0533571243286133 2.6119065284729004
1.053357481956482 -11.124999046325684 5.912003517150879 -11.91476058959961 6.136895179748535 -18.330608367919922 7.718426704406738 12.07707405090332
3.837869167327881 11.461553573608398 3.2532336711883545 -12.168928146362305 4.974411487579346 4.221346378326416 7.432568550109863 8.485523223876953
9.447574615478516 -6.894436359405518 -6.0925493240356445 11.999459266662598 -24.293434143066406 3.349602222442627 6.996695518493652 -4.177554607391357
1.1027690172195435 2.5578484535217285 -33.00733184814453 1.0336169004440308 -23.3112735748291 -25.826072692871094 1.2097209692001343 4.221346378326416
2.481428861618042 3.870075225830078 -4.725556373596191 1.0097180604934692 4.360541820526123 2.794088840484619 -6.692261219024658 4.300408840179443
-6.419911861419678 11.109745025634766 1.0626580715179443 9.691513061523438 3.4636242389678955 1.1867539882659912 11.85109806060791 8.119318962097168
-3.433171510696411 6.653667449951172 8.325541496276855 8.754266738891602 7.8740739822387695 1.0107576847076416 9.008353233337402 1.1867542266845703
-9.103907585144043 4.416144847869873 -9.01262092590332 -12.168928146362305 3.283235549926758 2.611905813217163 7.973707675933838 -4.177554607391357
9.821969985961914 11.461553573608398 3.2532336711883545 1.812381386756897 11.46451473236084 2.396423816680908 -5.544046401977539 7.2577009201049805
9.467552185058594 1.2187590599060059 1.1577858924865723 -2.421318531036377 2.474491834640503 -5.103094577789307 5.192390441894531 -3.4836037158966064
1.1247059106826782 -0.5622425675392151 7.701617240905762 -15.89763069152832 -6.8271965980529785 -11.287284851074219 1.9375840425491333 -7.169571876525879
9.830164909362793 -10.134923934936523 -16.626401901245117 -13.190376281738281 -7.902544975280762 1.790216326713562 -1.4098221063613892 -13.190376281738281
-13.190376281738281 -1.4551286697387695 0.9378407597541809 -4.429440021514893 -0.39488330483436584 0.5298950672149658 -5.394324779510498 2.6168053150177
-12.969066619873047 3.051673173904419 -5.003516674041748 10.869588851928711 6.4539618492126465 6.1561198234558105 -6.246367931365967 9.318841934204102
6.849482536315918 6.289465427398682 6.524580478668213 10.76663875579834 -2.1520984172821045 -0.9150628447532654 4.409214496612549 6.058351039886475
-6.620054721832275 5.223111629486084 -0.554152250289917 -6.675416469573975 -2.384944438934326 -6.377058506011963 5.335568428039551 -8.9772310256958
-5.5939412117004395 0.05636081099510193 -2.2767865657806396 2.199723243713379 0.3475714921951294 0.4706268608570099 -3.574531316757202 -2.417722702026367
3.744556188583374 7.805217742919922 -10.710198402404785 5.784659385681152 -4.869748592376709 5.117868900299072 2.1302342414855957 -2.0356526374816895
