12esmPCA/layer5_pca100.npy (npy, 76128 bytes, 1 tensors)

array (column-major) f4 [190, 100]
000000 c7 ac 4f c0 9b 42 50 40 04 b0 0f 41 b9 56 20 c0
       -3.2449205 3.2540653 8.980473 -2.5052931
000010 ff ff 31 c1 84 86 86 c0 6b 57 c4 40 a4 f2 06 c1
       -11.124999 -4.2039204 6.135671 -8.434238
000020 78 08 eb 40 ff 39 22 40 c0 3c 41 40 1b ad 49 40
       7.344784 2.5347898 3.019333 3.1511905
000030 97 c6 ba c0 9d 3c 96 c0 7f 97 ed bf d0 05 11 c1
       -5.836742 -4.694899 -1.8561858 -9.063919
000040 2e d3 96 c0 9c 3c 96 c0 9c 3c 96 c0 05 37 f4 c0
       -4.713279 -4.6948986 -4.6948986 -7.6317163
000050 5a 3d 81 40 93 37 ff bf f2 68 0b 40 87 73 0e c1
       4.038739 -1.9938835 2.1782804 -8.903205
000060 73 c4 0f c0 cb 70 37 c0 c5 a3 d4 3f ea f4 92 40
       -2.2463653 -2.8662593 1.6612478 4.5923967
000070 64 4c c9 c0 4d 23 db c0 80 08 1e 41 52 1d ab be
       -6.290575 -6.848059 9.877075 -0.33420807
000080 66 1d 2f 40 0d 28 c3 40 c1 bf 75 40 a8 3e 4e c0
       2.7361693 6.098639 3.8398287 -3.2225742
000090 63 ad 00 41 d8 b5 86 bf ce b3 04 c0 9b d7 ed 40
       8.042331 -1.0524244 -2.0734744 7.432569
0000a0 d5 16 40 41 ee e4 df 40 cc b3 23 40 3e bc bb c0
       12.005574 6.9966955 2.557849 -5.866729
0000b0 9d d4 27 c0 bb 66 69 c1 20 83 17 c1 2f 2b 98 40
       -2.622352 -14.587581 -9.469513 4.7552714
0000c0 34 07 c4 40 e5 ee cb c0 4d 34 06 40 96 8c 9f 40
       6.1258793 -6.372912 2.0969422 4.9859114
0000d0 f3 56 06 c0 82 60 81 3f e3 cd 88 c1 f5 5c 31 c1
       -2.099057 1.0107577 -17.10053 -11.085195
0000e0 f8 bc 05 40 fb 0d 79 40 25 d7 19 40 bf dd 7d 40
       2.0896587 3.8914783 2.4037564 3.9666593
0000f0 8e f0 50 40 5c 87 d4 40 8f 4b 9b 40 e8 5a 43 40
       3.2646823 6.6415234 4.8529735 3.0524235
000100 3c 3e 06 c0 7a fc c2 40 65 f6 72 3f 4e 03 82 c0
       -2.0975485 6.09332 0.9490722 -4.0629034
000110 48 38 dc 40 b6 b7 8d c0 e0 19 8f 40 3b e1 e8 c0
       6.8818703 -4.4286757 4.4719086 -7.277494
000120 08 31 23 40 b2 ab 17 c0 a9 37 8c c0 ff ff 31 c1
       2.5498676 -2.3698545 -4.3817945 -11.124999
000130 bd 0f a2 40 70 37 22 c0 85 48 5e c0 e5 1d 32 c0
       5.064421 -2.5346336 -3.4731762 -2.7830746
000140 d2 bb cf bf fb 34 50 40 b4 af b9 40 da c8 08 40
       -1.6229193 3.2532337 5.802698 2.137259
000150 8a fa a1 c1 ce 4a b3 c1 4f e7 e9 40 4d e7 e9 40
       -20.247334 -22.411526 7.309486 7.309485
000160 76 5a 65 c1 f8 0e 61 40 7c c5 b9 40 08 9e 22 41
       -14.334585 3.5165386 5.805357 10.163582
000170 19 9e 3d 41 23 d8 9a 3f ed ee bf 40 4c 51 e8 c1
       11.851098 1.209721 5.9979157 -29.039696
000180 4b b0 ce c1 54 32 94 3f 77 58 28 40 9a 4e ee c0
       -25.83608 1.1577859 2.6303995 -7.447095
000190 1b b9 0a 3e ba c6 6e 40 74 68 c4 3f cd e3 56 40
       0.13547175 3.7308793 1.5344377 3.3576539
0001a0 a6 b2 09 41 40 b7 86 c0 b7 55 3d 41 95 c1 0a 41
       8.606115 -4.2098694 11.833426 8.672261
0001b0 04 37 f4 c0 c7 3c 41 40 68 d4 86 3f 7a 29 27 40
       -7.631716 3.0193346 1.0533571 2.6119065
0001c0 6b d4 86 3f ff ff 31 c1 22 2f bd 40 dc a2 3e c1
       1.0533575 -11.124999 5.9120035 -11.914761
0001d0 72 61 c4 40 16 a5 92 c1 5a fd f6 40 b2 3b 41 41
       6.136895 -18.330608 7.7184267 12.077074
0001e0 a6 9f 75 40 86 62 37 41 fb 34 50 40 ee b3 42 c1
       3.8378692 11.461554 3.2532337 -12.168928
0001f0 61 2e 9f 40 45 15 87 40 9a d7 ed 40 b4 c4 07 41
       4.9744115 4.2213464 7.4325686 8.485523
000200 44 29 17 41 39 9f dc c0 2a f6 c2 c0 c9 fd 3f 41
       9.447575 -6.8944364 -6.0925493 11.999459
000210 f4 58 c2 c1 e2 5f 56 40 ee e4 df 40 87 ae 85 c0
       -24.293434 3.3496022 6.9966955 -4.1775546
000220 89 27 8d 3f ca b3 23 40 82 07 04 c2 8f 4d 84 3f
       1.102769 2.5578485 -33.00733 1.0336169
000230 7d 7d ba c1 cc 9b ce c1 23 d8 9a 3f 45 15 87 40
       -23.311274 -25.826073 1.209721 4.2213464
000240 bb cf 1e 40 50 af 77 40 c2 37 97 c0 71 3e 81 3f
       2.4814289 3.8700752 -4.7255564 1.0097181
000250 8f 89 8b 40 5a d2 32 40 01 27 d6 c0 f3 9c 89 40
       4.360542 2.7940888 -6.692261 4.300409
000260 eb 6f cd c0 84 c1 31 41 2e 05 88 3f 70 10 1b 41
       -6.419912 11.109745 1.0626581 9.691513
000270 05 ac 5d 40 8e e7 97 3f 19 9e 3d 41 bb e8 01 41
       3.4636242 1.186754 11.851098 8.119319
000280 15 b9 5b c0 d8 ea d4 40 6b 35 05 41 7a 11 0c 41
       -3.4331715 6.6536674 8.3255415 8.754267
000290 6a f8 fb 40 82 60 81 3f 37 22 10 41 90 e7 97 3f
       7.874074 1.0107577 9.008353 1.1867542
0002a0 9b a9 11 c1 0f 51 8d 40 b2 33 10 c1 ee b3 42 c1
       -9.103908 4.416145 -9.012621 -12.168928
0002b0 88 20 52 40 77 29 27 40 9d 28 ff 40 87 ae 85 c0
       3.2832355 2.6119058 7.9737077 -4.1775546
0002c0 ca 26 1d 41 86 62 37 41 fb 34 50 40 1d fc e7 3f
       9.82197 11.461554 3.2532337 1.8123814
0002d0 a7 6e 37 41 02 5f 19 40 d4 68 b1 c0 16 3f e8 40
       11.464515 2.3964238 -5.5440464 7.257701
0002e0 18 7b 17 41 4c 00 9c 3f 54 32 94 3f e2 f6 1a c0
       9.467552 1.2187591 1.1577859 -2.4213185
0002f0 13 5e 1e 40 8d 4c a3 c0 10 28 a6 40 5d f3 5e c0
       2.4744918 -5.1030946 5.1923904 -3.4836037
000300 5d f6 8f 3f 21 ef 0f bf a6 73 f6 40 b2 5c 7e c1
       1.1247059 -0.56224257 7.7016172 -15.897631
000310 65 78 da c0 b8 98 34 c1 c1 02 f8 3f 22 6d e5 c0
       -6.8271966 -11.287285 1.937584 -7.169572
000320 5b 48 1d 41 a6 28 22 c1 df 02 85 c1 c8 0b 53 c1
       9.830165 -10.134924 -16.626402 -13.190376
000330 a6 e1 fc c0 cf 25 e5 3f 0d 75 b4 bf c8 0b 53 c1
       -7.902545 1.7902163 -1.4098221 -13.190376
000340 c8 0b 53 c1 a8 41 ba bf 55 16 70 3f f9 bd 8d c0
       -13.190376 -1.4551287 0.93784076 -4.42944
000350 25 2e ca be 34 a7 07 3f 4f 9e ac c0 bd 79 27 40
       -0.3948833 0.52989507 -5.394325 2.6168053
000360 4c 81 4f c1 9d 4e 43 40 cf 1c a0 c0 d6 e9 2d 41
       -12.969067 3.0516732 -5.0035167 10.869589
000370 db 86 ce 40 ef fe c4 40 3f e2 c7 c0 fa 19 15 41
       6.453962 6.15612 -6.246368 9.318842
000380 f6 2e db 40 4d 43 c9 40 5d c9 d0 40 27 44 2c 41
       6.8494825 6.2894654 6.5245805 10.766639
000390 fb bb 09 c0 8f 41 6a bf 49 18 8d 40 03 de c1 40
       -2.1520984 -0.91506284 4.4092145 6.058351
0003a0 7d d7 d3 c0 bb 23 a7 40 ec dc 0d bf 03 9d d5 c0
       -6.6200547 5.2231116 -0.55415225 -6.6754165
0003b0 ee a2 18 c0 dd 10 cc c0 fa bc aa 40 bd a2 0f c1
       -2.3849444 -6.3770585 5.3355684 -8.977231
0003c0 91 01 b3 c0 98 da 66 3d df b6 11 c0 44 c8 0c 40
       -5.593941 0.05636081 -2.2767866 2.1997232
0003d0 e4 f4 b1 3e 01 f6 f0 3e 1f c5 64 c0 f8 bb 1a c0
       0.3475715 0.47062686 -3.5745313 -2.4177227
0003e0 cf a6 6f 40 58 c4 f9 40 f9 5c 2b c1 ee 1b b9 40
       3.7445562 7.8052177 -10.710198 5.7846594
0003f0 fb d4 9b c0 95 c5 a3 40 c2 55 08 40 22 48 02 c0
       -4.8697486 5.117869 2.1302342 -2.0356526
