12esmPCA/layer0_pca20.npy (npy, 30528 bytes, 1 tensors)

array (column-major) f8 [190, 20]
00000000: 0000 0060 702f 15c0 0000 0020 d987 0c40
00000010: 0000 0060 e77f 1e40 0000 0000 c926 2640
00000020: 0000 00a0 e714 d9bf 0000 00e0 e0ce 3140
00000030: 0000 00a0 b4a7 1040 0000 0080 aa0c 2240
00000040: 0000 0040 6601 1440 0000 00a0 dd17 1140
00000050: 0000 0060 aac9 1cc0 0000 00a0 eb2d 2040
00000060: 0000 00c0 bc00 2f40 0000 00a0 f45e 2f40
00000070: 0000 00e0 f2ba 1e40 0000 0000 60ed 1840
00000080: 0000 0060 a6d4 0dc0 0000 0040 f45e 2f40
00000090: 0000 0040 f45e 2f40 0000 0000 36d3 1e40
000000a0: 0000 00a0 d0c2 2040 0000 0020 c41d 2140
000000b0: 0000 0000 8d8c f03f 0000 0060 2b01 11c0
000000c0: 0000 0000 9e8e f8bf 0000 0000 4d38 f13f
000000d0: 0000 00e0 ae53 fb3f 0000 0020 bff7 ed3f
000000e0: 0000 0080 9142 1bc0 0000 0080 ed83 29c0
000000f0: 0000 0000 5fc8 f03f 0000 00e0 93b0 0140
00000100: 0000 0000 5608 1540 0000 0060 4bb6 c83f
00000110: 0000 00e0 c45e 1dc0 0000 0000 e2f8 1ac0
00000120: 0000 00e0 2653 0240 0000 00a0 b840 1dc0
00000130: 0000 0000 560d 02c0 0000 0020 527b 1840
00000140: 0000 0060 65de 1940 0000 00c0 d805 1e40
00000150: 0000 0020 f9f6 1e40 0000 00a0 dfa8 1fc0
00000160: 0000 0060 da82 ef3f 0000 00c0 3748 27c0
00000170: 0000 0060 cf78 24c0 0000 0000 6962 0240
00000180: 0000 0040 69cb 1340 0000 0060 4c69 0ac0
00000190: 0000 0000 699a f4bf 0000 0040 a0a7 2240
000001a0: 0000 0020 488c 01c0 0000 0040 bc91 fc3f
000001b0: 0000 0080 a147 3bc0 0000 0060 f2ab 10c0
000001c0: 0000 0060 eb1a 1440 0000 0020 06c6 1040
000001d0: 0000 0040 a3d7 1940 0000 0060 4226 2740
000001e0: 0000 0060 8dd7 1f40 0000 0060 c4c7 0040
000001f0: 0000 0000 a2ad 1040 0000 00e0 2d84 03c0
00000200: 0000 0020 b4e4 f83f 0000 00a0 61e2 1740
00000210: 0000 0040 92b8 ec3f 0000 0000 5129 05c0
00000220: 0000 00e0 cccb f03f 0000 0040 036e e53f
00000230: 0000 0040 3c53 1440 0000 00e0 f20b 0dc0
00000240: 0000 0080 6b90 0240 0000 0020 675d f7bf
00000250: 0000 0080 1e73 2c40 0000 00e0 ea14 d9bf
00000260: 0000 0020 078e da3f 0000 0040 21b4 0440
00000270: 0000 0080 f0b6 ffbf 0000 0080 4a92 1940
00000280: 0000 00a0 264a e8bf 0000 0020 bbe1 27c0
00000290: 0000 0080 36d3 2240 0000 0060 bf5e 2e40
000002a0: 0000 0020 83d2 33c0 0000 0000 39d3 41c0
000002b0: 0000 0040 427f 0440 0000 0040 427f 0440
000002c0: 0000 0040 df95 26c0 0000 00c0 bde4 1140
000002d0: 0000 0060 12dc 1140 0000 0020 dd72 2040
000002e0: 0000 00a0 5264 1d40 0000 0020 6c8c 0d40
000002f0: 0000 0000 475e 1b40 0000 00c0 aac6 46c0
00000300: 0000 0000 e227 43c0 0000 0080 4eb3 1140
00000310: 0000 0060 8a68 fb3f 0000 0000 22d9 1bc0
00000320: 0000 00a0 8ce6 2b40 0000 0060 6f3e 2640
00000330: 0000 0060 e2ff 2140 0000 00e0 cc0a 1740
00000340: 0000 00a0 e788 0a40 0000 0060 04e1 07c0
00000350: 0000 00a0 6b6e 2040 0000 00e0 6586 dbbf
00000360: 0000 00c0 35d3 1e40 0000 00c0 a9c9 1cc0
00000370: 0000 00a0 0890 0fc0 0000 00e0 d764 2640
00000380: 0000 00a0 0890 0fc0 0000 00e0 ea14 d9bf
00000390: 0000 00a0 78d5 fbbf 0000 0020 6ccc 2d40
000003a0: 0000 00a0 e099 c83f 0000 0040 14e2 3dc0
000003b0: 0000 00e0 592b 1f40 0000 00a0 5e99 1340
000003c0: 0000 0040 f8f3 1b40 0000 00e0 ff69 1440
000003d0: 0000 0020 bbe1 27c0 0000 0000 4c54 32c0
000003e0: 0000 0040 60d7 0c40 0000 00c0 91a5 1640
000003f0: 0000 0020 527b 1840 0000 0040 2585 2040
00000400: 0000 00c0 87d7 1340 0000 00e0 7858 dd3f
00000410: 0000 0000 4da2 2bc0 0000 00e0 e65b 0740
00000420: 0000 0040 177e 40c0 0000 00c0 7f29 1f40
00000430: 0000 00c0 d805 1e40 0000 00e0 f139 2bc0
00000440: 0000 0080 447f 0ec0 0000 0020 f9f6 1e40
00000450: 0000 0000 2a44 48c0 0000 0040 e709 1ac0
00000460: 0000 0020 15a7 40c0 0000 00e0 7851 42c0
00000470: 0000 0020 6c8c 0d40 0000 00c0 91a5 1640
00000480: 0000 00a0 701c 1d40 0000 0080 ffc8 e03f
00000490: 0000 0080 6a6d 20c0 0000 0080 5fdc 22c0
000004a0: 0000 0000 f5f4 0040 0000 0000 f76b 1b40
000004b0: 0000 0060 b736 10c0 0000 00a0 2031 f3bf
000004c0: 0000 0060 3216 2140 0000 0040 d261 1340
000004d0: 0000 00a0 84c2 fb3f 0000 0000 3363 f63f
000004e0: 0000 00a0 7d9a 0d40 0000 00e0 c975 22c0
000004f0: 0000 00a0 5264 1d40 0000 00a0 5c71 1e40
00000500: 0000 00c0 9429 1dc0 0000 0060 447f 11c0
00000510: 0000 00e0 4660 1d40 0000 0060 1062 1740
00000520: 0000 0060 d134 0940 0000 0040 bc91 fc3f
00000530: 0000 0080 904a 2a40 0000 00e0 c975 22c0
00000540: 0000 0020 9805 eebf 0000 00c0 2dba 0dc0
00000550: 0000 0020 b56c 27c0 0000 0000 4c54 32c0
00000560: 0000 00a0 9701 2040 0000 00e0 d764 2640
00000570: 0000 0040 e726 f3bf 0000 00e0 f139 2bc0
00000580: 0000 0040 3175 1a40 0000 00e0 ff69 1440
00000590: 0000 0020 bbe1 27c0 0000 0060 1816 2540
000005a0: 0000 0040 a1cc 0240 0000 0040 80b9 2740
000005b0: 0000 0000 c644 29c0 0000 00e0 6454 1e40
000005c0: 0000 0040 bdd5 1340 0000 0020 f5da 0ec0
000005d0: 0000 0080 4eb3 1140 0000 0000 5d54 2740
000005e0: 0000 0080 4a30 03c0 0000 00c0 46e4 24c0
000005f0: 0000 0060 4bda 1ac0 0000 00a0 3389 fe3f
00000600: 0000 00c0 8049 1540 0000 0040 cb2d c8bf
00000610: 0000 0040 99d9 3e40 0000 0080 faf4 2fc0
00000620: 0000 0040 55df 1340 0000 00a0 9b99 32c0
00000630: 0000 0080 341c e9bf 0000 0020 2d9f 0b40
00000640: 0000 0040 c985 05c0 0000 0080 fe3b f4bf
00000650: 0000 0080 3157 2ac0 0000 00e0 a7c8 31c0
00000660: 0000 0080 f591 17c0 0000 0060 93d9 33c0
00000670: 0000 00a0 3c23 1e40 0000 00a0 a7c8 31c0
00000680: 0000 00a0 a7c8 31c0 0000 0000 82f2 0540
00000690: 0000 0080 4ad9 19c0 0000 00e0 b6fe 2ac0
000006a0: 0000 00e0 0bd0 de3f 0000 00a0 bbe1 1ec0
000006b0: 0000 0060 b402 1a40 0000 0000 d1bc 06c0
000006c0: 0000 0000 1397 1040 0000 0000 c14c 0040
000006d0: 0000 0000 80cc f23f 0000 00a0 0f1b 0740
000006e0: 0000 0000 f385 2640 0000 0000 174e 09c0
000006f0: 0000 00a0 8417 fcbf 0000 0040 4e69 0540
00000700: 0000 0060 e274 f53f 0000 00c0 b139 19c0
00000710: 0000 0020 573a 1540 0000 0040 fce4 bf3f
00000720: 0000 0020 6390 1340 0000 0040 f59b e63f
00000730: 0000 0020 241e 1540 0000 00a0 5350 bbbf
00000740: 0000 0080 ab73 e73f 0000 0040 b3bb 1ac0
00000750: 0000 0000 3f75 fabf 0000 00a0 a21b 31c0
00000760: 0000 00a0 1619 22c0 0000 00e0 43fe 1140
00000770: 0000 00c0 6ce9 1840 0000 0060 be6e 1ec0
00000780: 0000 00e0 3395 1ac0 0000 00e0 3f85 f53f
00000790: 0000 00c0 332d 1340 0000 00c0 fadd 05c0
000007a0: 0000 0060 1ba7 0ec0 0000 00a0 6438 22c0
000007b0: 0000 0080 e054 00c0 0000 00a0 31bb 2240
000007c0: 0000 00c0 62d2 2640 0000 0020 4051 0a40
000007d0: 0000 0000 dd63 19c0 0000 00c0 a448 0240
000007e0: 0000 00e0 eae7 1040 0000 0080 bfa0 9d3f
000007f0: 0000 00c0 1dca f9bf 0000 0040 4c3b fdbf
-5.296327114105225 3.5663321018218994 7.624906063079834 11.075752258300781 -0.3919009268283844 17.80811882019043 4.1637749671936035 9.024738311767578
5.00136661529541 4.273306369781494 -7.196938991546631 8.089688301086426 15.501440048217773 15.685460090637207 7.682567119598389 6.2318115234375
-3.728832960128784 15.685457229614258 15.685457229614258 7.706260681152344 8.380497932434082 8.558136940002441 1.0343141555786133 -4.2511420249938965
-1.5348186492919922 1.0762453079223633 1.7079304456710815 0.9364925026893616 -6.815008163452148 -12.757671356201172 1.0489187240600586 2.211219549179077
5.258140563964844 0.1930631846189499 -7.34254789352417 -6.743049621582031 2.2906014919281006 -7.313204288482666 -2.256511688232422 6.1204304695129395
6.467183589935303 7.505709648132324 7.741184711456299 -7.914915561676025 0.9847232699394226 -11.641050338745117 -10.235957145690918 2.2980518341064453
4.948643684387207 -3.301415205001831 -1.2876977920532227 9.327394485473633 -2.1934969425201416 1.7855799198150635 -27.279808044433594 -4.167916774749756
5.0262885093688965 4.193382740020752 6.460583686828613 11.574725151062012 7.960500240325928 2.0975425243377686 4.169563293457031 -2.4395406246185303
1.5558358430862427 5.971075534820557 0.8975306749343872 -2.645174026489258 1.0497559309005737 0.6696792840957642 5.081284523010254 -3.6308343410491943
2.3205175399780273 -1.4603034257888794 14.224842071533203 -0.3919017016887665 0.4149186909198761 2.587954044342041 -1.9821629524230957 6.392862319946289
-0.7590516209602356 -11.94088077545166 9.412525177001953 15.185053825378418 -19.82231330871582 -35.650177001953125 2.562138080596924 2.562138080596924
-11.292718887329102 4.473380088806152 4.464913845062256 8.224343299865723 7.347971439361572 3.693565607070923 6.842067718505859 -45.552085876464844
-38.31158447265625 4.425104141235352 1.7130225896835327 -6.962043762207031 13.950291633605957 11.121943473815918 8.999773979187012 5.760547161102295
3.316848039627075 -2.9848716259002686 8.215664863586426 -0.43007799983024597 7.706259727478027 -7.19693660736084 -3.945328950881958 11.196959495544434
-3.945328950881958 -0.3919017016887665 -1.7396169900894165 14.899262428283691 0.19219596683979034 -29.883121490478516 7.792335033416748 4.89977502822876
6.988251686096191 5.103515148162842 -11.94088077545166 -18.32928466796875 3.605164051055908 5.661688804626465 6.1204304695129395 8.260049819946289
4.960478782653809 0.4585249125957489 -13.816993713378906 2.9198739528656006 -32.985084533691406 7.790526390075684 7.505709648132324 -13.613173484802246
-3.8121423721313477 7.741184711456299 -48.53253173828125 -6.509671211242676 -33.30533218383789 -36.63650131225586 3.693565607070923 5.661688804626465
7.277773380279541 0.5245358943939209 -8.213703155517578 -9.430416107177734 2.119607925415039 6.855434417724609 -4.053433895111084 -1.1994940042495728
8.543353080749512 4.845528602600098 1.7349897623062134 1.3992185592651367 3.700434923171997 -9.230055809020996 7.347971439361572 7.6107048988342285
-7.290606498718262 -4.374284267425537 7.344020366668701 5.845765590667725 3.150789976119995 1.7855799198150635 13.145633697509766 -9.230055809020996
-0.9381828904151917 -3.715907573699951 -11.712319374084473 -18.32928466796875 8.0031099319458 11.196959495544434 -1.196997880935669 -13.613173484802246
6.614445686340332 5.103515148162842 -11.94088077545166 10.5431547164917 2.349916934967041 11.862306594848633 -12.634323120117188 7.58241605758667
4.9587297439575195 -3.856912851333618 4.425104141235352 11.664772033691406 -2.3985795974731445 -10.445852279663086 -6.7131781578063965 1.9084964990615845
5.321780204772949 -0.1888975203037262 30.849994659423828 -15.978473663330078 4.9680986404418945 -18.60003089904785 -0.7846930027008057 3.4527227878570557
-2.6903252601623535 -1.2646470069885254 -13.170299530029297 -17.783811569213867 -5.892538070678711 -19.849905014038086 7.5344109535217285 -17.7838077545166
-17.7838077545166 2.7434120178222656 -6.462198257446289 -13.497488975524902 0.48144814372062683 -7.720442295074463 6.502641201019287 -2.842195510864258
4.147533416748047 2.037477493286133 1.1749267578125 2.8882133960723877 11.261619567871094 -3.1631298065185547 -1.7557417154312134 2.6764187812805176
1.3410362005233765 -6.306342124938965 5.306972980499268 0.12458778917789459 4.891003131866455 0.7065378427505493 5.279434680938721 -0.10669443756341934
0.7328698635101318 -6.683300971984863 -1.6536245346069336 -17.10795021057129 -9.04900074005127 4.498305797576904 6.227953910827637 -7.608148097991943
-6.645705699920654 1.3450316190719604 4.794142723083496 -2.7333884239196777 -3.8315951824188232 -9.110142707824707 -2.0414438247680664 9.365612983703613
11.410909652709961 3.289673089981079 -6.347522735595703 2.285470485687256 4.226481914520264 0.028933517634868622 -1.611844778060913 -1.826977014541626
