12esmPCA/layer2_pca190.npy (npy, 144528 bytes, 1 tensors)

array (column-major) f4 [190, 190]
000000 e2 ef 77 bf cb 6c c4 c0 78 1c f8 c0 68 3a 08 3f
       -0.9685041 -6.1382804 -7.753475 0.5321412
000010 c9 25 27 41 69 b4 22 40 92 fd e3 c0 6c 72 98 41
       10.446725 2.5422614 -7.1247034 19.05587
000020 23 9c c0 c0 b0 48 ce c0 2c e9 c3 3e 95 40 c0 c0
       -6.0190597 -6.446373 0.38263834 -6.0078835
000030 21 64 b8 40 3d d9 41 40 d4 32 8d 3e 6d f5 36 41
       5.762223 3.0288842 0.2757784 11.434918
000040 df 75 38 bf 3d d9 41 40 3d d9 41 40 fb 61 8d 40
       -0.72054857 3.0288842 3.0288842 4.4182105
000050 db 7f a4 c0 22 62 ef be 0c bc 8c c0 75 6f 3d 41
       -5.1406074 -0.46754557 -4.397955 11.839711
000060 9b b2 9e bf 8b 9f 63 3f 3c 60 cd c0 e9 62 4d c0
       -1.2398256 0.8891532 -6.4179974 -3.209162
000070 2f ea b2 40 c3 a8 c1 40 7a 3e f8 c0 c6 2a 25 be
       5.591087 6.051851 -7.7576265 -0.16129598
000080 4b 84 cc c0 93 cd 57 bf e8 83 4a c0 73 58 74 bf
       -6.391149 -0.84298056 -3.164301 -0.9544746
000090 3a fd d0 c0 c9 59 e1 3f 78 16 0b c0 f9 25 db c0
       -6.5309114 1.7605525 -2.1732464 -6.8483853
0000a0 73 9e 03 c1 73 81 a8 c0 d3 e7 ba c0 31 02 53 40
       -8.226184 -5.265802 -5.840799 3.2970088
0000b0 e0 a0 a6 3f b2 ad 85 41 e2 ab 0a 41 97 ed d6 c0
       1.3017845 16.709812 8.666964 -6.7165027
0000c0 60 79 ad c0 cc 9c eb 40 dd 27 e8 be d2 c1 df c0
       -5.4210663 7.3628902 -0.45342913 -6.9924097
0000d0 17 d3 0f c0 cf 32 5e c0 e6 69 92 41 5b 50 75 41
       -2.247259 -3.471851 18.301708 15.332118
0000e0 8d 2d 12 c0 27 69 9a c0 ac 47 84 c0 38 fe 41 c0
       -2.2840302 -4.825336 -4.133749 -3.0311413
0000f0 d0 2b 92 c0 eb fa bf c0 0f 63 d3 c0 bc 1d 22 c0
       -4.567848 -5.9993796 -6.605842 -2.5330648
000100 0e b8 c2 3d 61 0e cf c0 1d 3a 96 c0 7b 9a 8a 40
       0.09507762 -6.470505 -4.694594 4.3313575
000110 21 38 97 c0 45 96 90 bd f3 58 ac c0 dc 80 56 40
       -4.7256017 -0.07059912 -5.385858 3.351615
000120 0a d8 46 c0 34 15 df bf 93 60 8d 3f ca 25 27 41
       -3.106936 -1.7428346 1.1045097 10.446726
000130 a0 66 98 c0 b4 83 cf 3e 20 a1 17 3d a5 ba eb be
       -4.7625275 0.4053017 0.037018895 -0.46040836
000140 3a a6 8a bf 21 47 0b 40 a1 a0 e3 c0 51 bf a0 3f
       -1.0831978 2.1762164 -7.113358 1.2558385
000150 c6 0f a6 41 90 1f e4 41 a5 2b 88 c0 a5 2b 88 c0
       20.757702 28.515411 -4.2553277 -4.2553277
000160 43 7b 2e 41 be 8e a0 c0 f7 b7 b3 c0 8e ce fb c0
       10.905093 -5.0174246 -5.6162066 -7.868964
000170 b0 5d 0a c1 c3 eb 5c c0 5e 90 99 c0 be 60 12 42
       -8.647873 -3.4518898 -4.798873 36.594475
000180 c4 a3 fb 41 31 b7 57 c0 1b 82 70 c0 2f bc 96 40
       31.454964 -3.370556 -3.757941 4.7104716
000190 71 8f 50 c0 d4 4f b6 c0 ff bb 6d c0 ec f8 aa c0
       -3.258755 -5.6972446 -3.7145994 -5.342886
0001a0 a9 de d4 c0 3d 04 19 c0 29 45 04 c1 3b 44 87 c0
       -6.65218 -2.3908837 -8.266885 -4.227079
0001b0 f5 61 8d 40 34 e9 c3 3e c4 b2 28 c0 2d 7e ba c0
       4.4182076 0.38263857 -2.635911 -5.8279023
0001c0 c4 b2 28 c0 ca 25 27 41 0d af a0 c0 f9 ff cd 41
       -2.635911 10.446726 -5.0213685 25.749987
0001d0 75 18 c7 c0 b6 28 b8 41 b4 44 f7 c0 c7 cf fd c0
       -6.2217355 23.019878 -7.7271366 -7.9316134
0001e0 ea e3 a9 c0 68 f0 ef c0 1f 47 0b 40 c0 03 6b 41
       -5.3090715 -7.4980965 2.176216 14.688416
0001f0 e8 5c c8 c0 46 de 84 c0 f9 25 db c0 1c f4 f4 c0
       -6.261341 -4.152133 -6.8483853 -7.6547985
000200 8c ee 02 c1 9e 2d 31 3f c2 85 1a 41 7c 49 02 c1
       -8.183239 0.6921023 9.657656 -8.1429405
000210 75 d0 d9 41 94 7d c8 c0 73 81 a8 c0 94 28 9d 3f
       27.226786 -6.2653294 -5.265802 1.2278008
000220 22 ab a6 3f d2 e7 ba c0 bd 04 25 42 b5 91 9e bc
       1.3020976 -5.8407984 41.254627 -0.019356588
000230 6b 5a c2 41 c0 7f 00 42 c2 eb 5c c0 46 de 84 c0
       24.29415 32.124756 -3.4518895 -4.152133
000240 38 47 3b c0 ae 0b d5 c0 d8 4a 48 40 7b 36 3c 3f
       -2.9262218 -6.6576757 3.129568 0.7352063
000250 c1 04 b7 c0 7a 26 99 c0 57 3c 68 40 71 de 7a c0
       -5.7193303 -4.785947 3.6286829 -3.9198267
000260 bd 6f 27 40 0b d9 c5 c0 a4 6c 74 c0 d1 06 e6 c0
       2.616195 -6.1827445 -3.819131 -7.188332
000270 70 fa 88 c0 6c b1 03 3f b0 5d 0a c1 9c f0 f7 c0
       -4.280571 0.514426 -8.647873 -7.7481213
000280 d9 2e 21 40 e8 49 6f c0 a1 e9 c8 c0 65 51 db c0
       2.5184844 -3.7388859 -6.278519 -6.853686
000290 3a f0 85 c0 cf 32 5e c0 04 b6 85 c0 6b b1 03 3f
       -4.1855745 -3.471851 -4.1784687 0.51442593
0002a0 3f 8e e1 40 74 79 6d c0 48 bc ab 40 c0 03 6b 41
       7.048614 -3.710538 5.3667336 14.688416
0002b0 80 e3 c2 c0 2d 7e ba c0 e2 9b dd c0 95 28 9d 3f
       -6.090271 -5.8279023 -6.9252787 1.227801
0002c0 0c 56 08 c1 68 f0 ef c0 1f 47 0b 40 10 8b f0 c0
       -8.521008 -7.4980965 2.176216 -7.5169754
0002d0 26 a6 f8 c0 05 62 ab c0 2d 1a b2 3f ec 56 f7 c0
       -7.770282 -5.3557153 1.3914238 -7.7293606
0002e0 d7 28 03 c1 09 83 ca 3f 31 b7 57 c0 9c 48 15 41
       -8.197471 1.5821239 -3.370556 9.330227
0002f0 48 bc 23 c0 ad 86 05 40 cd d7 c9 3f 0f 6a 22 3f
       -2.5583668 2.086345 1.5768982 0.6344308
000300 3c ff e5 3f 0e cb f5 3f 2c 0f 08 41 07 8f 86 c1
       1.7968516 1.9202592 8.503704 -16.819838
000310 ac 18 8e bf cf cf 00 c2 e2 3d 0e 40 b9 24 9c 3f
       -1.1101279 -32.202938 2.222527 1.2198707
000320 36 4f a4 40 2d 46 45 c0 ca f6 b9 c1 b4 93 87 c1
       5.1346693 -3.0824082 -23.245502 -16.94712
000330 05 79 2a c1 b1 52 12 c0 9a 31 97 bf b4 93 87 c1
       -10.654546 -2.286297 -1.1812012 -16.94712
000340 b4 93 87 c1 8e 2f cb c0 ae ed 6d 3f 51 6a 73 c0
       -16.94712 -6.349555 0.92940795 -3.803364
000350 22 b7 97 3f 58 b3 4a c0 44 4c 0c 3f e0 da 0d 40
       1.1852763 -3.1671963 0.5480387 2.216484
000360 f0 9d 80 bf da 7c 11 40 21 b8 2a c0 67 5e 0b 41
       -1.0048199 2.2732453 -2.6674883 8.710547
000370 0f 48 6f 40 aa 90 37 40 e4 29 f7 bd 08 71 91 40
       3.738773 2.8682046 -0.12068537 4.5450478
000380 5d 40 94 40 55 30 e3 3f 8c 85 74 40 6c 60 cb 40
       4.632857 1.7749125 3.820651 6.3555202
000390 42 39 ed bf ab c7 15 3f 7d bb 5c 40 38 60 2b 40
       -1.8533099 0.58507794 3.4489434 2.6777477
0003a0 95 d7 fd bf 2d e6 f8 3f 3f 2e a2 bd 41 1a fe c0
       -1.9831415 1.9445244 -0.07918977 -7.940705
0003b0 22 f2 6a bf 97 01 26 bf d4 d0 57 40 ec b1 c8 c0
       -0.91775715 -0.64846176 3.3721209 -6.271719
0003c0 a6 18 8c c0 03 0c 40 40 52 96 f2 bf 45 f2 22 40
       -4.378009 3.0007331 -1.8952124 2.546037
0003d0 a6 28 b0 40 05 d5 c8 c0 bc 27 f5 bf eb a7 dd 3e
       5.504962 -6.2760034 -1.9152751 0.43292174
0003e0 5b 45 41 40 b0 d4 e4 40 7e fb a0 c0 2a 51 89 40
       3.0198581 7.150963 -5.0306997 4.2911577
0003f0 33 7e 12 3f d1 f3 2a 40 94 89 85 3f 7f b9 44 be
       0.57223815 2.6711314 1.043261 -0.19211386
