12esmPCA/layer9_pca10.npy (npy, 7728 bytes, 1 tensors)

array (column-major) f4 [190, 10]
-0.76320773 4.137471 7.2172437 -9.033378 -7.4191804 -0.87212867 0.87558633 2.3140323
4.0073915 -0.41206607 6.278441 -2.556221 -13.050961 -8.569484 -5.434518 1.7140468
-4.6363525 -8.569484 -8.569484 -4.052444 -1.0193903 -0.5051751 -1.0066502 -7.382772
-0.85232294 -3.2708335 2.0212684 6.526992 -5.6159883 -0.39181626 8.692264 -1.7388659
-0.29881626 6.8217807 5.8501897 -2.630183 7.704274 0.14374161 -4.166349 8.623284
13.353612 4.273812 -2.2758832 -2.3955843 -4.84215 -16.477858 -12.68213 1.6928822
4.6804185 -8.747096 0.31192032 -1.3362002 -4.109836 -0.17375973 -19.370186 -8.96402
-1.030818 0.9919133 9.004169 8.761464 -2.09593 6.8372016 2.462254 0.48610026
-2.5794756 2.8034892 -1.9149599 -6.705449 3.9846292 -7.9035664 1.227068 -6.331345
-0.08169151 -3.6657522 -7.4494157 -7.4191866 4.005052 -5.094662 -6.046808 -3.8467038
-4.2442575 3.9196188 2.3729188 5.241649 -16.032318 -16.159632 17.87706 17.87706
-16.197685 5.7480097 3.4242506 9.728585 15.354962 -4.65438 8.975568 -19.015633
-17.807177 -0.10689449 -1.3438576 -5.998236 -3.8453162 2.919243 -1.4316049 3.6002688
7.1668053 5.155215 12.495892 9.143367 -4.052442 6.2784424 -4.5404544 -3.4313567
-4.5404544 -7.4191866 1.0712228 3.9222603 4.741888 -16.713343 3.06524 12.052044
-3.056276 15.475011 3.9196212 -8.880778 -0.021002498 -0.29891005 8.623284 6.862045
13.344988 -6.1979036 -5.9099193 12.417326 -19.569187 -2.5234256 4.273813 -1.6375601
11.482105 -2.2758827 -17.216484 -0.14417072 -17.997211 -15.2329855 -4.654381 -0.29891005
3.3719478 -0.35158023 -2.6292338 4.329789 -1.3223697 -1.8130345 -5.946733 5.030245
-9.64012 11.745855 -1.8017242 9.012406 6.14567 1.7589138 15.354962 9.017418
-2.728395 6.3629346 11.342216 12.454591 4.6171074 -0.1737594 9.148084 1.7589138
-11.187733 9.050807 -10.815869 -8.880778 -2.2953908 -3.4313567 6.006181 -1.6375601
13.818378 15.475011 3.9196212 -4.2866883 11.262468 -1.019235 0.53291017 7.0126777
13.363057 12.034115 -0.10689449 -2.1087005 -1.5782764 -6.6968336 8.113579 16.793571
-2.2180192 13.463526 4.660668 14.965159 -4.088219 22.089376 -7.4358993 -4.5361695
-2.560058 -0.098715045 18.900215 17.8606 15.669597 -3.0519428 5.331688 17.8606
17.8606 5.3210425 2.1017065 1.5552921 -5.484507 -0.8348612 -0.83411163 -4.3459272
-3.8985548 -0.43910268 -0.5369568 -3.5629234 -6.0470557 -4.206253 -2.1556895 -2.4136875
-5.019932 6.042624 -4.987998 -0.8322885 2.888839 -2.283344 -3.889762 -6.701145
4.137172 5.3606586 -2.8555014 2.0800068 -1.9906243 -3.732929 -7.5610228 2.0842211
3.4328516 0.25071394 3.471184 -4.52095 -6.927046 0.8130329 -2.536916 -2.1286159
-2.7463515 -8.79389 0.012148028 -3.3189955 -0.74459726 -4.1975594 -2.80701 1.959144
00000000: 9561 43bf 2a66 8440 a9f3 e640 b788 10c1
00000010: ed69 edc0 d343 5fbf 6d26 603f 1b19 1440
00000020: 8d3c 8040 53fa d2be fde8 c840 2099 23c0
00000030: bcd0 50c1 9b1c 09c1 92e7 adc0 e365 db3f
00000040: 005d 94c0 9b1c 09c1 9b1c 09c1 9fad 81c0
00000050: 627b 82bf 2853 01bf ead9 80bf ab3f ecc0
00000060: d631 5abf 5655 51c0 765c 0140 1edd d040
00000070: 2db6 b3c0 249c c8be 8313 0b41 2893 debf
00000080: 72fe 98be 074c da40 c134 bb40 eb54 28c0
00000090: 6a89 f640 0031 133e bb52 85c0 f9f8 0941
000000a0: 65a8 5541 11c3 8840 12a8 11c0 4151 19c0
000000b0: e5f2 9ac0 a7d2 83c1 01ea 4ac1 5db0 d83f
000000c0: fdc5 9540 1bf4 0bc1 05b4 9f3e 9c08 abbf
000000d0: c783 83c0 12ee 31be 24f6 9ac1 a06c 0fc1
000000e0: d8f1 83bf 08ee 7d3f 1411 1041 f52e 0c41
000000f0: b823 06c0 5bca da40 9295 1d40 22e2 f83e
00000100: 2116 25c0 5e6c 3340 681d f5bf 0a93 d6c0
00000110: 2a04 7f40 04ea fcc0 9010 9d3f 619a cac0
00000120: e14d a7bd af9b 6ac0 9d61 eec0 fa69 edc0
00000130: 6329 8040 7907 a3c0 737f c1c0 6530 76c0
00000140: f5d0 87c0 09db 7a40 e7dd 1740 97bb a740
00000150: 3042 80c1 ed46 81c1 3804 8f41 3804 8f41
00000160: dc94 81c1 b2ef b740 ec26 5b40 49a8 1b41
00000170: edad 7541 aef0 94c0 ed9b 0f41 0420 98c1
00000180: 1975 8ec1 80eb dabd 8703 acbf 8df1 bfc0
00000190: a919 76c0 e1d4 3a40 d43e b7bf ce6a 6640
000001a0: 7856 e540 85f7 a440 2cef 4741 3b4b 1241
000001b0: 9bad 81c0 00e9 c840 674b 91c0 599b 5bc0
000001c0: 674b 91c0 fa69 edc0 d41d 893f 5006 7b40
000001d0: 8cbd 9740 edb4 85c1 e42c 4440 2cd5 4041
000001e0: 079a 43c0 a599 7741 13db 7a40 ab17 0ec1
000001f0: 6e0d acbc bd0a 99be f9f8 0941 df95 db40
00000200: 1285 5541 3a55 c6c0 0f1e bdc0 5ead 4641
00000210: b28d 9cc1 ce7f 21c0 13c3 8840 929b d1bf
00000220: b4b6 3741 10a8 11c0 5cbb 89c1 7da1 13be
00000230: 4afa 8fc1 4fba 73c1 b0f0 94c0 bd0a 99be
00000240: fecd 5740 5302 b4be 5e45 28c0 a28d 8a40
00000250: 6943 a9bf 8411 e8bf a34b bec0 c4f7 a040
00000260: ee3d 1ac1 06ef 3b41 e69e e6bf d132 1041
00000270: 54a9 c440 1624 e13f edad 7541 5847 1041
00000280: 069e 2ec0 299d cb40 b779 3541 0146 4741
00000290: 58bf 9340 fced 31be 8d5e 1241 1624 e13f
000002a0: f400 33c1 1bd0 1041 cd0d 2dc1 ab17 0ec1
000002b0: afe7 12c0 599b 5bc0 a232 c040 929b d1bf
000002c0: 1418 5d41 a599 7741 13db 7a40 8d2c 89c0
000002d0: 1233 3441 4b76 82bf cd6c 083f db67 e040
000002e0: 15cf 5541 bc8b 4041 80eb dabd f3f4 06c0
000002f0: f604 cabf 764c d6c0 38d1 0141 3c59 8641
00000300: 07f4 0dc0 9a6a 5741 3124 9540 4b71 6f41
00000310: b1d2 82c0 0bb7 b041 e3f2 edc0 4d28 91c0
00000320: fed7 23c0 1d2b cabd a433 9741 82e2 8e41
00000330: abb6 7a41 0853 43c0 309d aa40 82e2 8e41
00000340: 82e2 8e41 fb45 aa40 5c82 0640 d013 c73f
00000350: 1581 afc0 77b9 55bf 5788 55bf d611 8bc0
00000360: ec81 79c0 11d2 e0be 0076 09bf f006 64c0
00000370: 7b81 c1c0 a099 86c0 d1f6 09c0 db79 1ac0
00000380: 48a3 a0c0 2d5d c140 ae9d 9fc0 dc10 55bf
00000390: bde2 3840 4f22 12c0 dcf1 78c0 c86f d6c0
000003a0: b763 8440 848a ab40 89c0 36c0 d51e 0540
000003b0: c7cc febf 4fe8 6ec0 e6f3 f1c0 e163 0540
000003c0: d7b3 5b40 945d 803e e127 5e40 9fab 90c0
000003d0: 5caa ddc0 ed22 503f d55c 22c0 3e3b 08c0
000003e0: 39c4 2fc0 c6b3 0cc1 8608 473c 6c6a 54c0
000003f0: ed9d 3ebf 6852 86c0 0da6 33c0 3bc5 fa3f
