12esmPCA/layer10_pca190.npy (npy, 144528 bytes, 1 tensors)

array (column-major) f4 [190, 190]
0	0xbfe5115f	-1.7895926
1	0x3f508712	0.814561
2	0x410397d4	8.224567
3	0xc0abd246	-5.369418
4	0xc0b29df3	-5.581781
5	0xc0463f89	-3.0976279
6	0x3feae96a	1.8352482
7	0xc09ae5df	-4.8405604
8	0x40c0cc8c	6.024969
9	0xbf00b4a2	-0.50275624
10	0x40f43612	7.6316004
11	0xbf6f07d7	-0.9337134
12	0xc120c04d	-10.046948
13	0xc0f53d79	-7.663754
14	0xc0d08bad	-6.5170503
15	0x3ff21222	1.8911784
16	0xc0ad93fd	-5.424315
17	0xc0f53d79	-7.663754
18	0xc0f53d79	-7.663754
19	0xc057e08e	-3.3730807
20	0x3e71f5b4	0.23628885
21	0xbfa2a8a6	-1.2707717
22	0xbd8eeb04	-0.069784194
23	0xc0c1c866	-6.0557127
24	0xc0348a6f	-2.8209493
25	0xc00212b8	-2.0323925
26	0xbfefa3e0	-1.8721886
27	0x40b388bc	5.610441
28	0xc0ef1efd	-7.4725327
29	0xbf51d016	-0.8195814
30	0x412494bb	10.286311
31	0x3e5da832	0.21646193
32	0x3f81baee	1.0135171
33	0x41006cc2	8.026552
34	0x40c5193b	6.15933
35	0xc057d7ed	-3.372554
36	0x410c763e	8.778868
37	0xbedb50c8	-0.4283507
38	0xc06f05ee	-3.734737
39	0x40ea8bc2	7.3295603
40	0x414271dd	12.152799
41	0x40b8156f	5.7526164
42	0xbfb5b6a3	-1.4196361
43	0xc048acd1	-3.1355479
44	0xc0268e5e	-2.6024394
45	0xc19a712e	-19.305264
46	0xc17c3690	-15.763321
47	0x401883ce	2.3830447
48	0x40b75708	5.729374
49	0xc10fd217	-8.988791
50	0xbfcadc87	-1.584855
51	0x3f927ab9	1.1443702
52	0xc0762c88	-3.846468
53	0x3fd4e2b0	1.663168
54	0xc1a6f4da	-20.869556
55	0xc0f8960a	-7.7683153
56	0x3f206b1a	0.62663424
57	0x3fbcdbb7	1.4754552
58	0x410bbaca	8.733103
59	0x4127f141	10.4964
60	0xbfdbeb07	-1.71811
61	0x410c3aa2	8.764315
62	0x401eda7d	2.4820855
63	0x4007bebf	2.1210172
64	0xbff488f3	-1.9104294
65	0x4042fe1d	3.0467598
66	0xc003965d	-2.0560524
67	0xc0baa396	-5.832469
68	0x40b358b9	5.6045804
69	0xc0d315ef	-6.5964274
70	0x400c0576	2.1878333
71	0xc1068222	-8.406771
72	0x3f9b1ddf	1.2118491
73	0xc0305d86	-2.7557082
74	0xc0447d7d	-3.0701592
75	0xc0b29dfe	-5.581786
76	0x40a90af4	5.282587
77	0xc0cd3acc	-6.4134274
78	0xc0c28599	-6.0788083
79	0xc09be08b	-4.87116
80	0xc08e1c76	-4.440974
81	0x40557e24	3.335824
82	0x406da7df	3.713371
83	0x4114153c	9.255184
84	0xc16f5e13	-14.960467
85	0xc1799bb3	-15.6005125
86	0x41491b0f	12.569106
87	0x41491b10	12.569107
88	0xc17f74a2	-15.965975
89	0x40de322c	6.9436245
90	0x400f1b41	2.2360384
91	0x4129f68f	10.622695
92	0x4165f156	14.37142
93	0xc092827a	-4.5784273
94	0x40de345f	6.943893
95	0xc19ce9ab	-19.614096
96	0xc18f867b	-17.940664
97	0x3f8d9447	1.1060876
98	0xbf154e46	-0.5832256
99	0xc0de6222	-6.949479
100	0xbbfc19e3	-0.0076935156
101	0x40bf4aaa	5.9778643
102	0x3fd23489	1.6422282
103	0x405d67a7	3.4594514
104	0x41047b7f	8.28015
105	0xc03b032f	-2.9220693
106	0x4146c6a2	12.423494
107	0x41272e0f	10.448745
108	0xc057e091	-3.3730814
109	0x40f43614	7.6316013
110	0xc06ca338	-3.697462
111	0xc00de8d3	-2.2173355
112	0xc06ca338	-3.697462
113	0xc0b29dfe	-5.581786
114	0x3fd56bca	1.667352
115	0xc0c674c9	-6.201756
116	0x40b0e469	5.527882
117	0xc198b358	-19.08757
118	0x40909568	4.518238
119	0x41424c5a	12.1436405
120	0xbf0edf13	-0.55809134
121	0x41686c81	14.52649
122	0x40557e25	3.3358243
123	0xc1227d10	-10.155533
124	0x400d8735	2.2113774
125	0x40175a0c	2.364871
126	0x40ea8bbd	7.329558
127	0x40dc9281	6.892884
128	0x413de71b	11.868922
129	0xc0dbae16	-6.8650007
130	0xc081fb1d	-4.0619035
131	0x413fdc46	11.991278
132	0xc197c0ce	-18.969143
133	0xbf801bab	-1.0008444
134	0x40b8156f	5.7526164
135	0xc01e5886	-2.474153
136	0x3f4dabbd	0.80340177
137	0xbfb5b6a9	-1.4196368
138	0xc191b709	-18.214373
139	0xc01706d7	-2.3597925
140	0xc18a4144	-17.281868
141	0xc176ef56	-15.433432
142	0xc092827a	-4.5784273
143	0x40175a0c	2.364871
144	0x408d49e2	4.415269
145	0xbf49e0bb	-0.78858536
146	0xc06a5352	-3.6613355
147	0x408dc630	4.430443
148	0x3fc7a15a	1.5596116
149	0xbfafc8e5	-1.3733183
150	0xc1029778	-8.16198
151	0x40bfd342	5.9945383
152	0xc1081f35	-8.507619
153	0x4152acda	13.1672
154	0xbff6139f	-1.9224738
155	0x411657a6	9.396399
156	0x40584aef	3.3795736
157	0x403cf0f1	2.952206
158	0x4165f157	14.371421
159	0x4117684f	9.462966
160	0xc06ff166	-3.7491088
161	0x40e9617e	7.293151
162	0x4116bdbc	9.421322
163	0x412e235d	10.883634
164	0x4035f9df	2.843376
165	0x3fd4e2b0	1.663168
166	0x41377116	11.465109
167	0x403cf0f1	2.952206
168	0xc139e012	-11.617205
169	0x41102045	9.007878
170	0xc137b4fd	-11.481687
171	0xc1227d10	-10.155533
172	0xbf490c1b	-0.78534096
173	0xc00de8d3	-2.2173355
174	0x40cf2119	6.4727902
175	0xc01e5886	-2.474153
176	0x4147a5b0	12.477951
177	0x41686c81	14.52649
178	0x40557e25	3.3358243
179	0xc010eb09	-2.2643454
180	0x413144b1	11.07927
181	0x3f81fcad	1.0155236
182	0xbeff065b	-0.49809536
183	0x40e0b195	7.0216775
184	0x413e5b5c	11.897305
185	0x3f5ce499	0.8628631
186	0x3f8d9447	1.1060876
187	0xc0a95529	-5.2916455
188	0xbde50919	-0.11183376
189	0xc115ff39	-9.37481
190	0x40c575f1	6.170647
191	0x4183224f	16.391752
192	0xbf53066c	-0.82431674
193	0x40de4c81	6.946839
194	0x40bcb240	5.896759
195	0x41916d26	18.178295
196	0xc067bf11	-3.6210368
197	0x41bee91d	23.863825
198	0xc0c8700d	-6.263678
199	0xc0b39b05	-5.6126733
200	0xc010306f	-2.2529562
201	0x402c3655	2.6908162
202	0x415ad9c3	13.6781645
203	0x416ceab8	14.807304
204	0x413ad791	11.6776285
205	0x3fec782e	1.8474176
206	0x40a86bf3	5.2631774
207	0x416ceab8	14.807304
208	0x416ceab8	14.807304
209	0x40f90aed	7.7825837
210	0x3f35bbba	0.70989573
211	0x3fb159ed	1.3855568
212	0xc0e9f4a7	-7.311115
213	0xc09051c9	-4.5099835
214	0x3e87085f	0.26373574
215	0xc01d67f2	-2.4594693
216	0xc09dfe29	-4.9372754
217	0x3fb3b128	1.4038439
218	0x4029280e	2.6430697
219	0xc09c157c	-4.8776226
220	0xc092d812	-4.588876
221	0xc0ae6ab1	-5.450524
222	0xc041fe7f	-3.0311582
223	0xc05e8a2d	-3.4771836
224	0xc0b94e7d	-5.790831
225	0x4090af26	4.5213804
226	0xc06e4c7e	-3.7234187
227	0xc074e695	-3.8265736
228	0x401da2b7	2.4630563
229	0x3f8389bb	1.0276407
230	0xbfdb9024	-1.7153363
231	0xc0853fa1	-4.164017
232	0x3ffd7e68	1.9804201
233	0x4031207f	2.7676084
234	0xc0820ebd	-4.064299
235	0xbfdef83e	-1.7419508
236	0xc0bdac10	-5.9272537
237	0xc05f25d9	-3.486685
238	0xc0943219	-4.6311154
239	0xbead6d8e	-0.33872646
240	0x40036bd5	2.0534565
241	0xbfa0842f	-1.2540339
242	0x40431868	3.0483646
243	0xc0becacc	-5.9622555
244	0xc115f8cf	-9.373244
245	0xc03efc41	-2.9841464
246	0xbfdb7f8f	-1.7148303
247	0x3f0cc45f	0.5498714
248	0x3f4a08d9	0.7891975
249	0xc07a1a28	-3.9078465
250	0xbf919115	-1.13724
251	0xc00abcc9	-2.1677725
252	0xbf812834	-1.0090394
253	0xc0b4769e	-5.6394796
254	0xc04cfac5	-3.2028058
255	0x402b4093	2.6758163
