12esmPCA/layer4_pca20.npy (npy, 15328 bytes, 1 tensors)

array (column-major) f4 [190, 20]
-1.3565333 4.5615396 9.17521 -2.1143117 -9.139796 -2.3511407 7.737877 -11.980723
7.294011 3.2979944 1.3846234 5.93727 -4.479001 -2.2691147 0.641545 -9.798854
-2.6117136 -2.2691147 -2.2691147 -6.7110786 4.3613014 -0.89218795 2.8698628 -10.037347
-0.17852639 -3.1061344 3.4556122 3.927698 -6.3483214 -9.406666 9.291324 -1.4915094
4.8315687 3.6073072 3.2408743 -1.4370503 5.7978225 -5.184497 -0.2807162 7.6005416
10.388663 6.3223786 5.4846363 -4.7182293 -2.8783321 -17.280523 -12.19022 6.225473
7.031247 -6.8056192 1.408329 6.018857 -0.23316966 1.1464598 -21.372568 -13.046882
2.7918594 5.14461 4.083925 6.2704496 5.4941335 6.5549636 5.7493706 1.7939143
-1.9824533 6.8108907 1.3151991 -5.3538437 5.7819695 -4.207917 5.7879124 -6.9048524
2.9168181 -1.6573424 -0.100067966 -9.139796 4.8456144 -3.1883562 -2.9480753 -1.8132645
-0.8584442 0.2331583 6.93613 6.06405 -22.927374 -25.27306 6.5945373 6.5945377
-16.467712 6.699539 6.4600997 10.173144 11.068564 2.73552 5.3827868 -34.659576
-31.388338 0.4186554 3.801729 -8.763855 3.192596 6.2149234 3.6124194 4.774929
9.050732 0.5370509 10.304301 7.5048375 -6.7110806 1.3846232 0.4062066 4.7468863
0.4062066 -9.139796 6.4405346 -15.320382 6.692647 -22.070904 7.054684 9.754265
4.1556625 10.2962475 0.23315738 -14.376598 5.6070447 4.979573 7.600541 8.107375
8.842568 -2.8188465 -7.9071927 10.730606 -29.078876 6.0380726 6.322379 -5.7972503
2.273099 5.4846363 -39.28048 1.5684457 -27.821371 -30.168968 2.73552 4.979573
4.4251113 5.6160398 -4.354947 -0.5783765 6.161895 4.1006947 -6.4955864 3.6989079
-4.025462 9.808323 2.61678 7.8320804 5.204216 -2.0735838 11.068564 9.711335
-2.81442 4.895546 7.2293973 8.257318 6.0320635 1.1464597 8.143132 -2.0735838
-8.66175 2.0641394 -7.812894 -14.376598 5.9720006 4.7468863 7.1398153 -5.7972503
11.029794 10.2962475 0.23315738 4.58255 10.218559 3.105371 -3.095919 7.474558
8.876817 2.372939 0.4186554 -2.0834854 2.0648751 -3.5117898 0.31237411 0.42390588
-2.3842266 1.1814147 -4.271278 18.907778 3.1271546 19.378582 -3.6591122 3.6902218
-8.762922 6.9958253 17.334455 14.599282 8.550271 1.3031362 4.4674063 14.599282
14.599282 5.5807567 -1.5226802 5.4063616 -1.204852 2.0441499 2.0419812 -2.3081677
5.6400814 -3.085596 4.3908486 -9.173578 -7.068625 -5.124489 4.0114965 -8.694373
-6.3974915 -1.4878705 -6.2314405 -8.560668 3.9178145 -0.55405295 -6.152456 -5.5140476
4.1366324 -1.9130979 0.5935937 9.671353 4.060549 3.0944085 -5.890676 8.574726
4.3139544 -2.0862098 4.091854 -2.9773521 -1.6110196 3.8168328 2.6859605 1.2413745
-5.006926 -8.296661 7.782061 -5.987314 2.1675453 -4.7248454 -1.3890904 1.433503
00000000: e2a2 adbf 22f8 9140 a9cd 1241 e250 07c0
00000010: 9b3c 12c1 1779 16c0 b09c f740 0bb1 3fc1
00000020: 8a68 e940 5712 5340 573b b13f 1efe bd40
00000030: fa53 8fc0 2d39 11c0 4b3c 243f 1bc8 1cc1
00000040: 5126 27c0 2d39 11c0 2d39 11c0 28c1 d6c0
00000050: c88f 8b40 6e66 64bf d5ab 3740 f998 20c1
00000060: 9fcf 36be e8ca 46c0 c028 5d40 675f 7b40
00000070: 7325 cbc0 b481 16c1 43a9 1441 c8e9 bebf
00000080: 369c 9a40 1fde 6640 7c6a 4f40 44f1 b7bf
00000090: c387 b940 66e7 a5c0 09ba 8fbe a337 f340
000000a0: f737 2641 ed50 ca40 2482 af40 bcfb 96c0
000000b0: 9836 38c0 833e 8ac1 240b 43c1 1337 c740
000000c0: faff e040 a2c7 d9c0 2044 b43f 7a9a c040
000000d0: 07c4 6ebe 32bf 923f 05fb aac1 07c0 50c1
000000e0: d3ad 3240 a5a0 a440 83af 8240 86a7 c840
000000f0: f1cf af40 43c2 d140 d8fa b740 fc9e e53f
00000100: 08c1 fdbf d1f2 d940 7258 a83f b052 abc0
00000110: e505 b940 42a7 86c0 9436 b940 8df4 dcc0
00000120: 26ad 3a40 cc23 d4bf 6ff0 ccbd 9b3c 12c1
00000130: 460f 9b40 070e 4cc0 44ad 3cc0 0d19 e8bf
00000140: 00c3 5bbf 0dc1 6e3e c7f4 dd40 b30c c240
00000150: 436b b7c1 3a2f cac1 7306 d340 7406 d340
00000160: e0bd 83c1 a062 d640 23b9 ce40 33c5 2241
00000170: d718 3141 c212 2f40 ca3f ac40 68a3 0ac2
00000180: 511b fbc1 005a d63e 874f 7340 c038 0cc1
00000190: 7e53 4c40 a7e0 c640 e131 6740 38cc 9840
000001a0: cccf 1041 2b7c 093f 6bde 2441 a127 f040
000001b0: 2cc1 d6c0 553b b13f 50fa cf3e 7ee6 9740
000001c0: 50fa cf3e 9b3c 12c1 dc18 ce40 4920 75c1
000001d0: 2a2a d640 3691 b0c1 f9bf e140 7811 1c41
000001e0: 30fb 8440 6ebd 2441 cfc0 6e3e 8c06 66c1
000001f0: e96c b340 a958 9f40 a237 f340 cfb7 0141
00000200: 297b 0d41 fb67 34c0 b907 fdc0 90b0 2b41
00000210: 8aa1 e8c1 e437 c140 ee50 ca40 1383 b9c0
00000220: 747a 1140 2482 af40 361f 1dc2 d4c2 c83f
00000230: 2b92 dec1 0c5a f1c1 c212 2f40 a958 9f40
00000240: 839a 8d40 99b6 b340 ba5b 8bc0 7b10 14bf
00000250: 3e2e c540 e438 8340 d8db cfc0 e8ba 6c40
00000260: 96d0 80c0 e4ee 1c41 5379 2740 67a0 fa40
00000270: f088 a640 99b5 04c0 d718 3141 a161 1b41
00000280: 751f 34c0 50a8 9c40 3957 e740 f91d 0441
00000290: aa06 c140 31bf 923f 454a 0241 99b5 04c0
000002a0: 8796 0ac1 dc1a 0440 3a03 fac0 8c06 66c1
000002b0: a11a bf40 7ee6 9740 5e79 e440 1383 b9c0
000002c0: 097a 3041 6ebd 2441 cfc0 6e3e 40a4 9240
000002d0: 387f 2341 66be 4640 8923 46c0 942f ef40
000002e0: 7107 0e41 3cde 1740 005a d63e d357 05c0
000002f0: ea26 0440 2ac1 60c0 80ef 9f3e 310a d93e
00000300: 2b97 18c0 9938 973f 4fae 88c0 2143 9741
00000310: 4d23 4840 5607 9b41 e52e 6ac0 982c 6c40
00000320: ee34 0cc1 cddd df40 f7ac 8a41 a996 6941
00000330: e9cd 0841 2bcd a63f fef4 8e40 a996 6941
00000340: a996 6941 8f95 b240 2fe7 c2bf ea00 ad40
00000350: 9738 9abf 5ad3 0240 d2af 0240 05b9 13c0
00000360: 8c7b b440 687a 45c0 d581 8c40 fac6 12c1
00000370: 2d32 e2c0 d0fb a3c0 2e5e 8040 271c 0bc1
00000380: 40b8 ccc0 8a72 bebf f667 c7c0 7ff8 08c1
00000390: 79bd 7a40 6ad6 0dbf ebe0 c4c0 1473 b0c0
000003a0: 4b5f 8440 64e0 f4bf c2f5 173f ddbd 1a41
000003b0: 04f0 8140 ca0a 4640 6b80 bcc0 1432 0941
000003c0: ea0b 8a40 7684 05c0 78f0 8240 f08c 3ec0
000003d0: e435 cebf fd46 7440 c7e6 2b40 5ce5 9e3f
000003e0: bd38 a0c0 20bf 04c1 a506 f940 1498 bfc0
000003f0: 10b9 0a40 ef31 97c0 b7cd b1bf 077d b73f
