12esmPCA/layer2_pca20.npy (npy, 30528 bytes, 1 tensors)

array (column-major) f8 [190, 20]
00000000: 0000 0040 fcfd eebf 0000 0060 998d 18c0
00000010: 0000 0000 8f03 1fc0 0000 0000 4d07 e13f
00000020: 0000 0020 b9e4 2440 0000 0020 8d56 0440
00000030: 0000 0040 b27f 1cc0 0000 0080 4d0e 3340
00000040: 0000 0060 8413 18c0 0000 0000 16c9 19c0
00000050: 0000 0080 257d d83f 0000 00a0 1208 18c0
00000060: 0000 0020 840c 1740 0000 00a0 273b 0840
00000070: 0000 0080 5aa6 d13f 0000 00a0 adde 2640
00000080: 0000 00e0 bb0e e7bf 0000 00a0 273b 0840
00000090: 0000 00a0 273b 0840 0000 0060 3fac 1140
000000a0: 0000 0060 fb8f 14c0 0000 0040 44ec ddbf
000000b0: 0000 0080 8197 11c0 0000 00a0 eead 2740
000000c0: 0000 0060 53d6 f3bf 0000 0060 f173 ec3f
000000d0: 0000 0080 07ac 19c0 0000 0020 5dac 09c0
000000e0: 0000 00e0 455d 1640 0000 0060 1835 1840
000000f0: 0000 0040 cf07 1fc0 0000 00c0 58a5 c4bf
00000100: 0000 0060 8990 19c0 0000 0060 b2f9 eabf
00000110: 0000 0000 7d50 09c0 0000 0060 0e8b eebf
00000120: 0000 0040 a71f 1ac0 0000 0020 392b fc3f
00000130: 0000 0000 cf62 01c0 0000 0020 bf64 1bc0
00000140: 0000 0060 ce73 20c0 0000 0060 2e10 15c0
00000150: 0000 0060 fa5c 17c0 0000 0020 4660 0a40
00000160: 0000 0000 1cd4 f43f 0000 0040 b6b5 3040
00000170: 0000 0040 7c55 2140 0000 00e0 b2dd 1ac0
00000180: 0000 0000 2caf 15c0 0000 0080 9973 1d40
00000190: 0000 00a0 fb04 ddbf 0000 0040 3af8 1bc0
000001a0: 0000 00e0 62fa 01c0 0000 00e0 59c6 0bc0
000001b0: 0000 00c0 3c4d 3240 0000 0060 0baa 2e40
000001c0: 0000 00a0 b145 02c0 0000 00e0 244d 13c0
000001d0: 0000 0080 f588 10c0 0000 0000 c73f 08c0
000001e0: 0000 0000 7a45 12c0 0000 0060 5dff 17c0
000001f0: 0000 00e0 616c 1ac0 0000 0080 b743 04c0
00000200: 0000 00c0 0157 b83f 0000 0020 cce1 19c0
00000210: 0000 00a0 43c7 12c0 0000 0060 4f53 1140
00000220: 0000 0020 04e7 12c0 0000 00a0 c812 b2bf
00000230: 0000 0060 1e8b 15c0 0000 0080 1bd0 0a40
00000240: 0000 0040 01db 08c0 0000 0080 a6e2 fbbf
00000250: 0000 0060 12ac f13f 0000 0040 b9e4 2440
00000260: 0000 0000 d40c 13c0 0000 0080 76f0 d93f
00000270: 0000 0000 24f4 a23f 0000 00a0 5477 ddbf
00000280: 0000 0040 c754 f1bf 0000 0020 e468 0140
00000290: 0000 0020 1474 1cc0 0000 0020 ea17 f43f
000002a0: 0000 00c0 f8c1 3440 0000 0000 f283 3c40
000002b0: 0000 00a0 7405 11c0 0000 00a0 7405 11c0
000002c0: 0000 0060 68cf 2540 0000 00c0 d711 14c0
000002d0: 0000 00e0 fe76 16c0 0000 00c0 d179 1fc0
000002e0: 0000 0000 b64b 21c0 0000 0060 789d 0bc0
000002f0: 0000 00c0 0b32 13c0 0000 00c0 174c 4240
00000300: 0000 0080 7874 3f40 0000 0020 e6f6 0ac0
00000310: 0000 0060 4310 0ec0 0000 00e0 85d7 1240
00000320: 0000 0020 ee11 0ac0 0000 0080 fac9 16c0
00000330: 0000 00e0 7fb7 0dc0 0000 0080 1d5f 15c0
00000340: 0000 0020 d59b 1ac0 0000 00a0 8720 03c0
00000350: 0000 0020 a588 20c0 0000 0060 87e8 10c0
00000360: 0000 00a0 3eac 1140 0000 0080 267d d83f
00000370: 0000 0080 5816 05c0 0000 00a0 c54f 17c0
00000380: 0000 0080 5816 05c0 0000 0040 b9e4 2440
00000390: 0000 00a0 e115 14c0 0000 0020 ffbf 3940
000003a0: 0000 00a0 0ee3 18c0 0000 00c0 1605 3740
000003b0: 0000 0080 96e8 1ec0 0000 00e0 f8b9 1fc0
000003c0: 0000 0040 7d3c 15c0 0000 0000 0dfe 1dc0
000003d0: 0000 00e0 e368 0140 0000 0000 7860 2d40
000003e0: 0000 0000 9d0b 19c0 0000 00c0 c89b 10c0
000003f0: 0000 0020 bf64 1bc0 0000 0080 839e 1ec0
00000400: 0000 0080 d15d 20c0 0000 00c0 b325 e63f
00000410: 0000 0040 b850 2340 0000 0080 2f49 20c0
00000420: 0000 00a0 0e3a 3b40 0000 0080 b20f 19c0
00000430: 0000 0060 2e10 15c0 0000 0080 12a5 f33f
00000440: 0000 0040 64d5 f43f 0000 0040 fa5c 17c0
00000450: 0000 00a0 97a0 4440 0000 00a0 36d2 93bf
00000460: 0000 0060 4d4b 3840 0000 0000 f80f 4040
00000470: 0000 0040 789d 0bc0 0000 00c0 c89b 10c0
00000480: 0000 0000 e768 07c0 0000 00c0 75a1 1ac0
00000490: 0000 0000 5b09 0940 0000 0060 cf86 e73f
000004a0: 0000 0020 98e0 16c0 0000 0040 cf24 13c0
000004b0: 0000 00e0 8a07 0d40 0000 0020 ce5b 0fc0
000004c0: 0000 00a0 f7ed 0440 0000 0060 21bb 18c0
000004d0: 0000 0080 948d 0ec0 0000 0020 dac0 1cc0
000004e0: 0000 0000 4e1f 11c0 0000 0080 2d76 e03f
000004f0: 0000 0000 b64b 21c0 0000 0080 13fe 1ec0
00000500: 0000 0020 db25 0440 0000 0000 3de9 0dc0
00000510: 0000 0020 341d 19c0 0000 00a0 2c6a 1bc0
00000520: 0000 0040 07be 10c0 0000 00e0 59c6 0bc0
00000530: 0000 0080 c0b6 10c0 0000 0060 2d76 e03f
00000540: 0000 00e0 c731 1c40 0000 0080 2eaf 0dc0
00000550: 0000 0000 8977 1540 0000 0000 7860 2d40
00000560: 0000 0000 705c 18c0 0000 00a0 c54f 17c0
00000570: 0000 0040 7cb3 1bc0 0000 00a0 12a5 f33f
00000580: 0000 0080 c10a 21c0 0000 0000 0dfe 1dc0
00000590: 0000 00e0 e368 0140 0000 0000 6211 1ec0
000005a0: 0000 00c0 c414 1fc0 0000 00a0 406c 15c0
000005b0: 0000 00a0 4543 f63f 0000 0080 ddea 1ec0
000005c0: 0000 00e0 1a65 20c0 0000 0020 6150 f93f
000005d0: 0000 0020 e6f6 0ac0 0000 0080 13a9 2240
000005e0: 0000 0000 8977 04c0 0000 00a0 d5b0 0040
000005f0: 0000 00a0 f93a f93f 0000 00e0 414d e43f
00000600: 0000 0080 e7bf fc3f 0000 00c0 61b9 fe3f
00000610: 0000 0080 e501 2140 0000 00e0 e0d1 30c0
00000620: 0000 0080 15c3 f1bf 0000 00e0 f919 40c0
00000630: 0000 0040 bcc7 0140 0000 0020 9784 f33f
00000640: 0000 00c0 e689 1440 0000 00a0 c5a8 08c0
00000650: 0000 0040 d93e 37c0 0000 0080 76f2 30c0
00000660: 0000 00a0 204f 25c0 0000 0020 564a 02c0
00000670: 0000 0040 33e6 f2bf 0000 0080 76f2 30c0
00000680: 0000 0080 76f2 30c0 0000 00c0 f165 19c0
00000690: 0000 00c0 b5bd ed3f 0000 0020 4a6d 0ec0
000006a0: 0000 0040 e4f6 f23f 0000 0000 6b56 09c0
000006b0: 0000 0080 8889 e13f 0000 0000 5cbb 0140
000006c0: 0000 0000 be13 f0bf 0000 0040 9b2f 0240
000006d0: 0000 0020 0457 05c0 0000 00e0 cc6b 2140
000006e0: 0000 00e0 01e9 0d40 0000 0040 15f2 0640
000006f0: 0000 0080 3ce5 bebf 0000 0000 212e 1240
00000700: 0000 00a0 0b88 1240 0000 00a0 0a66 fc3f
00000710: 0000 0080 b190 0e40 0000 0080 0d6c 1940
00000720: 0000 0040 28a7 fdbf 0000 0060 f5b8 e23f
00000730: 0000 00a0 6f97 0b40 0000 0000 076c 0540
00000740: 0000 00a0 f2ba ffbf 0000 00a0 c51c ff3f
00000750: 0000 00e0 c745 b4bf 0000 0020 48c3 1fc0
00000760: 0000 0040 445e edbf 0000 00e0 32c0 e4bf
00000770: 0000 0080 1afa 0a40 0000 0080 3d16 19c0
00000780: 0000 00c0 1483 11c0 0000 0060 8001 0840
00000790: 0000 0040 ca52 febf 0000 00a0 485e 0440
000007a0: 0000 00c0 1405 1640 0000 00a0 a01a 19c0
000007b0: 0000 0080 f7a4 febf 0000 0060 fdb4 db3f
000007c0: 0000 0060 ab28 0840 0000 0000 969a 1c40
000007d0: 0000 00c0 6f1f 14c0 0000 0040 252a 1140
000007e0: 0000 0060 c64f e23f 0000 0020 7a5e 0540
000007f0: 0000 0080 32b1 f03f 0000 00e0 2f97 c8bf
-0.9685040712356567 -6.138280391693115 -7.753475189208984 0.5321412086486816 10.446724891662598 2.5422613620758057 -7.124703407287598 19.055870056152344
-6.019059658050537 -6.446372985839844 0.3826383352279663 -6.007883548736572 5.762222766876221 3.028884172439575 0.2757784128189087 11.434918403625488
-0.7205485701560974 3.028884172439575 3.028884172439575 4.418210506439209 -5.1406073570251465 -0.4675455689430237 -4.397954940795898 11.83971118927002
-1.2398256063461304 0.8891531825065613 -6.417997360229492 -3.2091619968414307 5.5910868644714355 6.05185079574585 -7.757626533508301 -0.16129598021507263
-6.391149044036865 -0.8429805636405945 -3.1643009185791016 -0.9544746279716492 -6.530911445617676 1.7605525255203247 -2.173246383666992 -6.848385334014893
-8.226183891296387 -5.265801906585693 -5.840798854827881 3.297008752822876 1.3017845153808594 16.70981216430664 8.666963577270508 -6.716502666473389
-5.4210662841796875 7.362890243530273 -0.45342913269996643 -6.992409706115723 -2.2472589015960693 -3.471851110458374 18.301708221435547 15.332118034362793
-2.2840301990509033 -4.82533597946167 -4.133749008178711 -3.0311412811279297 -4.567848205566406 -5.999379634857178 -6.605842113494873 -2.533064842224121
0.09507761895656586 -6.470505237579346 -4.694593906402588 4.331357479095459 -4.725601673126221 -0.07059911638498306 -5.385858058929443 3.3516149520874023
-3.106935977935791 -1.7428345680236816 1.104509711265564 10.446725845336914 -4.7625274658203125 0.40530169010162354 0.03701889514923096 -0.46040835976600647
-1.083197832107544 2.1762163639068604 -7.113358020782471 1.2558385133743286 20.757701873779297 28.515411376953125 -4.2553277015686035 -4.2553277015686035
10.9050931930542 -5.017424583435059 -5.616206645965576 -7.868964195251465 -8.647872924804688 -3.451889753341675 -4.798872947692871 36.59447479248047
31.45496368408203 -3.370556116104126 -3.7579410076141357 4.7104716300964355 -3.2587549686431885 -5.697244644165039 -3.714599370956421 -5.342885971069336
-6.652180194854736 -2.390883684158325 -8.266884803771973 -4.227078914642334 4.41820764541626 0.3826385736465454 -2.635910987854004 -5.827902317047119
-2.635910987854004 10.446725845336914 -5.021368503570557 25.74998664855957 -6.22173547744751 23.019878387451172 -7.727136611938477 -7.931613445281982
-5.3090715408325195 -7.498096466064453 2.176215887069702 14.68841552734375 -6.261341094970703 -4.152132987976074 -6.848385334014893 -7.65479850769043
-8.183238983154297 0.692102313041687 9.657655715942383 -8.142940521240234 27.22678565979004 -6.265329360961914 -5.265801906585693 1.2278008460998535
1.3020975589752197 -5.840798377990723 41.2546272277832 -0.019356587901711464 24.29414939880371 32.124755859375 -3.4518895149230957 -4.152132987976074
-2.9262218475341797 -6.657675743103027 3.129568099975586 0.7352063059806824 -5.719330310821533 -4.785946846008301 3.628682851791382 -3.9198267459869385
2.6161949634552 -6.18274450302124 -3.8191308975219727 -7.1883320808410645 -4.280570983886719 0.5144259929656982 -8.647872924804688 -7.74812126159668
2.518484354019165 -3.7388858795166016 -6.278519153594971 -6.8536858558654785 -4.185574531555176 -3.471851110458374 -4.178468704223633 0.5144259333610535
7.048614025115967 -3.710537910461426 5.366733551025391 14.68841552734375 -6.09027099609375 -5.827902317047119 -6.925278663635254 1.227800965309143
-8.521007537841797 -7.498096466064453 2.176215887069702 -7.516975402832031 -7.770281791687012 -5.355715274810791 1.3914238214492798 -7.729360580444336
-8.197470664978027 1.582123875617981 -3.370556116104126 9.33022689819336 -2.5583667755126953 2.0863449573516846 1.576898217201233 0.6344308257102966
1.796851634979248 1.9202592372894287 8.503704071044922 -16.81983757019043 -1.1101279258728027 -32.202938079833984 2.222527027130127 1.219870686531067
5.134669303894043 -3.0824081897735596 -23.245502471923828 -16.947120666503906 -10.654545783996582 -2.286297082901001 -1.1812012195587158 -16.947120666503906
-16.947120666503906 -6.349555015563965 0.9294079542160034 -3.8033640384674072 1.1852762699127197 -3.167196273803711 0.5480387210845947 2.2164840698242188
-1.0048198699951172 2.273245334625244 -2.6674883365631104 8.71054744720459 3.7387731075286865 2.8682045936584473 -0.12068536877632141 4.545047760009766
4.632856845855713 1.7749124765396118 3.820651054382324 6.355520248413086 -1.8533098697662354 0.5850779414176941 3.4489433765411377 2.6777477264404297
-1.983141541481018 1.9445244073867798 -0.07918976992368698 -7.940704822540283 -0.9177571535110474 -0.6484617590904236 3.3721208572387695 -6.271718978881836
-4.378008842468262 3.0007331371307373 -1.8952124118804932 2.546036958694458 5.504961967468262 -6.276003360748291 -1.9152750968933105 0.43292173743247986
3.0198581218719482 7.150962829589844 -5.030699729919434 4.2911577224731445 0.5722381472587585 2.6711313724517822 1.0432610511779785 -0.19211386144161224
