12esmPCA/layer6_pca100.npy (npy, 76128 bytes, 1 tensors)

array (column-major) f4 [190, 100]
000000 ec e0 09 be e6 33 9b 40 82 7c 02 41 ee 4b d4 c0
       -0.13464707 4.8500853 8.155397 -6.6342688
000010 4b da 32 c1 6f ec ad c0 ab 41 e7 40 20 cd 00 c0
       -11.178294 -5.4351115 7.226766 -2.0125198
000020 bc 11 a4 40 54 91 59 40 d8 6a cc 40 17 dd d7 bf
       5.127165 3.3994951 6.3880424 -1.6864346
000030 5f c2 97 c0 cc 07 60 c0 12 76 1d c0 69 1f 29 c1
       -4.742477 -3.500476 -2.4603314 -10.5701685
000040 93 9a a4 c0 ce 07 60 c0 ce 07 60 c0 09 4f b3 c0
       -5.143869 -3.5004764 -3.5004764 -5.603398
000050 97 c4 13 40 9f 1d 34 c0 d3 32 61 3f c9 47 f7 c0
       2.308874 -2.814308 0.87968177 -7.727513
000060 ae 72 ea bf 76 e2 ec c0 57 2e 01 41 ab 73 7f 40
       -1.8316247 -7.402644 8.073813 3.9914348
000070 1e 65 d3 c0 39 b8 06 c0 c4 16 0d 41 34 c3 20 c0
       -6.6060934 -2.104994 8.818058 -2.5119143
000080 2b e5 80 3d 5c e0 c8 40 4c 57 67 40 a1 25 b3 bf
       0.0629371 6.2773876 3.6147032 -1.3995858
000090 d2 92 e7 40 6f d4 4a 3f 8f ee 3b c0 c7 e8 f0 40
       7.2366724 0.792304 -2.9364355 7.528415
0000a0 88 c3 49 41 22 64 19 40 de ba 82 40 cd 40 c8 bf
       12.610237 2.3967366 4.085311 -1.5644776
0000b0 d5 69 6e c0 ab dc 3e c1 2a 3b d6 c0 e4 68 a7 40
       -3.7252095 -11.928874 -6.694722 5.231554
0000c0 95 63 01 40 af aa ef bf 29 31 99 3f d2 32 94 3f
       2.021703 -1.8723963 1.1968127 1.1578009
0000d0 ae 15 38 c0 fb ce 8a bf c3 66 6b c1 95 59 1b c1
       -2.8763232 -1.0844415 -14.712588 -9.709371
0000e0 1c a7 89 bf 1d 38 06 40 9a 2b db 3f 85 31 99 bf
       -1.0754123 2.097175 1.7122681 -1.1968237
0000f0 f4 9f 8c 40 be a5 a0 40 65 dc 3d 40 9c 0b 6c 40
       4.3945255 5.020232 2.9665768 3.6882086
000100 58 2f 1b c0 22 df 81 40 8d b6 74 3e 38 b5 88 c0
       -2.4247646 4.058488 0.23897763 -4.2721214
000110 d1 5c cc 40 7c ca b2 c0 c9 60 48 40 cc 33 c7 c0
       6.38633 -5.5872173 3.1309073 -6.225073
000120 82 8d 56 3f 01 f3 5c c0 79 0d cc c0 57 da 32 c1
       0.83809674 -3.4523318 -6.3766446 -11.178306
000130 7e 79 88 40 ef 75 66 c0 ab ea 94 c0 e5 ed 36 c0
       4.2648306 -3.600948 -4.653646 -2.85827
000140 ff 79 7f c0 b3 86 0a 40 c8 1d 4c 40 35 61 9d c0
       -3.991821 2.1644714 3.1893177 -4.918116
000150 d7 c0 8d c1 73 3c ad c1 c1 08 3a 41 c1 08 3a 41
       -17.71916 -21.654516 11.627137 11.627137
000160 ca 51 46 c1 b9 c4 e6 bf cb 4d c2 40 3c 23 f6 40
       -12.394968 -1.8028785 6.071996 7.691801
000170 a3 5b 64 41 8f 43 c0 3e 3f c3 9f 40 d2 5a d9 c1
       14.272372 0.37551543 4.9925838 -27.169346
000180 fe b3 c8 c1 88 c8 a4 bf 50 a4 62 40 ad 9f c1 c0
       -25.087887 -1.2873697 3.5412788 -6.0507417
000190 a0 bb 55 bf 05 1d 01 3e 85 49 d7 bf b8 83 59 40
       -0.8348942 0.12608726 -1.6819311 3.3986645
0001a0 fa b8 ed 40 f9 be d7 3e 28 ad 3c 41 6a fe df 40
       7.42883 0.42137888 11.792274 6.9998064
0001b0 15 4f b3 c0 d3 6a cc 40 fe 10 b2 bf 64 b1 02 3f
       -5.6034036 6.38804 -1.3911436 0.51051927
0001c0 fe 10 b2 bf 57 da 32 c1 66 d3 a7 40 d5 8a ed c0
       -1.3911436 -11.178306 5.2445555 -7.4231973
0001d0 7e 95 e1 40 e1 0b 81 c1 20 dd a0 40 c7 33 51 41
       7.0494986 -16.1308 5.026993 13.075141
0001e0 6a e0 97 3d 7d 84 35 41 b2 86 0a 40 e0 a5 38 c1
       0.074158505 11.344846 2.1644711 -11.540497
0001f0 f7 14 72 40 a5 0e e4 3f c5 e8 f0 40 de cc ec 40
       3.7825296 1.7816969 7.5284142 7.400008
000200 33 67 2b 41 18 61 c5 c0 85 6e 0b c1 09 18 5e 41
       10.712695 -6.1681023 -8.714482 13.880868
000210 84 f8 a6 c1 fb ef ac bf 22 64 19 40 18 95 0f c0
       -20.871346 -1.3510736 2.3967366 -2.243475
000220 7c 90 06 41 e0 ba 82 40 e6 d6 f2 c1 4f 36 e9 3f
       8.4102745 4.085312 -30.35493 1.8219699
000230 97 88 a2 c1 0a b8 d2 c1 8f 43 c0 3e a5 0e e4 3f
       -20.316694 -26.339863 0.37551543 1.7816969
000240 d7 4b a5 bf 2b 8e a1 40 7a 98 61 bf a4 c0 81 40
       -1.291377 5.0486045 -0.88123286 4.0547657
000250 37 00 8b 40 b8 5e 0b 40 3b 36 b7 c0 3a f3 1a 40
       4.343776 2.1776562 -5.72537 2.4210954
000260 98 c6 cb c0 3c 9e 3a 41 39 57 5e 40 aa 76 ff 40
       -6.3679924 11.663631 3.4740736 7.9832354
000270 c6 10 ed 40 cf 99 3b 40 a3 5b 64 41 f5 9f bf 40
       7.4082975 2.9312627 14.272372 5.988276
000280 90 7e 54 bf 31 93 f7 40 ae 7f f7 40 53 9a 0e 41
       -0.8300562 7.7367177 7.734336 8.912677
000290 1c 5f ec 40 ff ce 8a bf c9 9b 60 40 cf 99 3b 40
       7.38661 -1.084442 3.5095084 2.9312627
0002a0 4d ff e7 c0 e4 14 be 40 8f a4 b6 c0 e0 a5 38 c1
       -7.2499146 5.94005 -5.7075877 -11.540497
0002b0 15 3d a9 bf 64 b1 02 3f ad 2b cf 40 18 95 0f c0
       -1.3221766 0.51051927 6.4740815 -2.243475
0002c0 57 3a 49 41 7d 84 35 41 b2 86 0a 40 4d 3a 7e c0
       12.576743 11.344846 2.1644711 -3.9723084
0002d0 e4 56 53 41 05 91 23 3f bb a3 32 be eb 52 dd 40
       13.208714 0.6389316 -0.1744527 6.916372
0002e0 48 5e 2c 41 1e 7f 09 41 89 c8 a4 bf af ec fe 3d
       10.773018 8.593534 -1.2873698 0.124474876
0002f0 16 96 46 40 e6 a1 aa bf 1e 6b 3e 3f 33 45 8d 40
       3.1029105 -1.3330657 0.743822 4.414697
000300 0b 97 25 c0 1a d5 ba 40 49 13 18 3d fd 17 6a 41
       -2.587344 5.8385134 0.037127767 14.6308565
000310 a5 79 83 40 f0 99 df 40 a2 c5 45 c0 87 82 24 40
       4.108599 6.987541 -3.0901875 2.5704668
000320 f9 9b dc c0 f5 c3 41 41 79 7c 92 41 97 5b 47 41
       -6.8940396 12.110341 18.310778 12.459861
000330 da 98 04 41 31 95 7c c0 24 9d fc 40 9b 5b 47 41
       8.287317 -3.946606 7.894182 12.459865
000340 9b 5b 47 41 91 e4 8f 40 f6 1b 53 bf ca 7f 4f 40
       12.459865 4.496651 -0.8246454 3.2421746
000350 dd 6c a1 bf 69 f3 45 bf 59 73 71 3f 94 3f 40 c0
       -1.2611347 -0.7732454 0.9431663 -3.0038805
000360 5f 59 81 40 1d 2b 98 c0 b4 d5 09 40 4c b2 08 c1
       4.0421596 -4.755263 2.1536684 -8.5435295
000370 b6 3b da c0 4a 99 83 c0 1b 46 67 40 c0 ef d9 c0
       -6.819789 -4.112462 3.613654 -6.8105164
000380 4d 2f 9a c0 7b 2f 66 3f 4d f4 d4 c0 60 c6 e5 c0
       -4.818274 0.899162 -6.654822 -7.1804657
000390 1a 9d e4 40 a2 32 4c c0 31 7e aa c0 3f 25 97 c0
       7.1441774 -3.1905904 -5.327904 -4.7232966
0003a0 39 48 05 41 1e 3e 92 bf ce 03 96 3f 96 c8 dd 40
       8.3301325 -1.1425207 1.1719911 6.9307356
0003b0 8c 9c e4 3e 11 0c 96 40 ed 96 cc c0 3f 8d c3 40
       0.44650686 4.688973 -6.3934236 6.110992
0003c0 d7 97 10 40 11 ec 8a 3f f6 5c e9 40 b4 d2 83 c0
       2.2592676 1.0853292 7.292598 -4.1194706
0003d0 d8 a3 9d bf 87 1d 1e bc 4e e6 cd 40 18 2c 32 40
       -1.2315626 -0.009650595 6.4343634 2.7839413
0003e0 cc e7 98 c0 95 6e 26 c1 7c a4 d0 40 ff c1 b3 c0
       -4.7782955 -10.401998 6.5200787 -5.617431
0003f0 96 73 a7 40 1e 78 89 c0 14 99 f7 bf e0 a7 5a 3f
       5.2328596 -4.2959127 -1.9343591 0.85412407
