12esmPCA/layer7_pca190.npy (npy, 144528 bytes, 1 tensors)

array (column-major) f4 [190, 190]
0	0xc12b78b7	-10.716971
1	0xc10854c6	-8.520697
2	0x40f1e744	7.5594807
3	0xc0a6f69b	-5.217603
4	0xc0b74411	-5.727059
5	0xc1356780	-11.337769
6	0x40bd6c61	5.91948
7	0xc19da061	-19.70331
8	0x40e40f36	7.126857
9	0x40091f6d	2.142543
10	0x3e8df621	0.27726844
11	0x40139b21	2.3063433
12	0xc1248dc6	-10.284613
13	0xc112472a	-9.142374
14	0xc0cde7e1	-6.4345555
15	0xbff0d078	-1.881362
16	0xc030566e	-2.7552752
17	0xc112472a	-9.142374
18	0xc112472a	-9.142374
19	0xc0d0c4cc	-6.524023
20	0x40308cb6	2.7585883
21	0xbf76a055	-0.963384
22	0x4096c695	4.711741
23	0xbf8cbdde	-1.0995443
24	0xc0379a25	-2.8687832
25	0xbd97eab6	-0.074178144
26	0x3e2b2fc5	0.16717441
27	0x4079d499	3.903601
28	0xc0bdaf2d	-5.927634
29	0xc0809555	-4.018229
30	0x4112b4c1	9.169129
31	0x402bc47e	2.683868
32	0x407c854f	3.9456365
33	0x4098df6e	4.777274
34	0x40ec6033	7.386743
35	0xc11ccde6	-9.800268
36	0x4104db8f	8.303603
37	0x3f3b3002	0.7312013
38	0xbd959449	-0.07303674
39	0x40e1de2d	7.058371
40	0x411b7744	9.716618
41	0x40c3dd43	6.1207595
42	0xbfd669c1	-1.6751024
43	0xc12d3032	-10.824266
44	0x3fff4e40	1.9945755
45	0xc16b225c	-14.6958885
46	0xc108f649	-8.560128
47	0x40ebb0c9	7.36533
48	0x409e0264	4.937792
49	0xc08a0295	-4.312815
50	0xbeeae1ec	-0.4587549
51	0x408990d4	4.298929
52	0xbebf0476	-0.3730809
53	0x409974b9	4.7954984
54	0xc11633a9	-9.387612
55	0xc068df16	-3.638616
56	0x40a302b2	5.094079
57	0x40115657	2.2708948
58	0x40cb3bfb	6.351072
59	0x40e5d0c0	7.181732
60	0x3fef7b0a	1.8709424
61	0x409a22c0	4.816742
62	0x40a9a0ae	5.300864
63	0x402d0306	2.7033095
64	0xbfbba814	-1.4660668
65	0x4061a0c8	3.5254383
66	0x401eaa4c	2.479144
67	0xbf08a964	-0.5338347
68	0x40f543d9	7.664532
69	0xbf3b385f	-0.7313289
70	0x409f3e8c	4.976385
71	0xc09d0754	-4.9071445
72	0x4077006e	3.8594012
73	0x3f54c516	0.8311323
74	0xc011482b	-2.2700298
75	0xc0b7440c	-5.7270565
76	0x40d163b9	6.543423
77	0xc041c01e	-3.027351
78	0xbf8c2733	-1.0949463
79	0xc043bb0c	-3.0582914
80	0xbf560c30	-0.83612347
81	0x408a9c64	4.3315907
82	0x40a2d834	5.088892
83	0x40235fe1	2.552727
84	0xc1035006	-8.207037
85	0xc1209600	-10.036621
86	0x4088c833	4.2744384
87	0x4088c833	4.2744384
88	0xc0b5daf3	-5.682977
89	0x3f95f6e5	1.1715971
90	0x4098b630	4.7722397
91	0x4110d75c	9.052578
92	0x415985aa	13.595133
93	0xc026aaf5	-2.6041844
94	0x40d04e13	6.5095305
95	0xc17e54c7	-15.895698
96	0xc1591608	-13.567879
97	0x40004eba	2.004805
98	0x3fdaf125	1.7104841
99	0xc090fdce	-4.530982
100	0xbdb485ad	-0.08814559
101	0x4072ae46	3.7918868
102	0x405520a6	3.3301177
103	0x40bc82a7	5.890949
104	0x41107153	9.027667
105	0xc19519d8	-18.637619
106	0x41217159	10.090173
107	0x40d7d01e	6.744155
108	0xc0d0c4cc	-6.524023
109	0x3e8df640	0.27726936
110	0x3fd09e87	1.6298379
111	0x3fbc240e	1.4698503
112	0x3fd09e87	1.6298379
113	0xc0b7440c	-5.7270565
114	0x40d015f6	6.502681
115	0xc1cb2e7b	-25.397696
116	0x3fe76e9f	1.8080634
117	0xc14ae715	-12.6814165
118	0x40844a89	4.1340985
119	0x4107be41	8.483949
120	0x3f11e879	0.5699535
121	0x41435c3e	12.21002
122	0x408a9c64	4.3315907
123	0xc10c351a	-8.762964
124	0x40968f8b	4.7050223
125	0x40963151	4.69352
126	0x40e1de2f	7.058372
127	0x40fd35e0	7.9128265
128	0x4127e624	10.493687
129	0xc1020856	-8.127035
130	0xbf5c4d24	-0.8605521
131	0x4129aa55	10.604085
132	0xc140927f	-12.035766
133	0x4011d8d1	2.2788584
134	0x40c3dd42	6.120759
135	0x3d06c9b2	0.032907195
136	0xc1a81f5e	-21.015316
137	0xbfd669bf	-1.6751021
138	0xc189bde4	-17.21772
139	0xbf71a33a	-0.9438969
140	0xc1238f9e	-10.222563
141	0xc14e1d9c	-12.882229
142	0xc026aaf6	-2.6041846
143	0x4096314f	4.693519
144	0x400a6579	2.1624434
145	0x4054aaca	3.3229241
146	0xc0d4b80e	-6.6474676
147	0xc08c8442	-4.3911448
148	0x409e535a	4.9476748
149	0x3fc27987	1.5193337
150	0xc09c88b2	-4.8916864
151	0x40b4305c	5.6309032
152	0xc09df048	-4.935581
153	0x411d5e6f	9.835555
154	0x3f09bce1	0.5380383
155	0x41014b7d	8.08093
156	0xc04187c0	-3.0239105
157	0x405ffbe2	3.4997487
158	0x415985a8	13.595131
159	0x40ba4156	5.8204756
160	0xc0ca6c05	-6.325686
161	0x4100af8b	8.042857
162	0x410a2f0c	8.636486
163	0x41100111	9.00026
164	0x403da14d	2.96297
165	0x409974b9	4.7954984
166	0x40bacda6	5.8376036
167	0x405ffbe2	3.4997487
168	0xc11ae07f	-9.679809
169	0x40bd2f4a	5.9120226
170	0xc1175dd8	-9.460411
171	0xc10c351a	-8.762964
172	0x4015b5a8	2.3392124
173	0x3fbc240e	1.4698503
174	0x40d017bc	6.5028973
175	0x3d06c9b5	0.032907207
176	0x41114059	9.07821
177	0x41435c3d	12.210019
178	0x408a9c64	4.3315907
179	0x401310fc	2.2979116
180	0x4121c9cd	10.111768
181	0xbe371a0a	-0.17881027
182	0xc17891b0	-15.535568
183	0x40da53ab	6.8227134
184	0x4127c68c	10.485973
185	0xc1abf1eb	-21.493124
186	0x40004eba	2.004805
187	0xc1521cbd	-13.132016
188	0x40495709	3.1459372
189	0xc12a2a5c	-10.635342
190	0x408a7c09	4.327641
191	0x413772e9	11.465554
192	0x403b1afc	2.923522
193	0xbf781732	-0.96910393
194	0xc0014c32	-2.0202756
195	0x41255c81	10.335084
196	0x3ff366f8	1.9015799
197	0x41855b67	16.66963
198	0xbfa7bbc8	-1.3104181
199	0x3e4f204b	0.20227163
200	0x403b6e8d	2.9286225
201	0xc01b237b	-2.4240406
202	0x410278a8	8.154457
203	0x410a1c65	8.631932
204	0x40d9b5bb	6.803434
205	0xc0a6f934	-5.2179203
206	0x3ee70123	0.45118055
207	0x410a1c64	8.631931
208	0x410a1c64	8.631931
209	0x401d2b3a	2.4557633
210	0x3e85e242	0.26149184
211	0xbf4a5a20	-0.7904377
212	0xc01cda4c	-2.4508238
213	0xc08d4856	-4.41508
214	0x3fcefb7a	1.6170495
215	0xc0ec4a41	-7.384064
216	0x40f43b88	7.632267
217	0x404796b8	3.1185741
218	0xbe93f315	-0.28896394
219	0xc0a325dc	-5.0983715
220	0x3f108596	0.56453836
221	0xc0c2dd9f	-6.0895534
222	0xbf75bd3e	-0.95991886
223	0x3e504f81	0.20342828
224	0xc018df1c	-2.3886175
225	0x400acfdb	2.1689365
226	0x3f006e93	0.5016872
227	0xc0626549	-3.537432
228	0xbf3a4b32	-0.7277099
229	0x409906b7	4.7820697
230	0x4082d36c	4.0883083
231	0xc042f9e6	-3.0465026
232	0x409e4636	4.9460707
233	0x3fce139c	1.6099734
234	0xc09700f2	-4.7188654
235	0xc0901ee4	-4.503771
236	0xc0a4a412	-5.145028
237	0xbf3f79ef	-0.7479543
238	0xc08733f7	-4.2250934
239	0xbc1eab80	-0.0096844435
240	0x3f7221db	0.9458291
241	0xc0439da7	-3.0564973
242	0xbebab4c2	-0.36466032
243	0xc06f3c4e	-3.7380557
244	0xc158b86a	-13.545023
245	0xc057906e	-3.3681903
246	0xc093fa1d	-4.6242814
247	0x3fcf1147	1.6177148
248	0x402472ff	2.5695188
249	0xc0d33435	-6.600123
250	0x3fd3f323	1.6558574
251	0x3f75c475	0.96002895
252	0xbf778274	-0.9668343
253	0xbfbe0743	-1.4845966
254	0xc03c4235	-2.941541
255	0x3fdd734e	1.7300813
