12esmPCA/layer8_pca190.npy (npy, 144528 bytes, 1 tensors)

array (column-major) f4 [190, 190]
0	0x4108a630	8.540573
1	0x41b9132d	23.134363
2	0xbfcac2c6	-1.584069
3	0x4114be99	9.296533
4	0x4001fbf3	2.0310028
5	0x41475326	12.4578
6	0xc02e448a	-2.7229333
7	0x41e9da79	29.231676
8	0xc0bd5c87	-5.917545
9	0xc0458054	-3.0859575
10	0xbfe1dd8b	-1.7645735
11	0xbf856d27	-1.0423936
12	0x4142f0d6	12.183798
13	0x415752d2	13.45772
14	0x415cf418	13.809593
15	0xc07bde11	-3.9354289
16	0x40c78e12	6.2360926
17	0x415752d2	13.45772
18	0x415752d2	13.45772
19	0x40578782	3.3676457
20	0x4005a2df	2.0880659
21	0x3fa948b3	1.3225311
22	0xc0927153	-4.5763335
23	0xc0457fbd	-3.0859215
24	0x3ec7788e	0.38959163
25	0xc0aff568	-5.498707
26	0xbf598d96	-0.8498167
27	0x3f136e3d	0.57590085
28	0xbfa938de	-1.322048
29	0xc06867c9	-3.6313345
30	0xc0857b8d	-4.171332
31	0xc0925d21	-4.5738683
32	0xc01fbfd8	-2.4960842
33	0xc00571b8	-2.0850658
34	0xc0ac6b57	-5.388103
35	0x40b14daa	5.5407305
36	0xc070ddf7	-3.7635477
37	0xc0152a9f	-2.3307264
38	0x4021f9cd	2.5308716
39	0xbfb6aae9	-1.4270908
40	0xc042ca5e	-3.0436015
41	0xc0b5818e	-5.672065
42	0x4043897a	3.055266
43	0x40a1d240	5.0569153
44	0xc0861c6b	-4.190969
45	0xbede5fce	-0.43432468
46	0xc027e536	-2.623365
47	0xc07e566b	-3.9740245
48	0xc0b9754e	-5.7955694
49	0x3f9d921e	1.2310216
50	0x40b1aa4d	5.5520387
51	0xbf29e45b	-0.6636407
52	0x406aad2b	3.6668193
53	0xc086ab30	-4.208397
54	0xc0fe324f	-7.943641
55	0xbfd12163	-1.6338314
56	0xc0479ee2	-3.1190724
57	0xbfbc7d65	-1.4725767
58	0xbe09d9a4	-0.1346193
59	0xc10018d8	-8.006065
60	0xbdc46aff	-0.095907204
61	0xc0493c73	-3.1443145
62	0xbfe8a522	-1.8175395
63	0xc06ec60d	-3.730838
64	0xc05b0cc8	-3.422655
65	0x3fa393d8	1.2779493
66	0xc0cf40f9	-6.476681
67	0xc07356ff	-3.8021848
68	0xc081f94a	-4.061681
69	0xc0203a86	-2.503572
70	0xc04f4ba3	-3.2389915
71	0xbfa931c5	-1.3218313
72	0xc08e8374	-4.4535465
73	0xc0b3b24e	-5.6155157
74	0x3f074314	0.5283673
75	0x4001fbf3	2.0310028
76	0xc086ec72	-4.216363
77	0xc075bb89	-3.8395712
78	0xc08a340f	-4.318855
79	0xbffea21b	-1.9893221
80	0xc07d48f5	-3.957578
81	0xbfcae603	-1.5851444
82	0xbfd2c1cb	-1.6465391
83	0xc04952e7	-3.145685
84	0xc12c315a	-10.762049
85	0xc137c47f	-11.485473
86	0x40f11324	7.5335865
87	0x40f11325	7.533587
88	0xc086969c	-4.205885
89	0xc0f691bb	-7.7052894
90	0x3e3c5e3f	0.18395327
91	0xc09069dd	-4.512923
92	0xbf8c3644	-1.095406
93	0x40512018	3.2675838
94	0xbe526ac5	-0.20548542
95	0xc11c4e51	-9.76912
96	0xc129c22d	-10.609906
97	0xc015da6d	-2.3414567
98	0xbe929d5b	-0.28635678
99	0xc0aef522	-5.4674234
100	0x405f04c0	3.484665
101	0xc00eed08	-2.2332172
102	0xc01ea8f5	-2.4790623
103	0x3f244949	0.64174324
104	0xc0564e0a	-3.3485131
105	0x42046262	33.096077
106	0xc0357ff1	-2.835934
107	0xc099b2b8	-4.8030663
108	0x4057877f	3.367645
109	0xbfe1dd98	-1.764575
110	0xc08f4dc5	-4.4782434
111	0x3dbbd5d2	0.09171642
112	0xc08f4dc5	-4.4782434
113	0x4001fbf3	2.0310028
114	0xc0896254	-4.293253
115	0x42054288	33.314972
116	0xbf89d1a9	-1.0767108
117	0xc0b9727d	-5.7952256
118	0xbfb69093	-1.426287
119	0xc00b8395	-2.1799061
120	0xbff18296	-1.8867977
121	0xbfc58a74	-1.5432878
122	0xbfcae603	-1.5851444
123	0xc0718dfb	-3.7742908
124	0xc08b07d8	-4.3447075
125	0xc09656e0	-4.698105
126	0xbfb6aaec	-1.4270911
127	0xbf86c25e	-1.0528066
128	0xc080af9f	-4.021438
129	0x4131df90	11.117081
130	0xc11089c7	-9.033637
131	0xc00dad92	-2.213719
132	0xc12fb6cf	-10.982131
133	0xbf8ddcd8	-1.1083021
134	0xc0b5818e	-5.672065
135	0xc05d0316	-3.4533134
136	0x4230c88f	44.195858
137	0x40438979	3.0552657
138	0xc11fa0ab	-9.976726
139	0xc01a5d55	-2.4119465
140	0xc11fa490	-9.977676
141	0xc133924e	-11.223219
142	0x40512019	3.267584
143	0xc09656e0	-4.698105
144	0xc080c5fb	-4.0241675
145	0xc06bc941	-3.6841586
146	0x408f3a3a	4.4758577
147	0x3f1414ab	0.57844037
148	0xc0097d03	-2.148255
149	0xbf7fcf06	-0.9992527
150	0xbf95f4a4	-1.1715283
151	0xc0dcae90	-6.896309
152	0x3f727cdf	0.9472179
153	0xc08a4d40	-4.32193
154	0x3fcdd926	1.6081893
155	0xc07be6ed	-3.9359696
156	0x415801f1	13.500474
157	0xc0ad9585	-5.424502
158	0xbf8c363f	-1.0954055
159	0xbfdbce71	-1.7172376
160	0x407623af	3.845928
161	0xc0b769b7	-5.7316546
162	0x3e878a9c	0.26472938
163	0xbf00c997	-0.503076
164	0x416068eb	14.025615
165	0xc086ab32	-4.208398
166	0xc0704d4d	-3.754718
167	0xc0ad9585	-5.424502
168	0x3fc507ef	1.5393046
169	0xc063a0f4	-3.5566988
170	0x406b44fc	3.6760855
171	0xc0718dfb	-3.7742908
172	0xbf73b705	-0.9520114
173	0x3dbbd5d2	0.09171642
174	0xc00eabc7	-2.2292345
175	0xc05d0316	-3.4533134
176	0x3f56112d	0.8361996
177	0xbfc58a75	-1.5432879
178	0xbfcae603	-1.5851444
179	0xc04d13ec	-3.204341
180	0xc01eade8	-2.4793644
181	0x400691d3	2.1026504
182	0x410906a4	8.564121
183	0xbf390c66	-0.72284544
184	0xc0814a27	-4.040302
185	0x4235d94c	45.462204
186	0xc015da6d	-2.3414567
187	0x41811539	16.135363
188	0xc04c5586	-3.19272
189	0x4120bfc3	10.046817
190	0xc08257de	-4.073226
191	0xbfa72f9a	-1.3061402
192	0x40e258f6	7.0733595
193	0xc097c270	-4.742485
194	0xc07ee986	-3.9830031
195	0xc056de25	-3.3573086
196	0x407d5176	3.958097
197	0xc0c72cc7	-6.224216
198	0x408aa051	4.33207
199	0x3ee87940	0.45405006
200	0x400b450c	2.1760893
201	0x3f940d16	1.1566494
202	0xc0ab541a	-5.3540163
203	0xc056ec80	-3.3581848
204	0xc0173135	-2.3623784
205	0xc082b146	-4.08414
206	0xc070dec3	-3.7635963
207	0xc056ec80	-3.3581848
208	0xc056ec80	-3.3581848
209	0xc030eb55	-2.7643635
210	0x3ef8341b	0.48477253
211	0xbf8089e8	-1.0042086
212	0x4040ef41	3.014603
213	0xc03f0bd5	-2.9850972
214	0xbfff1fa0	-1.9931526
215	0xc088fbaa	-4.2807207
216	0x4071a234	3.775525
217	0x4060d98d	3.5132782
218	0xc0c73619	-6.2253537
219	0xc02514de	-2.5793986
220	0x410484d4	8.282429
221	0xbee50cde	-0.4473638
222	0x4040a22e	3.0098987
223	0x409e208e	4.941474
224	0x408cec1f	4.4038234
225	0xc097357c	-4.725279
226	0x40d43877	6.6318927
227	0xbf2c49a8	-0.6729989
228	0xc0079163	-2.1182487
229	0x409a7020	4.826187
230	0x41233706	10.200933
231	0x4016ef95	2.358373
232	0x3fa3ea0b	1.2805799
233	0xc0b61910	-5.6905594
234	0xbfec5cce	-1.8465822
235	0xc1660bf2	-14.377916
236	0xc1364d2c	-11.393841
237	0x408d383b	4.413114
238	0x4005541f	2.0832593
239	0xc086485b	-4.1963325
240	0xbfc0dcd9	-1.5067397
241	0x3fe7ca8b	1.8108686
242	0xc00ff65b	-2.2494113
243	0x40753124	3.8311243
244	0xc183a553	-16.455725
245	0xc08be0ba	-4.3711824
246	0x40067778	2.1010418
247	0x4025da42	2.5914464
248	0x40ef219d	7.472853
249	0x40354e79	2.8329146
250	0x3f53520f	0.82547086
251	0x409fce7b	4.993955
252	0x40638dec	3.5555372
253	0x3ff7fa84	1.9373326
254	0xbfea7e73	-1.8319839
255	0x403b8d31	2.9304926
