esmScripts/oldData/12esmPCA/layer8_pca100.npy (npy, 152128 bytes, 1 tensors)

array (column-major) f8 [190, 100]
00000000: 0000 0000 c614 2140 0000 00a0 6522 3740
00000010: 0000 00c0 5858 f9bf 0000 0020 d397 2240
00000020: 0000 0060 7e3f 0040 0000 00c0 64ea 2840
00000030: 0000 0040 91c8 05c0 0000 0020 4f3b 3d40
00000040: 0000 00e0 90ab 17c0 0000 0080 0ab0 08c0
00000050: 0000 0060 b13b fcbf 0000 00e0 a4ad f0bf
00000060: 0000 00c0 1a5e 2840 0000 0040 5aea 2a40
00000070: 0000 0000 839e 2b40 0000 0020 c27b 0fc0
00000080: 0000 0040 c2f1 1840 0000 0040 5aea 2a40
00000090: 0000 0040 5aea 2a40 0000 0040 f0f0 0a40
000000a0: 0000 00e0 5bb4 0040 0000 0060 1629 f53f
000000b0: 0000 0060 2a4e 12c0 0000 00a0 f7af 08c0
000000c0: 0000 00c0 11ef d83f 0000 0000 adfe 15c0
000000d0: 0000 00c0 b231 ebbf 0000 00a0 c76d e23f
000000e0: 0000 00c0 1b27 f5bf 0000 0020 f90c 0dc0
000000f0: 0000 00a0 71af 10c0 0000 0020 a44b 12c0
00000100: 0000 0000 fbf7 03c0 0000 0000 37ae 00c0
00000110: 0000 00e0 6a8d 15c0 0000 0040 b529 1640
00000120: 0000 00e0 be1b 0ec0 0000 00e0 53a5 02c0
00000130: 0000 00a0 393f 0440 0000 0020 5dd5 f6bf
00000140: 0000 00c0 4b59 08c0 0000 00c0 31b0 16c0
00000150: 0000 0040 2f71 0840 0000 0000 483a 1440
00000160: 0000 0060 8dc3 10c0 0000 00c0 f9cb dbbf
00000170: 0000 00c0 a6fc 04c0 0000 0060 cdca 0fc0
00000180: 0000 00c0 a92e 17c0 0000 00c0 43b2 f33f
00000190: 0000 00a0 4935 1640 0000 0060 8b3c e5bf
000001a0: 0000 0060 a555 0d40 0000 0000 66d5 10c0
000001b0: 0000 00e0 49c6 1fc0 0000 0060 2c24 fabf
000001c0: 0000 0040 dcf3 08c0 0000 00a0 ac8f f7bf
000001d0: 0000 0080 343b c1bf 0000 0000 1b03 20c0
000001e0: 0000 00e0 5f8d b8bf 0000 0060 8e27 09c0
000001f0: 0000 0040 a414 fdbf 0000 00a0 c1d8 0dc0
00000200: 0000 0000 9961 0bc0 0000 0000 7b72 f43f
00000210: 0000 0020 1fe8 19c0 0000 00e0 df6a 0ec0
00000220: 0000 0040 293f 10c0 0000 00c0 5007 04c0
00000230: 0000 0060 74e9 09c0 0000 00a0 3826 f5bf
00000240: 0000 0080 6ed0 11c0 0000 00c0 4976 16c0
00000250: 0000 0080 62e8 e03f 0000 0060 7e3f 0040
00000260: 0000 0040 8edd 10c0 0000 0020 71b7 0ec0
00000270: 0000 00e0 8146 11c0 0000 0060 43d4 ffbf
00000280: 0000 00a0 1ea9 0fc0 0000 0060 c05c f9bf
00000290: 0000 0060 3958 fabf 0000 00e0 5c2a 09c0
000002a0: 0000 0040 2b86 25c0 0000 00e0 8ff8 26c0
000002b0: 0000 0080 6422 1e40 0000 00a0 6422 1e40
000002c0: 0000 0080 d3d2 10c0 0000 0060 37d2 1ec0
000002d0: 0000 00e0 c78b c73f 0000 00a0 3b0d 12c0
000002e0: 0000 0080 c886 f1bf 0000 0000 0324 0a40
000002f0: 0000 00a0 584d cabf 0000 0020 ca89 23c0
00000300: 0000 00a0 4538 25c0 0000 00a0 4dbb 02c0
00000310: 0000 0060 ab53 d2bf 0000 0040 a4de 15c0
00000320: 0000 0000 98e0 0b40 0000 0000 a1dd 01c0
00000330: 0000 00a0 1ed5 03c0 0000 0020 2989 e43f
00000340: 0000 0040 c1c9 0ac0 0000 0040 4c8c 4040
00000350: 0000 0020 feaf 06c0 0000 0000 5736 13c0
00000360: 0000 00e0 eff0 0a40 0000 0000 b33b fcbf
00000370: 0000 00a0 b8e9 11c0 0000 0040 ba7a b73f
00000380: 0000 00a0 b8e9 11c0 0000 0060 7e3f 0040
00000390: 0000 0080 4a2c 11c0 0000 0000 51a8 4040
000003a0: 0000 0020 353a f1bf 0000 00a0 4f2e 17c0
000003b0: 0000 0060 12d2 f6bf 0000 00a0 7270 01c0
000003c0: 0000 00c0 5230 febf 0000 0080 4eb1 f8bf
000003d0: 0000 0060 c05c f9bf 0000 0060 bf31 0ec0
000003e0: 0000 0000 fb60 11c0 0000 0000 dcca 12c0
000003f0: 0000 0080 5dd5 f6bf 0000 00c0 4bd8 f0bf
00000400: 0000 00e0 f315 10c0 0000 0000 f23b 2640
00000410: 0000 00e0 3811 22c0 0000 0040 b2b5 01c0
00000420: 0000 00e0 d9f6 25c0 0000 0000 9bbb f1bf
00000430: 0000 00c0 31b0 16c0 0000 00c0 62a0 0bc0
00000440: 0000 00e0 1119 4640 0000 0020 2f71 0840
00000450: 0000 0060 15f4 23c0 0000 00a0 aa4b 03c0
00000460: 0000 0000 92f4 23c0 0000 00c0 4972 26c0
00000470: 0000 0020 0324 0a40 0000 0000 dcca 12c0
00000480: 0000 0060 bf18 10c0 0000 0020 2879 0dc0
00000490: 0000 0040 47e7 1140 0000 0060 9582 e23f
000004a0: 0000 0060 a02f 01c0 0000 00c0 e0f9 efbf
000004b0: 0000 0080 94be f2bf 0000 0000 d295 1bc0
000004c0: 0000 00e0 9b4f ee3f 0000 0000 a849 11c0
000004d0: 0000 00c0 24bb f93f 0000 00a0 dd7c 0fc0
000004e0: 0000 0020 3e00 2b40 0000 00a0 b0b2 15c0
000004f0: 0000 00e0 c786 f1bf 0000 0020 ce79 fbbf
00000500: 0000 00e0 75c4 0e40 0000 00e0 36ed 16c0
00000510: 0000 0080 53f1 d03f 0000 00e0 3219 e0bf
00000520: 0000 0060 1d0d 2c40 0000 0040 66d5 10c0
00000530: 0000 00a0 a909 0ec0 0000 00a0 b0b2 15c0
00000540: 0000 00e0 fda0 f83f 0000 0080 1e74 0cc0
00000550: 0000 0080 9f68 0d40 0000 0060 bf31 0ec0
00000560: 0000 00a0 e076 eebf 0000 0040 ba7a b73f
00000570: 0000 00e0 78d5 01c0 0000 00c0 62a0 0bc0
00000580: 0000 00a0 25c2 ea3f 0000 00a0 4eb1 f8bf
00000590: 0000 0060 c05c f9bf 0000 0080 7da2 09c0
000005a0: 0000 0000 bdd5 03c0 0000 0060 3ad2 0040
000005b0: 0000 0080 d420 2140 0000 00c0 8c21 e7bf
000005c0: 0000 00e0 4429 10c0 0000 0080 29bb 4640
000005d0: 0000 00a0 4dbb 02c0 0000 0020 a722 3040
000005e0: 0000 00c0 b08a 09c0 0000 0060 f817 2440
000005f0: 0000 00c0 fb4a 10c0 0000 0040 f3e5 f4bf
00000600: 0000 00c0 1e4b 1c40 0000 0000 4ef8 12c0
00000610: 0000 00c0 30dd 0fc0 0000 00a0 c4db 0ac0
00000620: 0000 00c0 2eaa 0f40 0000 00e0 98e5 18c0
00000630: 0000 0020 0a54 1140 0000 0000 280f dd3f
00000640: 0000 0080 a168 0140 0000 00c0 a281 f23f
00000650: 0000 0040 836a 15c0 0000 0000 90dd 0ac0
00000660: 0000 00a0 26e6 02c0 0000 00c0 2856 10c0
00000670: 0000 0060 d81b 0ec0 0000 0000 90dd 0ac0
00000680: 0000 0000 90dd 0ac0 0000 00a0 6a1d 06c0
00000690: 0000 0060 8306 df3f 0000 0000 3d11 f0bf
000006a0: 0000 0020 e81d 0840 0000 00a0 7ae1 07c0
000006b0: 0000 0000 f4e3 ffbf 0000 0040 751f 11c0
000006c0: 0000 0080 4634 0e40 0000 00a0 311b 0c40
000006d0: 0000 0020 c3e6 18c0 0000 00c0 9ba2 04c0
000006e0: 0000 0080 9a90 2040 0000 00c0 9ba1 dcbf
000006f0: 0000 00c0 4514 0840 0000 00c0 11c4 1340
00000700: 0000 00e0 839d 1140 0000 0080 afe6 12c0
00000710: 0000 00e0 0e87 1a40 0000 0000 3589 e5bf
00000720: 0000 0060 2cf2 00c0 0000 0000 044e 1340
00000730: 0000 00c0 e066 2440 0000 00a0 f2dd 0240
00000740: 0000 0060 417d f43f 0000 0000 22c3 16c0
00000750: 0000 00c0 998b fdbf 0000 0040 7ec1 2cc0
00000760: 0000 0080 a5c9 26c0 0000 0060 07a7 1140
00000770: 0000 00e0 83aa 0040 0000 0060 0bc9 10c0
00000780: 0000 0020 9b1b f8bf 0000 0060 51f9 fc3f
00000790: 0000 0060 cbfe 01c0 0000 0080 24a6 0e40
000007a0: 0000 0060 aa74 30c0 0000 0040 177c 11c0
000007b0: 0000 0000 efce 0040 0000 0040 48bb 0440
000007c0: 0000 00a0 33e4 1d40 0000 0020 cfa9 0640
000007d0: 0000 00e0 416a ea3f 0000 0060 cff9 1340
000007e0: 0000 0080 bd71 0c40 0000 0080 50ff fe3f
000007f0: 0000 0060 ce4f fdbf 0000 0020 a671 0740
8.540573120117188 23.134363174438477 -1.584069013595581 9.29653263092041 2.0310027599334717 12.457799911499023 -2.722933292388916 29.23167610168457
-5.917544841766357 -3.0859575271606445 -1.7645734548568726 -1.0423935651779175 12.183797836303711 13.457719802856445 13.809593200683594 -3.9354288578033447
6.236092567443848 13.457719802856445 13.457719802856445 3.367645740509033 2.0880658626556396 1.3225311040878296 -4.576333522796631 -3.0859215259552
0.38959163427352905 -5.498706817626953 -0.8498166799545288 0.5759008526802063 -1.3220479488372803 -3.6313345432281494 -4.171331882476807 -4.573868274688721
-2.496084213256836 -2.0850658416748047 -5.388103008270264 5.5407304763793945 -3.763547658920288 -2.330726385116577 2.530871629714966 -1.4270907640457153
-3.0436015129089355 -5.672064781188965 3.0552659034729004 5.056915283203125 -4.190968990325928 -0.4343246817588806 -2.6233649253845215 -3.974024534225464
-5.79556941986084 1.2310216426849365 5.552038669586182 -0.6636406779289246 3.6668193340301514 -4.208396911621094 -7.943641185760498 -1.6338313817977905
-3.119072437286377 -1.4725767374038696 -0.13461929559707642 -8.006065368652344 -0.09590720385313034 -3.1443145275115967 -1.8175394535064697 -3.7308380603790283
-3.4226551055908203 1.277949333190918 -6.476681232452393 -3.802184820175171 -4.061680793762207 -2.5035719871520996 -3.2389914989471436 -1.3218313455581665
-4.453546524047852 -5.61551570892334 0.528367280960083 2.0310027599334717 -4.216362953186035 -3.839571237564087 -4.318854808807373 -1.9893220663070679
-3.95757794380188 -1.5851444005966187 -1.6465390920639038 -3.1456849575042725 -10.762048721313477 -11.485472679138184 7.533586502075195 7.5335869789123535
-4.20588493347168 -7.705289363861084 0.18395327031612396 -4.512922763824463 -1.0954060554504395 3.2675838470458984 -0.20548541843891144 -9.769120216369629
-10.609906196594238 -2.341456651687622 -0.28635677695274353 -5.467423439025879 3.4846649169921875 -2.233217239379883 -2.47906231880188 0.6417432427406311
-3.348513126373291 33.09607696533203 -2.8359339237213135 -4.803066253662109 3.367645025253296 -1.7645750045776367 -4.478243350982666 0.09171642363071442
-4.478243350982666 2.0310027599334717 -4.293252944946289 33.314971923828125 -1.076710820198059 -5.795225620269775 -1.426287055015564 -2.179906129837036
-1.8867976665496826 -1.543287754058838 -1.5851444005966187 -3.7742908000946045 -4.344707489013672 -4.6981048583984375 -1.427091121673584 -1.0528066158294678
-4.021438121795654 11.117080688476562 -9.033637046813965 -2.213718891143799 -10.982131004333496 -1.108302116394043 -5.672064781188965 -3.4533133506774902
44.195858001708984 3.0552656650543213 -9.976725578308105 -2.4119465351104736 -9.977676391601562 -11.22321891784668 3.2675840854644775 -4.6981048583984375
-4.024167537689209 -3.6841585636138916 4.475857734680176 0.5784403681755066 -2.1482551097869873 -0.9992526769638062 -1.1715283393859863 -6.896308898925781
0.9472178816795349 -4.321929931640625 1.608189344406128 -3.935969591140747 13.500473976135254 -5.424501895904541 -1.0954054594039917 -1.7172375917434692
3.8459279537200928 -5.731654644012451 0.264729380607605 -0.5030760169029236 14.025614738464355 -4.20839786529541 -3.754718065261841 -5.424501895904541
1.5393046140670776 -3.556698799133301 3.6760854721069336 -3.7742908000946045 -0.9520114064216614 0.09171642363071442 -2.229234457015991 -3.4533133506774902
0.8361995816230774 -1.5432878732681274 -1.5851444005966187 -3.204340934753418 -2.4793643951416016 2.1026504039764404 8.56412124633789 -0.7228454351425171
-4.04030179977417 45.46220397949219 -2.341456651687622 16.13536262512207 -3.1927199363708496 10.0468168258667 -4.073225975036621 -1.3061401844024658
7.073359489440918 -4.742485046386719 -3.9830031394958496 -3.3573086261749268 3.958096981048584 -6.224215984344482 4.3320698738098145 0.45405006408691406
2.176089286804199 1.1566493511199951 -5.354016304016113 -3.358184814453125 -2.3623783588409424 -4.084139823913574 -3.763596296310425 -3.358184814453125
-3.358184814453125 -2.7643635272979736 0.48477253317832947 -1.0042085647583008 3.0146028995513916 -2.9850971698760986 -1.9931526184082031 -4.2807207107543945
3.7755250930786133 3.5132782459259033 -6.225353717803955 -2.5793986320495605 8.282428741455078 -0.44736379384994507 3.0098986625671387 4.941473960876465
4.403823375701904 -4.725278854370117 6.631892681121826 -0.6729989051818848 -2.118248701095581 4.8261871337890625 10.200933456420898 2.358372926712036
1.280579924583435 -5.690559387207031 -1.8465821743011475 -14.37791633605957 -11.393840789794922 4.413114070892334 2.083259344100952 -4.1963324546813965
-1.5067397356033325 1.8108686208724976 -2.2494113445281982 3.8311243057250977 -16.455724716186523 -4.371182441711426 2.101041793823242 2.5914463996887207
7.472853183746338 2.8329145908355713 0.8254708647727966 4.993955135345459 3.555537223815918 1.9373326301574707 -1.8319839239120483 2.930492639541626
