esmScripts/oldData/12esmPCA/layer11_pca10.npy (npy, 15328 bytes, 1 tensors)

array (column-major) f8 [190, 10]
11.3236083984375 13.003579139709473 -7.077547073364258 7.889056205749512 2.7346255779266357 10.797507286071777 -6.661325454711914 23.52558135986328
-9.940533638000488 -6.0462727546691895 -3.238661527633667 -2.874364137649536 12.90835952758789 10.410624504089355 10.71132755279541 -6.820540428161621
7.085176467895508 10.410624504089355 10.410624504089355 4.233283042907715 -1.1660383939743042 2.1001806259155273 -4.9576616287231445 3.5193324089050293
0.45594316720962524 -2.291379690170288 -6.898836135864258 -2.09244704246521 4.845453262329102 -1.7890390157699585 -9.764715194702148 -3.7234082221984863
-2.723978042602539 -4.8438591957092285 -4.693304061889648 9.757439613342285 -7.180992126464844 0.5114305019378662 3.7767786979675293 -4.40799617767334
-8.82439136505127 -9.704482078552246 0.9019854068756104 9.966493606567383 -0.2123366743326187 11.086195945739746 6.193689823150635 -4.166530609130859
-10.726798057556152 8.049384117126465 2.690061569213867 -3.231293201446533 4.184075832366943 -4.911113262176514 9.391085624694824 6.09584379196167
-0.40746834874153137 -3.2588465213775635 -4.8175883293151855 -15.912558555603027 -3.0964620113372803 -5.8138628005981445 -1.2741060256958008 -4.115586280822754
-3.5865213871002197 -1.8192416429519653 -5.969449996948242 0.3811112642288208 -6.59738826751709 2.0189056396484375 -5.3671979904174805 4.7332587242126465
-4.031160354614258 -3.418651580810547 -0.015273407101631165 2.7346251010894775 -7.924613952636719 -2.2888641357421875 -2.338038921356201 1.0608644485473633
-2.296325445175171 2.870435953140259 -4.0564470291137695 -14.042529106140137 2.6228253841400146 2.8423025608062744 2.9361894130706787 2.936189651489258
5.834109783172607 -14.031655311584473 -4.9883222579956055 -11.693995475769043 -8.35207748413086 2.986907720565796 -0.8998346924781799 10.442056655883789
7.400883197784424 -0.9750521779060364 -2.5627872943878174 0.2656811475753784 0.6255187392234802 -8.505091667175293 -5.376947402954102 1.2596021890640259
-7.4231743812561035 20.977693557739258 -8.820562362670898 -9.52269172668457 4.233283042907715 -3.238661527633667 -1.7456446886062622 1.5912903547286987
-1.7456446886062622 2.7346251010894775 -7.7415666580200195 35.23197937011719 -3.5376439094543457 8.909982681274414 -4.276911735534668 -7.901658535003662
-3.447719097137451 -8.73743724822998 2.870435953140259 4.431088447570801 -7.227829456329346 -6.039089202880859 -4.407995700836182 -2.925834894180298
-7.2227959632873535 10.725769996643066 -5.508984088897705 -6.6115851402282715 6.03672456741333 -2.7484426498413086 -9.704480171203613 3.2800402641296387
35.30013656616211 0.901985228061676 11.56496810913086 -1.6713385581970215 4.278748989105225 5.534955978393555 2.986907720565796 -6.039089202880859
-11.147377967834473 -5.376145839691162 8.513975143432617 0.505947470664978 -2.340456247329712 -2.4607253074645996 4.351902008056641 -8.861753463745117
5.29319953918457 -11.638269424438477 0.11949236690998077 -7.463710308074951 7.636265754699707 -5.375431537628174 -8.35207748413086 -5.329699993133545
7.387948989868164 -6.557521820068359 -2.6740596294403076 -4.558218002319336 3.025080442428589 -4.9111127853393555 -13.888106346130371 -5.375431537628174
9.887811660766602 -3.9596433639526367 10.050797462463379 4.431088447570801 -2.787825345993042 1.5912903547286987 -4.854775428771973 3.2800402641296387
-5.136781215667725 -8.73743724822998 2.870435953140259 -2.571218490600586 -6.225797176361084 3.3591015338897705 10.953225135803223 -4.719237327575684
-7.261533737182617 36.10414123535156 -0.9750520586967468 18.828413009643555 -1.9425032138824463 11.830875396728516 3.0965232849121094 10.942914962768555
5.020365238189697 3.8051180839538574 1.1759741306304932 11.590982437133789 1.058209776878357 10.28192138671875 0.7488376498222351 -2.947390556335449
1.2871712446212769 4.4058451652526855 7.8980488777160645 9.574620246887207 6.038269996643066 1.2145287990570068 -0.6103986501693726 9.574620246887207
9.574620246887207 5.035056114196777 1.4363583326339722 0.41113293170928955 -3.3799116611480713 -5.385767459869385 -2.9199137687683105 -4.503580570220947
-2.3842735290527344 3.0739665031433105 -5.570282936096191 -4.409682750701904 3.5263900756835938 -3.5645179748535156 -0.4375534951686859 2.2855823040008545
-0.6357823610305786 1.4453932046890259 3.3189141750335693 -3.8534154891967773 -0.4791220426559448 4.637565612792969 5.716480255126953 1.001155138015747
3.006281614303589 0.17092780768871307 -4.2422776222229 -12.509369850158691 -13.117501258850098 0.8859601020812988 0.13386742770671844 -5.991019248962402
-1.118985891342163 1.7804882526397705 -0.2585292458534241 -2.6543171405792236 -21.479190826416016 -5.084455490112305 0.9518685936927795 3.499246835708618
5.714512348175049 4.935858726501465 0.26369601488113403 3.0146467685699463 0.9227292537689209 -1.7767081260681152 -3.473437786102295 3.8317983150482178
00000000: 0000 0000 b0a5 2640 0000 0020 d501 2a40
00000010: 0000 0080 684f 1cc0 0000 00c0 648e 1f40
00000020: 0000 0060 83e0 0540 0000 00e0 5298 2540
00000030: 0000 0080 32a5 1ac0 0000 0080 8c86 3740
00000040: 0000 00a0 8de1 23c0 0000 0020 622f 18c0
00000050: 0000 0060 c7e8 09c0 0000 00a0 b2fe 06c0
00000060: 0000 0080 14d1 2940 0000 0060 3dd2 2440
00000070: 0000 0020 336c 2540 0000 00c0 3b48 1bc0
00000080: 0000 0080 3857 1c40 0000 0060 3dd2 2440
00000090: 0000 0060 3dd2 2440 0000 00c0 e1ee 1040
000000a0: 0000 00e0 17a8 f2bf 0000 0080 2bcd 0040
000000b0: 0000 0040 a5d4 13c0 0000 00c0 9727 0c40
000000c0: 0000 0040 2c2e dd3f 0000 00e0 be54 02c0
000000d0: 0000 0080 6898 1bc0 0000 00e0 54bd 00c0
000000e0: 0000 0080 be61 1340 0000 0060 e79f fcbf
000000f0: 0000 00c0 8887 23c0 0000 0040 8ac9 0dc0
00000100: 0000 0000 b5ca 05c0 0000 00a0 1c60 13c0
00000110: 0000 0080 f1c5 12c0 0000 0020 cf83 2340
00000120: 0000 0000 56b9 1cc0 0000 0080 a35d e03f
00000130: 0000 00c0 d736 0e40 0000 00c0 c9a1 11c0
00000140: 0000 00a0 16a6 21c0 0000 00e0 b168 23c0
00000150: 0000 0080 10dd ec3f 0000 0040 d8ee 2340
00000160: 0000 0020 d92d cbbf 0000 00e0 212c 2640
00000170: 0000 00a0 56c6 1840 0000 0000 87aa 10c0
00000180: 0000 00e0 1e74 25c0 0000 00e0 4819 2040
00000190: 0000 0000 3f85 0540 0000 0040 b0d9 09c0
000001a0: 0000 0060 7ebc 1040 0000 00e0 faa4 13c0
000001b0: 0000 0060 3cc8 2240 0000 00e0 2462 1840
000001c0: 0000 0020 f613 dabf 0000 0020 1e12 0ac0
000001d0: 0000 00e0 3545 13c0 0000 00e0 3ad3 2fc0
000001e0: 0000 00e0 8dc5 08c0 0000 0040 6541 17c0
000001f0: 0000 0000 bd62 f4bf 0000 0040 5c76 10c0
00000200: 0000 0020 32b1 0cc0 0000 0020 9d1b fdbf
00000210: 0000 0080 b7e0 17c0 0000 0080 2064 d83f
00000220: 0000 00c0 b963 1ac0 0000 0000 b826 0040
00000230: 0000 00c0 0278 15c0 0000 0060 dbee 1240
00000240: 0000 0080 e81f 10c0 0000 0000 6659 0bc0
00000250: 0000 0000 aa47 8fbf 0000 0020 83e0 0540
00000260: 0000 0000 ceb2 1fc0 0000 0000 984f 02c0
00000270: 0000 00c0 4db4 02c0 0000 0000 4df9 f03f
00000280: 0000 00e0 df5e 02c0 0000 0020 a7f6 0640
00000290: 0000 0040 cd39 10c0 0000 0060 c615 2cc0
000002a0: 0000 00e0 8bfb 0440 0000 0020 09bd 0640
000002b0: 0000 00e0 507d 0740 0000 0000 517d 0740
000002c0: 0000 00e0 2056 1740 0000 0020 3510 2cc0
000002d0: 0000 00c0 0af4 13c0 0000 0060 5363 27c0
000002e0: 0000 0080 43b4 20c0 0000 00e0 2fe5 0740
000002f0: 0000 0020 72cb ecbf 0000 0040 55e2 2440
00000300: 0000 0020 819a 1d40 0000 00a0 a033 efbf
00000310: 0000 00a0 9680 04c0 0000 0080 eb00 d13f
00000320: 0000 00e0 3f04 e43f 0000 0060 9b02 21c0
00000330: 0000 0080 fe81 15c0 0000 00a0 5427 f43f
00000340: 0000 00a0 54b1 1dc0 0000 0020 4afa 3440
00000350: 0000 00c0 20a4 21c0 0000 0040 9e0b 23c0
00000360: 0000 00c0 e1ee 1040 0000 0060 c7e8 09c0
00000370: 0000 0020 29ee fbbf 0000 00e0 ec75 f93f
00000380: 0000 0020 29ee fbbf 0000 0020 83e0 0540
00000390: 0000 0040 5df7 1ec0 0000 0080 b19d 4140
000003a0: 0000 0040 184d 0cc0 0000 0040 e9d1 2140
000003b0: 0000 00c0 8e1b 11c0 0000 0060 4c9b 1fc0
000003c0: 0000 00c0 ed94 0bc0 0000 0060 9179 21c0
000003d0: 0000 0020 a7f6 0640 0000 0040 6fb9 1140
000003e0: 0000 0020 4ce9 1cc0 0000 0000 0728 18c0
000003f0: 0000 00a0 c9a1 11c0 0000 0020 1c68 07c0
00000400: 0000 00a0 24e4 1cc0 0000 0020 9873 2540
00000410: 0000 0020 3309 16c0 0000 0060 4372 1ac0
00000420: 0000 0020 9b25 1840 0000 0080 cffc 05c0
00000430: 0000 00a0 b168 23c0 0000 00c0 853d 0a40
00000440: 0000 00e0 6aa6 4140 0000 0020 10dd ec3f
00000450: 0000 0080 4321 2740 0000 0080 cdbd fabf
00000460: 0000 0060 701d 1140 0000 0080 cb23 1640
00000470: 0000 00e0 2fe5 0740 0000 0000 0728 18c0
00000480: 0000 0020 754b 26c0 0000 0060 2c81 15c0
00000490: 0000 00c0 2707 2140 0000 00c0 b830 e03f
000004a0: 0000 0020 41b9 02c0 0000 00c0 90af 03c0
000004b0: 0000 0000 5968 1140 0000 00c0 37b9 21c0
000004c0: 0000 0080 3c2c 1540 0000 0040 cb46 27c0
000004d0: 0000 0040 0d97 be3f 0000 00e0 d6da 1dc0
000004e0: 0000 0040 898b 1e40 0000 0020 7180 15c0
000004f0: 0000 0080 43b4 20c0 0000 00e0 9c51 15c0
00000500: 0000 0080 428d 1d40 0000 0000 e73a 1ac0
00000510: 0000 0060 7964 05c0 0000 0080 9d3b 12c0
00000520: 0000 0060 5d33 0840 0000 00c0 faa4 13c0
00000530: 0000 00e0 b5c6 2bc0 0000 0020 7180 15c0
00000540: 0000 0040 8fc6 2340 0000 0080 59ad 0fc0
00000550: 0000 0020 021a 2440 0000 0040 6fb9 1140
00000560: 0000 0060 774d 06c0 0000 00e0 ec75 f93f
00000570: 0000 0040 4a6b 13c0 0000 00c0 853d 0a40
00000580: 0000 0060 108c 14c0 0000 0060 9179 21c0
00000590: 0000 0020 a7f6 0640 0000 0000 db91 04c0
000005a0: 0000 0060 37e7 18c0 0000 00a0 70df 0a40
000005b0: 0000 0020 0de8 2540 0000 00c0 7fe0 12c0
000005c0: 0000 0080 cf0b 1dc0 0000 0080 540d 4240
000005d0: 0000 0060 a033 efbf 0000 00e0 12d4 3240
000005e0: 0000 0040 7e14 ffbf 0000 0080 68a9 2740
000005f0: 0000 0000 aec5 0840 0000 00c0 c5e2 2540
00000600: 0000 00a0 da14 1440 0000 00c0 e170 0e40
00000610: 0000 0040 cad0 f23f 0000 0040 952e 2740
00000620: 0000 0060 6dee f03f 0000 0000 5890 2440
00000630: 0000 0060 7af6 e73f 0000 0080 4194 07c0
00000640: 0000 00e0 4098 f43f 0000 00e0 959f 1140
00000650: 0000 0020 9a97 1f40 0000 00a0 3426 2340
00000660: 0000 0040 3027 1840 0000 00c0 b56e f33f
00000670: 0000 00c0 6288 e3bf 0000 00a0 3426 2340
00000680: 0000 00a0 3426 2340 0000 00c0 e523 1440
00000690: 0000 00e0 52fb f63f 0000 0080 0050 da3f
000006a0: 0000 0020 0f0a 0bc0 0000 00a0 068b 15c0
000006b0: 0000 00c0 fb5b 07c0 0000 00a0 aa03 12c0
000006c0: 0000 0000 fe12 03c0 0000 00c0 7b97 0840
000006d0: 0000 0040 f847 16c0 0000 00e0 83a3 11c0
000006e0: 0000 0000 0c36 0c40 0000 0000 2284 0cc0
000006f0: 0000 0060 e000 dcbf 0000 0060 df48 0240
00000700: 0000 0040 5458 e4bf 0000 00a0 5420 f73f
00000710: 0000 00e0 228d 0a40 0000 0080 cbd3 0ec0
00000720: 0000 0080 efa9 debf 0000 0000 de8c 1240
00000730: 0000 0000 addd 1640 0000 0040 bb04 f03f
00000740: 0000 0060 dd0c 0840 0000 0060 f6e0 c53f
00000750: 0000 00a0 17f8 10c0 0000 0020 cc04 29c0
00000760: 0000 0020 293c 2ac0 0000 0000 c959 ec3f
00000770: 0000 0060 9122 c13f 0000 00c0 cdf6 17c0
00000780: 0000 00c0 5de7 f1bf 0000 0040 e17c fc3f
00000790: 0000 0040 be8b d0bf 0000 00a0 0a3c 05c0
000007a0: 0000 0040 ac7a 35c0 0000 0080 7b56 14c0
000007b0: 0000 0020 b575 ee3f 0000 0020 75fe 0b40
000007c0: 0000 0020 a9db 1640 0000 00c0 51be 1340
000007d0: 0000 0040 65e0 d03f 0000 0020 ff1d 0840
000007e0: 0000 0080 ff86 ed3f 0000 0080 656d fcbf
000007f0: 0000 00c0 99c9 0bc0 0000 00e0 85a7 0e40
