esmScripts/oldData/12esmPCA/layer6_pca10.npy (npy, 15328 bytes, 1 tensors)

array (column-major) f8 [190, 10]
0	0xbfc13c1d80000000	-0.13464707136154175
1	0x4013667cc0000000	4.850085258483887
2	0x40204f9040000000	8.155397415161133
3	0xc01a897dc0000000	-6.634268760681152
4	0xc0265b4960000000	-11.17829418182373
5	0xc015bd8de0000000	-5.4351115226745605
6	0x401ce83560000000	7.226766109466553
7	0xc00019a400000000	-2.0125198364257812
8	0x4014823780000000	5.127164840698242
9	0x400b322a80000000	3.3994951248168945
10	0x40198d5b00000000	6.388042449951172
11	0xbffafba2e0000000	-1.6864346265792847
12	0xc012f84be0000000	-4.742476940155029
13	0xc00c00f980000000	-3.5004758834838867
14	0xc003aec240000000	-2.460331439971924
15	0xc02523ed20000000	-10.570168495178223
16	0xc014935260000000	-5.143868923187256
17	0xc00c00f9c0000000	-3.500476360321045
18	0xc00c00f9c0000000	-3.500476360321045
19	0xc01669e120000000	-5.603397846221924
20	0x40027892e0000000	2.3088738918304443
21	0xc00683b3e0000000	-2.814307928085327
22	0x3fec265a60000000	0.8796817660331726
23	0xc01ee8f920000000	-7.727512836456299
24	0xbffd4e55c0000000	-1.8316247463226318
25	0xc01d9c4ec0000000	-7.402644157409668
26	0x402025cae0000000	8.073813438415527
27	0x400fee7560000000	3.9914348125457764
28	0xc01a6ca3c0000000	-6.606093406677246
29	0xc000d70720000000	-2.104994058609009
30	0x4021a2d880000000	8.818058013916016
31	0xc004186680000000	-2.5119142532348633
32	0x3fb01ca560000000	0.06293710321187973
33	0x40191c0b80000000	6.277387619018555
34	0x400ceae980000000	3.6147031784057617
35	0xbff664b420000000	-1.3995858430862427
36	0x401cf25a40000000	7.236672401428223
37	0x3fe95a8de0000000	0.7923039793968201
38	0xc0077dd1e0000000	-2.9364354610443115
39	0x401e1d18e0000000	7.528415203094482
40	0x4029387100000000	12.610237121582031
41	0x40032c8440000000	2.3967366218566895
42	0x4010575bc0000000	4.085310935974121
43	0xbff90819a0000000	-1.564477562904358
44	0xc00dcd3aa0000000	-3.7252094745635986
45	0xc027db9560000000	-11.928874015808105
46	0xc01ac76540000000	-6.6947221755981445
47	0x4014ed1c80000000	5.23155403137207
48	0x40002c72a0000000	2.021703004837036
49	0xbffdf555e0000000	-1.8723963499069214
50	0x3ff3262520000000	1.1968127489089966
51	0x3ff2865a40000000	1.1578009128570557
52	0xc00702b5c0000000	-2.8763232231140137
53	0xbff159df60000000	-1.0844415426254272
54	0xc02d6cd860000000	-14.7125883102417
55	0xc0236b32a0000000	-9.709370613098145
56	0xbff134e380000000	-1.0754122734069824
57	0x4000c703a0000000	2.097174882888794
58	0x3ffb657340000000	1.7122681140899658
59	0xbff32630a0000000	-1.1968237161636353
60	0x401193fe80000000	4.394525527954102
61	0x401414b7c0000000	5.020232200622559
62	0x4007bb8ca0000000	2.9665768146514893
63	0x400d817380000000	3.68820858001709
64	0xc00365eb00000000	-2.424764633178711
65	0x40103be440000000	4.058487892150879
66	0x3fce96d1a0000000	0.23897762596607208
67	0xc01116a700000000	-4.272121429443359
68	0x40198b9a20000000	6.3863301277160645
69	0xc016594f80000000	-5.587217330932617
70	0x40090c1920000000	3.1309072971343994
71	0xc018e67980000000	-6.225072860717773
72	0x3fead1b040000000	0.8380967378616333
73	0xc00b9e6020000000	-3.452331781387329
74	0xc01981af20000000	-6.376644611358643
75	0xc0265b4ae0000000	-11.178305625915527
76	0x40110f2fc0000000	4.264830589294434
77	0xc00ccebde0000000	-3.6009480953216553
78	0xc0129d5560000000	-4.653645992279053
79	0xc006ddbca0000000	-2.8582699298858643
80	0xc00fef3fe0000000	-3.991821050643921
81	0x400150d660000000	2.164471387863159
82	0x400983b900000000	3.1893177032470703
83	0xc013ac26a0000000	-4.918116092681885
84	0xc031b81ae0000000	-17.719160079956055
85	0xc035a78e60000000	-21.654516220092773
86	0x4027411820000000	11.627137184143066
87	0x4027411820000000	11.627137184143066
88	0xc028ca3940000000	-12.394968032836914
89	0xbffcd89720000000	-1.802878499031067
90	0x401849b960000000	6.071996212005615
91	0x401ec46780000000	7.691801071166992
92	0x402c8b7460000000	14.272372245788574
93	0x3fd80871e0000000	0.3755154311656952
94	0x4013f867e0000000	4.992583751678467
95	0xc03b2b5a40000000	-27.16934585571289
96	0xc039167fc0000000	-25.087886810302734
97	0xbff4991100000000	-1.287369728088379
98	0x400c548a00000000	3.541278839111328
99	0xc01833f5a0000000	-6.050741672515869
100	0xbfeab77400000000	-0.8348941802978516
101	0x3fc023a0a0000000	0.1260872632265091
102	0xbffae930a0000000	-1.6819311380386353
103	0x400b307700000000	3.3986644744873047
104	0x401db71f40000000	7.428830146789551
105	0x3fdaf7df20000000	0.42137888073921204
106	0x402795a500000000	11.792274475097656
107	0x401bffcd40000000	6.9998064041137695
108	0xc01669e2a0000000	-5.603403568267822
109	0x40198d5a60000000	6.388040065765381
110	0xbff6421fc0000000	-1.391143560409546
111	0x3fe0562c80000000	0.51051926612854
112	0xbff6421fc0000000	-1.391143560409546
113	0xc0265b4ae0000000	-11.178305625915527
114	0x4014fa6cc0000000	5.244555473327637
115	0xc01db15aa0000000	-7.423197269439697
116	0x401c32afc0000000	7.049498558044434
117	0xc030217c20000000	-16.130800247192383
118	0x40141ba400000000	5.0269927978515625
119	0x402a2678e0000000	13.075140953063965
120	0x3fb2fc0d40000000	0.07415850460529327
121	0x4026b08fa0000000	11.34484577178955
122	0x400150d640000000	2.16447114944458
123	0xc02714bc00000000	-11.540496826171875
124	0x400e429ee0000000	3.782529592514038
125	0x3ffc81d4a0000000	1.7816969156265259
126	0x401e1d18a0000000	7.528414249420166
127	0x401d999bc0000000	7.400008201599121
128	0x40256ce660000000	10.712695121765137
129	0xc018ac2300000000	-6.168102264404297
130	0xc0216dd0a0000000	-8.714482307434082
131	0x402bc30120000000	13.880867958068848
132	0xc034df1080000000	-20.87134552001953
133	0xbff59dff60000000	-1.3510736227035522
134	0x40032c8440000000	2.3967366218566895
135	0xc001f2a300000000	-2.2434749603271484
136	0x4020d20f80000000	8.410274505615234
137	0x4010575c00000000	4.0853118896484375
138	0xc03e5adcc0000000	-30.354930877685547
139	0x3ffd26c9e0000000	1.8219698667526245
140	0xc0345112e0000000	-20.316694259643555
141	0xc03a570140000000	-26.339862823486328
142	0x3fd80871e0000000	0.3755154311656952
143	0x3ffc81d4a0000000	1.7816969156265259
144	0xbff4a97ae0000000	-1.2913769483566284
145	0x401431c560000000	5.048604488372803
146	0xbfec330f40000000	-0.8812328577041626
147	0x4010381480000000	4.054765701293945
148	0x40116006e0000000	4.343776226043701
149	0x40016bd700000000	2.1776561737060547
150	0xc016e6c760000000	-5.725369930267334
151	0x40035e6740000000	2.421095371246338
152	0xc01978d300000000	-6.367992401123047
153	0x402753c780000000	11.663631439208984
154	0x400bcae720000000	3.474073648452759
155	0x401feed540000000	7.9832353591918945
156	0x401da218c0000000	7.408297538757324
157	0x40077339e0000000	2.931262731552124
158	0x402c8b7460000000	14.272372245788574
159	0x4017f3fea0000000	5.98827600479126
160	0xbfea8fd200000000	-0.8300561904907227
161	0x401ef26620000000	7.736717700958252
162	0x401eeff5c0000000	7.734335899353027
163	0x4021d34a60000000	8.912676811218262
164	0x401d8be380000000	7.38661003112793
165	0xbff159dfe0000000	-1.0844420194625854
166	0x400c137920000000	3.5095083713531494
167	0x40077339e0000000	2.931262731552124
168	0xc01cffe9a0000000	-7.249914646148682
169	0x4017c29c80000000	5.94005012512207
170	0xc016d491e0000000	-5.707587718963623
171	0xc02714bc00000000	-11.540496826171875
172	0xbff527a2a0000000	-1.3221765756607056
173	0x3fe0562c80000000	0.51051926612854
174	0x4019e575a0000000	6.474081516265869
175	0xc001f2a300000000	-2.2434749603271484
176	0x4029274ae0000000	12.576743125915527
177	0x4026b08fa0000000	11.34484577178955
178	0x400150d640000000	2.16447114944458
179	0xc00fc749a0000000	-3.972308397293091
180	0x402a6adc80000000	13.20871353149414
181	0x3fe47220a0000000	0.6389315724372864
182	0xbfc6547760000000	-0.17445270717144012
183	0x401baa5d60000000	6.916371822357178
184	0x40258bc900000000	10.773017883300781
185	0x40212fe3c0000000	8.593534469604492
186	0xbff4991120000000	-1.2873698472976685
187	0x3fbfdd95e0000000	0.12447487562894821
188	0x4008d2c2c0000000	3.1029105186462402
189	0xbff5543cc0000000	-1.3330657482147217
190	0x3fe7cd63c0000000	0.7438219785690308
191	0x4011a8a660000000	4.414697170257568
192	0xc004b2e160000000	-2.58734393119812
193	0x40175aa340000000	5.838513374328613
194	0x3fa3026920000000	0.037127766758203506
195	0x402d42ffa0000000	14.63085651397705
196	0x40106f34a0000000	4.1085991859436035
197	0x401bf33e00000000	6.987541198730469
198	0xc008b8b440000000	-3.0901875495910645
199	0x40049050e0000000	2.5704667568206787
200	0xc01b937f20000000	-6.894039630889893
201	0x4028387ea0000000	12.11034107208252
202	0x40324f8f20000000	18.31077766418457
203	0x4028eb72e0000000	12.459860801696777
204	0x4020931b40000000	8.287317276000977
205	0xc00f92a620000000	-3.946605920791626
206	0x401f93a480000000	7.894182205200195
207	0x4028eb7360000000	12.459864616394043
208	0x4028eb7360000000	12.459864616394043
209	0x4011fc9220000000	4.4966511726379395
210	0xbfea637ec0000000	-0.8246454000473022
211	0x4009eff940000000	3.2421746253967285
212	0xbff42d9ba0000000	-1.2611347436904907
213	0xbfe8be6d20000000	-0.7732453942298889
214	0x3fee2e6b20000000	0.9431663155555725
215	0xc00807f280000000	-3.003880500793457
216	0x40102b2be0000000	4.042159557342529
217	0xc0130563a0000000	-4.755262851715088
218	0x40013ab680000000	2.1536684036254883
219	0xc021164980000000	-8.543529510498047
220	0xc01b4776c0000000	-6.819788932800293
221	0xc010732940000000	-4.112462043762207
222	0x400ce8c360000000	3.6136538982391357
223	0xc01b3df800000000	-6.810516357421875
224	0xc01345e9a0000000	-4.818274021148682
225	0x3fecc5ef60000000	0.8991619944572449
226	0xc01a9e89a0000000	-6.654821872711182
227	0xc01cb8cc00000000	-7.1804656982421875
228	0x401c93a340000000	7.144177436828613
229	0xc009865440000000	-3.1905903816223145
230	0xc0154fc620000000	-5.327904224395752
231	0xc012e4a7e0000000	-4.723296642303467
232	0x4020a90720000000	8.330132484436035
233	0xbff247c3c0000000	-1.1425206661224365
234	0x3ff2c079c0000000	1.1719911098480225
235	0x401bb912c0000000	6.9307355880737305
236	0x3fdc939180000000	0.4465068578720093
237	0x4012c18220000000	4.6889729499816895
238	0xc01992dda0000000	-6.393423557281494
239	0x401871a7e0000000	6.110991954803467
240	0x400212fae0000000	2.259267568588257
241	0x3ff15d8220000000	1.0853291749954224
242	0x401d2b9ec0000000	7.292597770690918
243	0xc0107a5680000000	-4.119470596313477
244	0xbff3b47b00000000	-1.231562614440918
245	0xbf83c3b0e0000000	-0.009650594554841518
246	0x4019bcc9c0000000	6.43436336517334
247	0x4006458300000000	2.7839412689208984
248	0xc0131cf980000000	-4.778295516967773
249	0xc024cdd2a0000000	-10.401997566223145
250	0x401a148f80000000	6.520078659057617
251	0xc016783fe0000000	-5.617431163787842
252	0x4014ee72c0000000	5.2328596115112305
253	0xc0112f03c0000000	-4.295912742614746
254	0xbffef32280000000	-1.934359073638916
255	0x3feb54fc00000000	0.8541240692138672
