esmScripts/oldData/12esmPCA/layer12_pca190.npy (npy, 288928 bytes, 1 tensors)

array (column-major) f8 [190, 190]
0	0x40263a12a0000000	11.113423347473145
1	0x40114f9f60000000	4.327756404876709
2	0xc02205e9a0000000	-9.011548042297363
3	0x401b4d9640000000	6.82576847076416
4	0x400ca12200000000	3.5786781311035156
5	0x4014a11dc0000000	5.157340049743652
6	0xc01afe49a0000000	-6.748327732086182
7	0x401e71c080000000	7.611085891723633
8	0xc029d79f60000000	-12.921137809753418
9	0xc01ba6e800000000	-6.912994384765625
10	0x3ff3ff6fe0000000	1.249862551689148
11	0xc014d75d40000000	-5.2103166580200195
12	0x4035474900000000	21.278457641601562
13	0x402316a4a0000000	9.544224739074707
14	0x4024e0d180000000	10.439098358154297
15	0xc025f0ff60000000	-10.970698356628418
16	0x400e6283c0000000	3.798102855682373
17	0x402316a480000000	9.54422378540039
18	0x402316a480000000	9.54422378540039
19	0x4011dc5140000000	4.465153694152832
20	0xc01d0f6e40000000	-7.265069007873535
21	0xc002cf0160000000	-2.35107684135437
22	0xc00ed10020000000	-3.852051019668579
23	0x401a09e3a0000000	6.509657382965088
24	0xbffee0d860000000	-1.9298938512802124
25	0xc011dc4260000000	-4.465096950531006
26	0xc01c0ee020000000	-7.014526844024658
27	0xc01818ffe0000000	-6.024413585662842
28	0x4014027e20000000	5.002434253692627
29	0x4000a99ce0000000	2.0828187465667725
30	0xc021f17720000000	-8.971611976623535
31	0xc01212b900000000	-4.518283843994141
32	0xc007f5ee60000000	-2.9950835704803467
33	0xbfe285f480000000	-0.5788519382476807
34	0xc009622140000000	-3.172914981842041
35	0x40230eaf80000000	9.528682708740234
36	0xc01431c680000000	-5.048608779907227
37	0x40110f3b00000000	4.264873504638672
38	0x4005070ac0000000	2.6284384727478027
39	0xc0182a0b40000000	-6.041058540344238
40	0xc020ae4420000000	-8.340363502502441
41	0xc028fefba0000000	-12.498013496398926
42	0x40044c08e0000000	2.537126302719116
43	0x4026010ae0000000	11.002036094665527
44	0x4007cfa400000000	2.9763870239257812
45	0x40364185a0000000	22.255945205688477
46	0x402e7273c0000000	15.223539352416992
47	0xc000e34220000000	-2.1109659671783447
48	0xc02a9a4640000000	-13.30131721496582
49	0x4027b535a0000000	11.853924751281738
50	0xc0111b2a00000000	-4.276527404785156
51	0xc01ab973e0000000	-6.681106090545654
52	0x40058de340000000	2.6942811012268066
53	0xc0084624c0000000	-3.034249782562256
54	0x402cd0df60000000	14.407954216003418
55	0x4023f4d440000000	9.978181838989258
56	0xbff96f47c0000000	-1.5896680355072021
57	0xc01011eec0000000	-4.017512321472168
58	0xc00d0c0020000000	-3.630859613418579
59	0xc030acdba0000000	-16.67522621154785
60	0xc016ade960000000	-5.669835567474365
61	0xc0171cbba0000000	-5.778059482574463
62	0x3fdaf7e3a0000000	0.421379953622818
63	0xbfd1ad25e0000000	-0.27619311213493347
64	0xbffdc95640000000	-1.86165452003479
65	0xc0066decc0000000	-2.8036742210388184
66	0xc0231d2020000000	-9.556885719299316
67	0x40053bf860000000	2.654282331466675
68	0xc01296d980000000	-4.647314071655273
69	0x401c05e960000000	7.005773067474365
70	0xc0173c6120000000	-5.808964252471924
71	0x400a9f1980000000	3.3276853561401367
72	0xc01d558060000000	-7.333497524261475
73	0xc014016060000000	-5.001344203948975
74	0xc0014084e0000000	-2.156503438949585
75	0x400ca121e0000000	3.5786778926849365
76	0xc01959eda0000000	-6.337820529937744
77	0xc00f0f7280000000	-3.882542610168457
78	0xc0044b50a0000000	-2.5367748737335205
79	0xc007b0e7e0000000	-2.9613797664642334
80	0xc0115722e0000000	-4.335093975067139
81	0x4024c68c00000000	10.387786865234375
82	0xc00dcaa460000000	-3.7239463329315186
83	0xc02e7259a0000000	-15.223340034484863
84	0x4021443d00000000	8.633277893066406
85	0x401350a2c0000000	4.8287458419799805
86	0xbfe05f2b60000000	-0.5116173624992371
87	0xbfe05f2b80000000	-0.5116174221038818
88	0x40312f1ee0000000	17.184064865112305
89	0xc02edd4540000000	-15.432168960571289
90	0xc0226ceae0000000	-9.212729454040527
91	0xc027996580000000	-11.799602508544922
92	0xc0211b8b20000000	-8.55379581451416
93	0x3fe63bc700000000	0.6947970390319824
94	0x40173cb360000000	5.8092780113220215
95	0x4027cebbe0000000	11.903777122497559
96	0x4019bced80000000	6.434499740600586
97	0xbff42cf540000000	-1.2609760761260986
98	0xc001416d00000000	-2.1569461822509766
99	0xbfdb75aee0000000	-0.4290578067302704
100	0xbffc226e60000000	-1.7584060430526733
101	0xc027b3ca20000000	-11.851151466369629
102	0xc022d915e0000000	-9.423995018005371
103	0x400e890ea0000000	3.816922426223755
104	0xc0156c1d00000000	-5.355579376220703
105	0x4024270880000000	10.076236724853516
106	0xc0247a1020000000	-10.238404273986816
107	0xc01f58ca60000000	-7.836709499359131
108	0x4011dc5140000000	4.465153694152832
109	0x3ff3ff7000000000	1.2498626708984375
110	0xbfff6a4dc0000000	-1.9634530544281006
111	0xbfded01ee0000000	-0.48145267367362976
112	0xbfff6a4dc0000000	-1.9634530544281006
113	0x400ca121e0000000	3.5786778926849365
114	0xc0203a5e40000000	-8.11400032043457
115	0x40301fb640000000	16.12387466430664
116	0xc010470520000000	-4.069355487823486
117	0x402c17f460000000	14.046786308288574
118	0xc00e1d93e0000000	-3.764442205429077
119	0xc0125eb6c0000000	-4.592494010925293
120	0xc004a8dfa0000000	-2.5824577808380127
121	0xc01da29b40000000	-7.408795356750488
122	0x4024c68c00000000	10.387786865234375
123	0x402078b2e0000000	8.235739707946777
124	0xc01cd10da0000000	-7.204153537750244
125	0xc01fd536a0000000	-7.958216190338135
126	0xc0182a0b60000000	-6.0410590171813965
127	0xc00096edc0000000	-2.073695659637451
128	0xc01628cbc0000000	-5.539839744567871
129	0x401dc14c20000000	7.438766956329346
130	0xc00fdae860000000	-3.98188853263855
131	0xc0119d3ea0000000	-4.40355920791626
132	0x40281fb520000000	12.061928749084473
133	0xc0143cb0c0000000	-5.059267997741699
134	0xc028fefba0000000	-12.498013496398926
135	0x40141b1880000000	5.026460647583008
136	0x4032613560000000	18.37972068786621
137	0x40044c08e0000000	2.537126302719116
138	0x4020978f60000000	8.296015739440918
139	0xc00eeb8d00000000	-3.8650150299072266
140	0x4022851b40000000	9.259973526000977
141	0x40061cdb40000000	2.764090061187744
142	0x3fe63bc700000000	0.6947970390319824
143	0xc01fd536a0000000	-7.958216190338135
144	0xc02c84d0a0000000	-14.259404182434082
145	0xc0152aee20000000	-5.291923999786377
146	0x4027ec4000000000	11.96142578125
147	0x4014a2de60000000	5.159051418304443
148	0xbff80ad000000000	-1.5026397705078125
149	0xc013d0d8c0000000	-4.953951835632324
150	0x400b508ea0000000	3.414334535598755
151	0xc02147dd60000000	-8.640360832214355
152	0x40178c4680000000	5.886987686157227
153	0xc02404c340000000	-10.009302139282227
154	0x40137baea0000000	4.87078332901001
155	0xc01ac72fc0000000	-6.694518089294434
156	0x4015ae4e80000000	5.420221328735352
157	0xc0130ca6e0000000	-4.762355327606201
158	0xc0211b8b20000000	-8.55379581451416
159	0xc024cd4ce0000000	-10.40097713470459
160	0x4025082c40000000	10.515962600708008
161	0xc0082ef620000000	-3.022930383682251
162	0x400c52c720000000	3.540418863296509
163	0xc012247380000000	-4.53559684753418
164	0x40057fca40000000	2.6873974800109863
165	0xc0084624a0000000	-3.0342495441436768
166	0xc02b145540000000	-13.539712905883789
167	0xc0130ca6e0000000	-4.762355327606201
168	0x4033805d40000000	19.501422882080078
169	0xbffca57200000000	-1.7903919219970703
170	0x402e33a960000000	15.10090160369873
171	0x402078b2e0000000	8.235739707946777
172	0xc0143a4880000000	-5.056917190551758
173	0xbfded01ee0000000	-0.48145267367362976
174	0xc013da7980000000	-4.963354110717773
175	0x40141b1880000000	5.026460647583008
176	0xc019f27920000000	-6.486790180206299
177	0xc01da29b00000000	-7.408794403076172
178	0x4024c68c00000000	10.387786865234375
179	0xc00d8fe320000000	-3.6952574253082275
180	0xc00f3e9f20000000	-3.9055769443511963
181	0x4008644380000000	3.048956871032715
182	0x402af0dce0000000	13.47043514251709
183	0xc00e168a80000000	-3.7610063552856445
184	0xc0162e5f40000000	-5.545285224914551
185	0x4032ddbae0000000	18.866132736206055
186	0xbff42cf540000000	-1.2609760761260986
187	0x402eafa8a0000000	15.343083381652832
188	0xbff032d240000000	-1.0124075412750244
189	0x402c276560000000	14.076945304870605
190	0x3ffdcb1680000000	1.8620820045471191
191	0x400aecb480000000	3.3655786514282227
192	0x3ff26fa040000000	1.152252435684204
193	0x402fba05c0000000	15.863325119018555
194	0xbfe1508720000000	-0.5410800576210022
195	0x402ec92880000000	15.392887115478516
196	0x4000222040000000	2.016663074493408
197	0x401cbed6a0000000	7.186365604400635
198	0xc000d255c0000000	-2.1027026176452637
199	0xbfeaf68d60000000	-0.842596709728241
200	0xc018aa3d80000000	-6.166250228881836
201	0x401f81aba0000000	7.876631259918213
202	0x403953d620000000	25.327486038208008
203	0x40355bcb60000000	21.358572006225586
204	0x40231168e0000000	9.534003257751465
205	0x3fee24a9c0000000	0.941975474357605
206	0xc0005a07c0000000	-2.0439600944519043
207	0x40355bcba0000000	21.35857582092285
208	0x40355bcba0000000	21.35857582092285
209	0x4022145040000000	9.039674758911133
210	0x3fe6264520000000	0.6921716332435608
211	0x3fec74f420000000	0.8892765641212463
212	0xbff283d440000000	-1.1571848392486572
213	0xc00001eec0000000	-2.000943660736084
214	0xc01041c600000000	-4.064231872558594
215	0xc014044360000000	-5.0041632652282715
216	0xbffe955960000000	-1.9114621877670288
217	0xbffe8271e0000000	-1.9068468809127808
218	0xc0109eb0e0000000	-4.154971599578857
219	0xc018c5dd40000000	-6.1932268142700195
220	0xc0023244a0000000	-2.2745449542999268
221	0xbfda36f9e0000000	-0.409605473279953
222	0xbf73e1eac0000000	-0.00485412310808897
223	0xc008a1e820000000	-3.0790560245513916
224	0xc01574d800000000	-5.364105224609375
225	0x3ff8f49940000000	1.5597164630889893
226	0xbfa876c980000000	-0.04778127372264862
227	0xc00913a040000000	-3.134582996368408
228	0xbff422e6c0000000	-1.2585208415985107
229	0xbff8df7a60000000	-1.5545600652694702
230	0xbf9f367840000000	-0.03048122301697731
231	0xbff34ab800000000	-1.2057418823242188
232	0x401b279520000000	6.788654804229736
233	0xbff3426ae0000000	-1.203715205192566
234	0xbfeabcadc0000000	-0.8355320692062378
235	0xc0196a2ea0000000	-6.35369348526001
236	0xc01da5f8c0000000	-7.412081718444824
237	0x400eeb38e0000000	3.864854574203491
238	0xc00587b360000000	-2.6912600994110107
239	0x3fae1f57c0000000	0.05883287638425827
240	0xc012b14220000000	-4.6731038093566895
241	0x4011435580000000	4.315755844116211
242	0xbff0a78540000000	-1.0408985614776611
243	0xbff15a2000000000	-1.084503173828125
244	0xc02d44ca60000000	-14.634356498718262
245	0x3fca78fe20000000	0.2068174034357071
246	0x401fc80d00000000	7.945362091064453
247	0x4016ef55a0000000	5.733725070953369
248	0x400fc9f7e0000000	3.9736173152923584
249	0xc005c41e40000000	-2.7207608222961426
250	0x400a0c3be0000000	3.2559735774993896
251	0xbfe153af60000000	-0.5414654612541199
252	0x4006367040000000	2.776581287384033
253	0xc00daa4260000000	-3.708134412765503
254	0xbff6170400000000	-1.3806190490722656
255	0x4007185fe0000000	2.886901617050171
