esmScripts/oldData/12esmPCA/layer1_pca100.npy (npy, 152128 bytes, 1 tensors)

array (column-major) f8 [190, 100]
00000000: 0000 0080 b49c f5bf 0000 0080 5017 1140
00000010: 0000 0000 fb2e 1940 0000 00a0 45d9 f7bf
00000020: 0000 00c0 ba95 23c0 0000 00e0 7c9b 1a40
00000030: 0000 0060 fd9c 1a40 0000 0020 6a16 00c0
00000040: 0000 0080 c5db 1340 0000 0080 7b6f 1640
00000050: 0000 0000 49dc 10c0 0000 0020 2ea3 1940
00000060: 0000 0000 ab91 1a40 0000 0000 752a 0e40
00000070: 0000 0080 15cc 1040 0000 0060 1698 24c0
00000080: 0000 0040 f2a6 fe3f 0000 0020 752a 0e40
00000090: 0000 0020 752a 0e40 0000 00a0 ede8 0440
000000a0: 0000 00e0 67d7 0f40 0000 0080 9e54 0d40
000000b0: 0000 00a0 e083 0540 0000 0040 13b9 1fc0
000000c0: 0000 0000 972b 0140 0000 00e0 c9c3 763f
000000d0: 0000 00a0 0139 1840 0000 00a0 9d4b 0340
000000e0: 0000 0040 c4d2 01c0 0000 00e0 6bc2 29c0
000000f0: 0000 0000 2ed4 1340 0000 0040 2a24 dcbf
00000100: 0000 00c0 3b72 1640 0000 0060 8335 febf
00000110: 0000 00c0 f210 dcbf 0000 00e0 3d25 f4bf
00000120: 0000 00c0 9499 1240 0000 0080 b3f9 12c0
00000130: 0000 0060 2639 0b40 0000 0020 982c 1840
00000140: 0000 00a0 c363 1540 0000 0040 70e3 0d40
00000150: 0000 00a0 febc 1a40 0000 0000 1932 16c0
00000160: 0000 0000 360e e23f 0000 00c0 e375 2dc0
00000170: 0000 0080 8db6 22c0 0000 0040 c334 1740
00000180: 0000 0000 15a9 0e40 0000 0040 6f78 06c0
00000190: 0000 0020 740c 0340 0000 0020 3981 1440
000001a0: 0000 00a0 2dc9 0b40 0000 00c0 3696 0040
000001b0: 0000 0060 2778 33c0 0000 0080 aa2e 21c0
000001c0: 0000 0040 f7a9 1340 0000 00e0 1b78 1440
000001d0: 0000 0060 299f 1040 0000 0080 dc98 f7bf
000001e0: 0000 00c0 324c 1840 0000 00a0 a7ad 1140
000001f0: 0000 0060 4046 1840 0000 0060 1bb2 e73f
00000200: 0000 0040 43ae e5bf 0000 00a0 951a 1940
00000210: 0000 00a0 8bdc 0440 0000 0040 822b 0cc0
00000220: 0000 00e0 b401 1040 0000 0020 8854 0340
00000230: 0000 0020 897c 1340 0000 0040 1a01 dbbf
00000240: 0000 00e0 7762 0240 0000 00a0 692e de3f
00000250: 0000 0020 3dbf d5bf 0000 0060 bb95 23c0
00000260: 0000 0080 ec67 0940 0000 0080 a28f e83f
00000270: 0000 0000 e406 b83f 0000 00e0 53e7 0a40
00000280: 0000 0080 e175 fb3f 0000 0000 bc8e 03c0
00000290: 0000 00c0 21e9 1940 0000 0080 4d9b 0ec0
000002a0: 0000 00c0 260f 3bc0 0000 00e0 675a 40c0
000002b0: 0000 00a0 37d0 1540 0000 00c0 37d0 1540
000002c0: 0000 0040 3224 29c0 0000 0000 c340 0d40
000002d0: 0000 0020 0a4c 1740 0000 00a0 f37f 1940
000002e0: 0000 0080 a92a 1a40 0000 0040 d98d 1040
000002f0: 0000 0080 bd1e 1340 0000 00c0 4a7a 42c0
00000300: 0000 00a0 f194 41c0 0000 0020 250d 1240
00000310: 0000 0020 af2a 0840 0000 0060 89db 1ac0
00000320: 0000 0000 98a6 1540 0000 00a0 8041 0d40
00000330: 0000 0040 c7be fe3f 0000 00a0 b906 1a40
00000340: 0000 0040 e529 1240 0000 0000 e126 1840
00000350: 0000 0060 79bc 1840 0000 0020 5412 e33f
00000360: 0000 0020 efe8 0440 0000 0000 49dc 10c0
00000370: 0000 00a0 4899 ed3f 0000 0000 c2cf 1a40
00000380: 0000 00a0 4899 ed3f 0000 0060 bb95 23c0
00000390: 0000 00e0 9285 0c40 0000 0000 5cd4 fb3f
000003a0: 0000 00a0 4a70 1240 0000 0080 3b8a 37c0
000003b0: 0000 0000 bcd6 1740 0000 0080 4b41 1440
000003c0: 0000 0080 ae38 0e40 0000 0080 0d14 1640
000003d0: 0000 0000 bc8e 03c0 0000 00c0 551a 2dc0
000003e0: 0000 00e0 2f74 1140 0000 00c0 a573 1040
000003f0: 0000 0020 982c 1840 0000 00c0 cc0d 1d40
00000400: 0000 0040 b412 1940 0000 0060 1350 1340
00000410: 0000 0040 3755 2fc0 0000 00c0 977e 1940
00000420: 0000 0040 6fb8 40c0 0000 0000 7468 1940
00000430: 0000 0040 70e3 0d40 0000 0040 a85a f3bf
00000440: 0000 0020 0451 0c40 0000 0060 febc 1a40
00000450: 0000 00e0 3a51 43c0 0000 0060 cf65 e3bf
00000460: 0000 0020 66be 3dc0 0000 00c0 7192 41c0
00000470: 0000 0040 d98d 1040 0000 00c0 a573 1040
00000480: 0000 0040 ac01 0d40 0000 00c0 f7ca 1340
00000490: 0000 0020 ddf5 f3bf 0000 00e0 4871 12c0
000004a0: 0000 00a0 f59a 1340 0000 0000 cb53 1540
000004b0: 0000 00e0 99a1 cdbf 0000 0060 54c0 f13f
000004c0: 0000 0000 9879 0a40 0000 0000 a652 0640
000004d0: 0000 0020 8e08 0440 0000 00c0 0de4 1040
000004e0: 0000 00a0 0119 0c40 0000 00a0 b209 15c0
000004f0: 0000 00a0 a92a 1a40 0000 00c0 e0f2 1640
00000500: 0000 00e0 056a e4bf 0000 0080 8853 e33f
00000510: 0000 00c0 d6d0 1440 0000 0040 5d65 1040
00000520: 0000 0020 7577 ed3f 0000 00c0 3696 0040
00000530: 0000 00e0 c9e1 903f 0000 00c0 b209 15c0
00000540: 0000 0080 f68f efbf 0000 0080 1f06 f53f
00000550: 0000 0020 f45b 19c0 0000 00c0 551a 2dc0
00000560: 0000 00e0 af7e 1940 0000 0000 c2cf 1a40
00000570: 0000 0060 32da 1440 0000 0040 a85a f3bf
00000580: 0000 0020 5b04 1840 0000 0060 0d14 1640
00000590: 0000 0000 bc8e 03c0 0000 00e0 45ac 1a40
000005a0: 0000 00c0 d313 1940 0000 0040 b033 1940
000005b0: 0000 00e0 38c0 12c0 0000 0040 7336 1640
000005c0: 0000 0020 5803 1940 0000 0080 8c93 0e40
000005d0: 0000 0040 250d 1240 0000 00c0 739b 1840
000005e0: 0000 00e0 8ec0 db3f 0000 00c0 a7f0 07c0
000005f0: 0000 0060 dd36 f8bf 0000 00a0 1f20 eb3f
00000600: 0000 00c0 0262 0a40 0000 00c0 3434 e73f
00000610: 0000 0060 1481 2540 0000 0000 c122 22c0
00000620: 0000 00e0 7254 0440 0000 00e0 2923 3ec0
00000630: 0000 00e0 6e93 0840 0000 00c0 5c9f 0840
00000640: 0000 0020 9b04 0e40 0000 0040 fefa cabf
00000650: 0000 00a0 16e5 2cc0 0000 0040 ef39 2bc0
00000660: 0000 0000 42d8 13c0 0000 0020 5373 17c0
00000670: 0000 00e0 2545 f23f 0000 0040 ef39 2bc0
00000680: 0000 0040 ef39 2bc0 0000 00a0 3565 17c0
00000690: 0000 0080 14d8 fb3f 0000 0080 2888 0cc0
000006a0: 0000 0060 80d1 0440 0000 0020 fa57 18c0
000006b0: 0000 00a0 6469 f03f 0000 00a0 251b cb3f
000006c0: 0000 0000 9c0c fd3f 0000 0000 e81e 0240
000006d0: 0000 0040 12dc 12c0 0000 0040 4e07 1440
000006e0: 0000 0020 83f5 1740 0000 0000 ea0f 0740
000006f0: 0000 0040 7104 0140 0000 0040 1741 0f40
00000700: 0000 0080 8419 0f40 0000 0060 a306 ecbf
00000710: 0000 0060 1b96 1340 0000 0080 3dde 0740
00000720: 0000 0080 67ac e83f 0000 00a0 b1b2 0540
00000730: 0000 0020 505d 1240 0000 00e0 88c9 0740
00000740: 0000 00c0 8cdc d73f 0000 00c0 fdab 12c0
00000750: 0000 00e0 67d5 ffbf 0000 0040 1610 31c0
00000760: 0000 00a0 5254 23c0 0000 0080 ac09 fb3f
00000770: 0000 00c0 3ede 1840 0000 00e0 00f5 28c0
00000780: 0000 0040 daea 0bc0 0000 0020 dce3 1040
00000790: 0000 0020 a851 e73f 0000 0080 ca10 0840
000007a0: 0000 0000 8e03 1ec0 0000 00a0 114a 20c0
000007b0: 0000 00e0 8d3c f0bf 0000 00a0 296c 0b40
000007c0: 0000 00c0 b114 0f40 0000 0020 b88e 2040
000007d0: 0000 00e0 3f82 04c0 0000 0040 f060 1040
000007e0: 0000 00a0 a7ff 0540 0000 00e0 9c0d 0840
000007f0: 0000 00a0 3238 de3f 0000 0020 f3ec a13f
-1.3507580757141113 4.272768020629883 6.295879364013672 -1.4905449151992798 -9.792440414428711 6.651843547821045 6.653310298919678 -2.0109446048736572
4.964620590209961 5.608869552612305 -4.215122222900391 6.409355640411377 6.642253875732422 3.770730972290039 4.199300765991211 -10.297045707702637
1.9157583713531494 3.770731210708618 3.770731210708618 2.613734483718872 3.9801785945892334 3.666317939758301 2.6893932819366455 -7.930737495422363
2.1462841033935547 0.005557812284678221 6.055670261383057 2.411921739578247 -2.2279133796691895 -12.879729270935059 4.957206726074219 -0.43970733880996704
5.611556053161621 -1.8880647420883179 -0.4385344386100769 -1.2590922117233276 4.649981498718262 -4.74384880065918 3.402905225753784 6.043549060821533
5.347425937652588 3.736053943634033 6.68456506729126 -5.548923492431641 0.564234733581543 -14.730253219604492 -9.356548309326172 5.801526069641113
3.832559585571289 -2.8088059425354004 2.3810808658599854 5.126194477081299 3.473231554031372 2.0733466148376465 -19.469350814819336 -8.591144561767578
4.915982246398926 5.117293834686279 4.155431270599365 -1.4748196601867676 6.0744123458862305 4.41958475112915 6.068604946136475 0.7404915690422058
-0.6775223016738892 6.275961399078369 2.6076881885528564 -3.521244525909424 4.00166654586792 2.4162752628326416 4.871616840362549 -0.4219422936439514
2.2980802059173584 0.4715828001499176 -0.3397972881793976 -9.792445182800293 3.17574405670166 0.767533540725708 0.09385514259338379 3.362952947616577
1.7162795066833496 -2.4446945190429688 6.477667808532715 -3.825831413269043 -27.059185028076172 -32.706295013427734 5.4533371925354 5.453337669372559
-12.570695877075195 3.6566219329833984 5.8242573738098145 6.374952793121338 6.541662216186523 4.138524055480957 4.780019760131836 -36.955406188964844
-35.16362380981445 4.512836933135986 3.0208418369293213 -6.714391231536865 5.412689208984375 3.6569836139678955 1.921576738357544 6.506567478179932
4.5409135818481445 6.037967681884766 6.184056758880615 0.5959873795509338 2.6137373447418213 -4.215122222900391 0.9249613881111145 6.702888488769531
0.9249613881111145 -9.792445182800293 3.5652215480804443 1.7393455505371094 4.609659671783447 -23.53997039794922 5.9597015380859375 5.063764572143555
3.777676582336426 5.519582748413086 -2.4446945190429688 -14.551435470581055 4.363463878631592 4.112936973571777 6.043549060821533 7.263476371765137
6.268265724182129 4.8281989097595215 -15.666437149047852 6.373625755310059 -33.440895080566406 6.3520050048828125 3.736053943634033 -1.2096331119537354
3.5395586490631104 6.684564113616943 -38.63460922241211 -0.6061779856681824 -29.743745803833008 -35.14409637451172 4.138524055480957 4.112936973571777
3.625816822052002 4.948210716247559 -1.2475253343582153 -4.610629558563232 4.901327610015869 5.331829071044922 -0.23149417340755463 1.1094554662704468
3.3093719482421875 2.790355682373047 2.5041773319244385 4.222708702087402 3.5122101306915283 -5.259470462799072 6.541662693023682 5.737185478210449
-0.6379422545433044 0.6039469242095947 5.203944206237793 4.0989885330200195 0.9208322167396545 2.0733466148376465 0.016486315056681633 -5.2594709396362305
-0.9863235950469971 1.3139948844909668 -6.339798450469971 -14.551435470581055 6.373717784881592 6.702888488769531 5.213082790374756 -1.2096331119537354
6.00425386428833 5.519582271575928 -2.4446945190429688 6.6682353019714355 6.269362449645996 6.300477027893066 -4.687716960906982 5.553174018859863
6.253265857696533 3.82204532623291 4.5128374099731445 6.151808738708496 0.43362781405448914 -2.9925074577331543 -1.5133947134017944 0.8476713299751282
3.2978568077087402 0.7251228094100952 10.752108573913574 -9.067878723144531 2.5412347316741943 -30.137357711791992 3.071988821029663 3.0778136253356934
3.752249002456665 -0.2107847034931183 -14.44743824005127 -13.613153457641602 -4.961189270019531 -5.862621784210205 1.1418818235397339 -13.613153457641602
-13.613153457641602 -5.848837375640869 1.7402539253234863 -3.566483497619629 2.6022956371307373 -6.0859150886535645 1.0257307291030884 0.21176595985889435
1.8155784606933594 2.2650909423828125 -4.714913368225098 5.007134437561035 5.989758014678955 2.882770538330078 2.127169132232666 3.906782627105713
3.8874597549438477 -0.8758103251457214 4.8965888023376465 2.983515739440918 0.771045446395874 2.7122528553009033 4.591125965118408 2.973405599594116
0.37283629179000854 -4.667960166931152 -1.9896010160446167 -17.06283950805664 -9.664692878723145 1.68986177444458 6.217036247253418 -12.478522300720215
-3.4896740913391113 4.222519397735596 0.7287178635597229 3.0081987380981445 -7.503471374511719 -8.144665718078613 -1.0147837400436401 3.427813768386841
3.8851046562194824 8.278748512268066 -2.563598394393921 4.094666481018066 2.749831438064575 3.0066468715667725 0.472180038690567 0.03501090779900551
