esmScripts/oldData/12esmPCA/layer3_pca100.npy (npy, 152128 bytes, 1 tensors)

array (column-major) f8 [190, 100]
00000000: 0000 0000 ccab ef3f 0000 00a0 50d6 1840
00000010: 0000 0000 205f 1f40 0000 0080 dd24 d53f
00000020: 0000 0060 7303 1dc0 0000 0020 23ca 1ac0
00000030: 0000 00c0 5baf 1b40 0000 00c0 852c 33c0
00000040: 0000 00e0 df6e 1b40 0000 0080 b8c5 1340
00000050: 0000 00c0 6bea f73f 0000 0080 f2c7 1740
00000060: 0000 0000 c889 23c0 0000 0040 9aee 11c0
00000070: 0000 00e0 762c f1bf 0000 0020 16a3 26c0
00000080: 0000 0000 5801 00c0 0000 0040 9aee 11c0
00000090: 0000 0040 9aee 11c0 0000 00c0 577f 13c0
000000a0: 0000 0060 29f7 1640 0000 0040 fe33 c9bf
000000b0: 0000 0020 34b4 0f40 0000 0080 4870 22c0
000000c0: 0000 0040 352c d23f 0000 0040 696c f2bf
000000d0: 0000 0060 b38d 1140 0000 0040 9452 0e40
000000e0: 0000 00e0 3cbc 20c0 0000 0040 85a3 16c0
000000f0: 0000 0060 8d68 2040 0000 0020 b8ae ec3f
00000100: 0000 0000 1cf2 1340 0000 00c0 7b1c 0840
00000110: 0000 00a0 9ca5 1140 0000 00c0 a3ed c73f
00000120: 0000 0060 8633 1740 0000 0060 8d52 01c0
00000130: 0000 0060 b998 c53f 0000 0000 fde5 1d40
00000140: 0000 00e0 4400 2240 0000 00e0 38b0 1840
00000150: 0000 0080 6a43 1540 0000 0020 0c5a 03c0
00000160: 0000 0060 6bc8 febf 0000 0000 0aaf 32c0
00000170: 0000 0040 393b 26c0 0000 0020 d0c7 1740
00000180: 0000 0020 2975 1b40 0000 00c0 e455 17c0
00000190: 0000 00e0 719d ec3f 0000 0040 d2c1 1b40
000001a0: 0000 00c0 3162 cd3f 0000 00a0 953a 0c40
000001b0: 0000 0060 3769 34c0 0000 00c0 7004 2dc0
000001c0: 0000 0020 0fa1 0440 0000 0080 559c 1040
000001d0: 0000 0080 0ca4 1040 0000 0020 00d8 1040
000001e0: 0000 00a0 61d0 1240 0000 0040 edde 1540
000001f0: 0000 00a0 7497 1740 0000 0040 f5ff 0340
00000200: 0000 0080 c64f e53f 0000 0000 ce21 1b40
00000210: 0000 00c0 2a88 0f40 0000 0000 a00d 10c0
00000220: 0000 0000 43ab 1340 0000 00e0 4ae8 fabf
00000230: 0000 0080 dc7b 1940 0000 0040 4000 18c0
00000240: 0000 00e0 f60f 0f40 0000 0020 d9a3 df3f
00000250: 0000 00c0 73a4 f0bf 0000 0060 7303 1dc0
00000260: 0000 00e0 49b0 1640 0000 0020 2f38 f9bf
00000270: 0000 00e0 eaad f5bf 0000 00c0 be52 fcbf
00000280: 0000 0040 727d b43f 0000 00a0 f1d1 d0bf
00000290: 0000 00a0 ebee 1940 0000 00c0 1546 0040
000002a0: 0000 0000 29ca 33c0 0000 0000 c42c 39c0
000002b0: 0000 00e0 c693 1640 0000 00c0 c693 1640
000002c0: 0000 0080 4b32 27c0 0000 0040 a257 1a40
000002d0: 0000 0080 9576 1640 0000 0060 0085 2040
000002e0: 0000 00e0 09f1 2140 0000 0020 f9f5 0940
000002f0: 0000 00c0 5a8d 1340 0000 00a0 87a6 42c0
00000300: 0000 0000 9eec 3ec0 0000 00a0 07f1 ff3f
00000310: 0000 0040 2492 1240 0000 0040 b124 14c0
00000320: 0000 00e0 79b4 0a40 0000 0040 1fca 1740
00000330: 0000 00e0 09d6 1140 0000 0060 a557 1340
00000340: 0000 0000 15a3 1e40 0000 0040 f594 02c0
00000350: 0000 00e0 77da 2240 0000 0080 d2a1 1740
00000360: 0000 0080 577f 13c0 0000 0000 6bea f73f
00000370: 0000 0020 ef0c 0440 0000 0040 bb5d 1140
00000380: 0000 0020 ef0c 0440 0000 0060 7303 1dc0
00000390: 0000 0020 0abb 1540 0000 0080 16eb 3ac0
000003a0: 0000 00a0 5670 1b40 0000 0080 0d6e 37c0
000003b0: 0000 00c0 1b44 1d40 0000 0080 3090 2040
000003c0: 0000 0060 719d 1640 0000 00c0 3c52 2140
000003d0: 0000 00a0 f1d1 d0bf 0000 0020 8b2a 2fc0
000003e0: 0000 00a0 bc25 1940 0000 00e0 6e05 1540
000003f0: 0000 00e0 fce5 1d40 0000 00c0 b346 2040
00000400: 0000 0020 fadd 2040 0000 0080 3564 01c0
00000410: 0000 0040 6ebe 1dc0 0000 00a0 169f 2140
00000420: 0000 00e0 5c9f 39c0 0000 0060 3237 1840
00000430: 0000 0040 39b0 1840 0000 0080 5a12 14c0
00000440: 0000 0080 87a6 9c3f 0000 00a0 6a43 1540
00000450: 0000 0020 a69b 45c0 0000 00c0 d0e2 da3f
00000460: 0000 00e0 0851 39c0 0000 0060 b915 40c0
00000470: 0000 0020 f9f5 0940 0000 00e0 6e05 1540
00000480: 0000 0000 dcf1 1140 0000 00e0 e106 1a40
00000490: 0000 0000 1c51 09c0 0000 0080 bb30 f03f
000004a0: 0000 0020 3970 1840 0000 00e0 c851 0f40
000004b0: 0000 0000 f7d9 17c0 0000 0080 2f38 1040
000004c0: 0000 0060 32d8 0dc0 0000 0060 9e08 1e40
000004d0: 0000 0060 8047 1040 0000 00a0 a22b 2040
000004e0: 0000 00a0 eb2e 1540 0000 0040 3993 ea3f
000004f0: 0000 00e0 09f1 2140 0000 0000 375e 2140
00000500: 0000 00c0 4a23 00c0 0000 00e0 5b98 1140
00000510: 0000 0060 1f7f 1a40 0000 00e0 52db 1e40
00000520: 0000 0060 70ab 1640 0000 0060 953a 0c40
00000530: 0000 0080 65a6 1940 0000 0040 3993 ea3f
00000540: 0000 00e0 3ae9 1ec0 0000 00c0 3833 0940
00000550: 0000 0000 ee81 1ac0 0000 0020 8b2a 2fc0
00000560: 0000 0000 29f4 1740 0000 0040 bb5d 1140
00000570: 0000 0020 e971 1d40 0000 0080 5a12 14c0
00000580: 0000 0080 584d 2240 0000 00c0 3c52 2140
00000590: 0000 00a0 f1d1 d0bf 0000 00a0 158b 0d40
000005a0: 0000 00c0 2432 2140 0000 00e0 22f4 0f40
000005b0: 0000 00a0 87a6 f7bf 0000 00a0 4521 1f40
000005c0: 0000 0020 51f9 2040 0000 00a0 eaf9 9abf
000005d0: 0000 00a0 07f1 ff3f 0000 0020 ea96 1ec0
000005e0: 0000 0040 10e3 0240 0000 00a0 c701 09c0
000005f0: 0000 0040 72a0 f53f 0000 0040 260c 93bf
00000600: 0000 0060 2e23 f83f 0000 0020 818c ff3f
00000610: 0000 0080 e9d8 1c40 0000 00a0 e76e 34c0
00000620: 0000 0040 0e22 01c0 0000 00e0 9910 3fc0
00000630: 0000 00e0 b34e 0040 0000 0080 a2e9 f1bf
00000640: 0000 0060 b917 1940 0000 0020 9305 10c0
00000650: 0000 00e0 3f3f 33c0 0000 00c0 c18d 30c0
00000660: 0000 00c0 2cdd 21c0 0000 0040 7933 ffbf
00000670: 0000 00e0 538c 0dc0 0000 00c0 c18d 30c0
00000680: 0000 00c0 c18d 30c0 0000 00c0 366f 14c0
00000690: 0000 00c0 6c81 ee3f 0000 00c0 b1f4 0fc0
000006a0: 0000 00a0 8472 f53f 0000 00e0 13e7 ecbf
000006b0: 0000 0040 53a9 e5bf 0000 00a0 61ae 0840
000006c0: 0000 0020 4cfe 08c0 0000 0040 2854 0140
000006d0: 0000 0000 2617 11c0 0000 0060 3905 2340
000006e0: 0000 0000 0086 1140 0000 0000 94eb 1140
000006f0: 0000 00a0 b1e7 f2bf 0000 0000 ddfc 1040
00000700: 0000 00c0 0536 1640 0000 00e0 d5f8 0240
00000710: 0000 0080 ab52 1040 0000 0060 24d2 2140
00000720: 0000 0040 b5ba 0ac0 0000 0040 700f c8bf
00000730: 0000 00c0 3422 0940 0000 00c0 bef5 0840
00000740: 0000 00a0 700e 09c0 0000 00e0 1c9b 0840
00000750: 0000 00a0 852a e33f 0000 0060 9288 21c0
00000760: 0000 0000 ad35 f5bf 0000 0080 ce40 f4bf
00000770: 0000 0040 8b53 0840 0000 00e0 09f8 14c0
00000780: 0000 0020 ad6e 0dc0 0000 00c0 6ad8 f83f
00000790: 0000 00c0 2249 0bc0 0000 00a0 b8df 0840
000007a0: 0000 0060 e442 1640 0000 00c0 7712 12c0
000007b0: 0000 00a0 dbc0 efbf 0000 0000 c042 e1bf
000007c0: 0000 00e0 fac0 fd3f 0000 0040 176f 1840
000007d0: 0000 00a0 738b 19c0 0000 00c0 3309 1240
000007e0: 0000 0040 76e5 c83f 0000 0040 512f 1040
000007f0: 0000 0040 dee6 f63f 0000 0040 af9c d9bf
0.9897212982177734 6.209291934967041 7.8428955078125 0.330375075340271 -7.2533698081970215 -6.697399616241455 6.921248435974121 -19.17391586303711
6.858275890350342 4.943086624145508 1.4947316646575928 5.945261001586914 -9.76910400390625 -4.483010292053223 -1.0733555555343628 -11.318528175354004
-2.0006561279296875 -4.483010292053223 -4.483010292053223 -4.874358177185059 5.741368770599365 -0.1968992054462433 3.9629900455474854 -9.219303131103516
0.28394824266433716 -1.1514675617218018 4.3883795738220215 3.7903218269348145 -8.36765193939209 -5.6596879959106445 8.204203605651855 0.8963280320167542
4.9864349365234375 3.0139079093933105 4.4117302894592285 0.18693968653678894 5.800317287445068 -2.165308713912964 0.16872327029705048 7.474597930908203
9.00052547454834 6.172091960906982 5.315835952758789 -2.418968439102173 -1.9239305257797241 -18.683746337890625 -11.115671157836914 5.945129871368408
6.864414691925049 -5.833880424499512 0.8942193388938904 6.939278602600098 0.22955915331840515 3.5286056995391846 -20.411001205444336 -14.508672714233398
2.5786421298980713 4.152669906616211 4.16020393371582 4.210937976837158 4.703497409820557 5.4677019119262695 5.8979058265686035 2.4999794960021973
0.6659882068634033 6.783012390136719 3.9414877891540527 -4.0133056640625 4.917247772216797 -1.681712031364441 6.37095832824707 -6.000245094299316
3.8827950954437256 0.4943754971027374 -1.040149450302124 -7.2533698081970215 5.672156810760498 -1.5762168169021606 -1.354960322380066 -1.7702014446258545
0.08003915846347809 -0.2628139555454254 6.483320713043213 2.0342211723327637 -19.789688110351562 -25.17486572265625 5.644313335418701 5.644312858581543
-11.59823226928711 6.585579872131348 5.615804672241211 8.25976848602295 8.970778465270996 3.2451040744781494 4.8880414962768555 -37.3010139465332
-30.924285888671875 1.9963451623916626 4.642716407775879 -5.035832405090332 3.338123083114624 5.947384834289551 4.459022045135498 4.835591793060303
7.659259796142578 -2.3227334022521973 9.426695823669434 5.908029556274414 -4.874357223510742 1.4947309494018555 2.5063154697418213 4.341534614562988
2.5063154697418213 -7.2533698081970215 5.4326558113098145 -26.918312072753906 6.859705448150635 -23.429893493652344 7.316512107849121 8.281620025634766
5.65375280380249 8.660619735717773 -0.2628139555454254 -15.58309268951416 6.2868523597717285 5.255305767059326 7.474597454071045 8.138090133666992
8.433548927307129 -2.1739301681518555 -7.435967445373535 8.81071949005127 -25.62251091003418 6.053903102874756 6.172093391418457 -5.017923355102539
0.027979008853435516 5.315836429595947 -43.216007232666016 0.42009371519088745 -25.31654167175293 -32.16971969604492 3.2451040744781494 5.255305767059326
4.4861907958984375 6.506721019744873 -3.1646041870117188 1.0118975639343262 6.109592914581299 3.914933919906616 -5.962856292724609 4.054868698120117
-3.730564832687378 7.508416652679443 4.069825649261475 8.085225105285645 5.295820713043213 0.8304716348648071 8.970778465270996 8.684013366699219
-2.0172324180603027 4.398787975311279 6.624143123626709 7.714183330535889 5.667420864105225 3.5286052227020264 6.412496566772461 0.8304716348648071
-7.727763652801514 3.150010585784912 -6.626884460449219 -15.58309268951416 5.988437652587891 4.341534614562988 7.361240863800049 -5.017923355102539
9.151065826416016 8.660619735717773 -0.2628139555454254 3.6929123401641846 8.597936630249023 3.9942071437835693 -1.4781566858291626 7.782492160797119
8.486947059631348 -0.02634398080408573 1.9963451623916626 -7.6473774909973145 2.360870838165283 -3.125869035720825 1.3516714572906494 -0.018601033836603165
1.5085891485214233 1.971802830696106 7.211828231811523 -20.4332218170166 -2.1416287422180176 -31.064847946166992 2.038429021835327 -1.119539737701416
6.273168087005615 -4.005444049835205 -19.247068405151367 -16.55373764038086 -8.931982040405273 -1.9500668048858643 -3.693519353866577 -16.55373764038086
-16.55373764038086 -5.108607292175293 0.9532989263534546 -3.9944796562194824 1.3404585123062134 -0.9032077193260193 -0.6769195795059204 3.0851471424102783
-3.124168634414673 2.1660923957824707 -4.272605895996094 9.51020336151123 4.380859375 4.4800567626953125 -1.1815658807754517 4.246936798095703
5.552756309509277 2.3715016841888428 4.080732345581055 8.910433769226074 -3.3411660194396973 -0.18797114491462708 3.141702175140381 3.119992733001709
-3.1320507526397705 3.0757386684417725 0.5989406704902649 -8.766741752624512 -1.3256044387817383 -1.265821933746338 3.040792942047119 -5.242225170135498
-3.6790411472320557 1.5528361797332764 -3.4107108116149902 3.109238862991333 5.565324306488037 -4.518034934997559 -0.9922922253608704 -0.539398193359375
1.8596142530441284 6.108487129211426 -6.386183261871338 4.508986473083496 0.19450262188911438 4.046208381652832 1.4313642978668213 -0.40018826723098755
